ckpt/HUST/wx_inner_pretrain_best.pt (torch, 320579 bytes, 20 tensors)

cnn.conv0.weight f4 [8, 4, 3, 1]
000000 3e e0 70 3c 4e 95 2e 3e f1 42 64 be ea 10 52 be
       0.014701901 0.17049143 -0.22291161 -0.20514265
000010 b6 56 d7 bd aa 57 a8 3d 42 c4 37 bd 20 c4 3d 3e
       -0.10514586 0.082198456 -0.0448649 0.18531847
000020 86 c1 8c bd f0 03 8f 3d 60 4f c2 bd 40 09 86 bd
       -0.06872849 0.06983173 -0.09487796 -0.06544733
000030 aa 4b 36 be d0 fe ba bd b3 07 91 bc 4d 5d a5 3d
       -0.17802301 -0.09130633 -0.017703867 0.08074436
000040 b4 d4 3d 3e 08 8f 7b 3e 10 45 9d bd a6 3a 30 bb
       0.18538171 0.24566281 -0.07679188 -0.0026890426
000050 ed d2 6a 3e c7 b8 7d 3e 00 17 3e bd c2 6e 6f 3e
       0.22932024 0.24777518 -0.046408653 0.23382095
000060 80 fd ca bc ae 47 53 3d 9e 57 90 3e f6 3b 94 be
       -0.024779081 0.05158203 0.28191847 -0.28951997
000070 31 37 51 be 8b f2 c5 bd 5e 3c 16 be b9 9d 5a 3e
       -0.2043121 -0.09665402 -0.14671466 0.21349229
000080 88 df 66 be 38 52 20 be 6e 2d 67 be 54 f5 96 be
       -0.22546208 -0.15656364 -0.22575924 -0.29484046
000090 3e 8e 2c be 9c 19 7e 3e 54 e7 03 3e 54 45 0f 3e
       -0.16851136 0.24814457 0.12881213 0.1399129
0000a0 60 bd 78 3c 0b 8d 17 be d8 0b 48 3d 6b 00 8a be
       0.015181869 -0.14799897 0.04883942 -0.26953444
0000b0 ce 97 55 be 73 64 18 be e2 81 3a 3e 8a 51 2d 3e
       -0.2085869 -0.14882068 0.18213609 0.16925636
0000c0 17 84 05 be 24 99 48 bc b4 ed 3b 3e f0 c7 9b 3e
       -0.1303867 -0.012243543 0.18352395 0.30425978
0000d0 65 49 07 3e 98 b0 68 3d f1 53 35 3e e8 13 37 be
       0.13211592 0.056809038 0.17707802 -0.17878687
0000e0 a8 1f 2c 3d 1e 8b 73 be 7c 0a 5b be 65 ac 26 be
       0.042022377 -0.23783538 -0.21390718 -0.16276701
0000f0 79 75 07 3e fb cf f2 3d f7 91 2b be 55 6d d9 3d
       0.13228406 0.118560754 -0.167549 0.106165566
000100 f5 4a 36 3e 5f 93 85 bc bc c2 22 3d 24 7e be 3d
       0.17802031 -0.016305624 0.039736494 0.09301403
000110 d6 cb 55 3e 1b 1e 90 3e e5 8e 5e be 93 84 cc bd
       0.20878538 0.2814797 -0.21734197 -0.09986224
000120 28 b4 f1 3d e1 70 7a 3e e7 d1 83 3e 44 d5 8b 3e
       0.1180194 0.24457122 0.2574608 0.27311146
000130 35 7f 9d 3d 3c 10 6c be d2 85 fb bc 75 f6 6d be
       0.076902784 -0.23053068 -0.030703459 -0.23238547
000140 18 90 a2 be eb 53 4d 3e 35 13 29 3e fa 7a ae be
       -0.3175056 0.20051543 0.16511233 -0.340782
000150 3b 11 d5 3d ed ac d4 3a 3a c7 58 3b b4 04 9f bd
       0.10403677 0.0016225852 0.0033077733 -0.07764569
000160 61 e7 28 3e 7c dc f0 bd 69 b0 7f 3d 89 fb d2 3d
       0.16494514 -0.11760804 0.062424097 0.10301883
000170 a1 eb 21 3e d9 2e a8 bd e2 df f3 be aa be c1 be
       0.15812542 -0.082120605 -0.47631747 -0.37840778

cnn.conv0.bias f4 [8]
000000 89 06 51 3e dd d9 b2 3d 6e 0f 2f be d3 36 2a be
       0.20412649 0.087329604 -0.1709573 -0.16622476
000010 4e d1 89 3e 0e 5d 2c 3e ff ba 1c be 00 a8 10 3d
       0.269175 0.16832373 -0.15305708 0.035316467

cnn.conv1.weight f4 [16, 8, 3, 1]
000000 04 7b 5d be 60 4e 0c bd 60 52 48 be 91 33 e3 bd
       -0.21628958 -0.03425443 -0.19562674 -0.1109382
000010 20 1b 23 3d 87 59 b1 3d ea 7b bb bd 3a 12 e8 3d
       0.03982079 0.08659654 -0.09154494 0.113316014
000020 eb 52 07 be 4e a9 3d 3e 58 3e 0f 3e 01 44 30 be
       -0.13215224 0.18521616 0.13988626 -0.17213441
000030 1a 63 1c bd 45 2a b6 3c d4 2c 31 3d 17 44 5e 3d
       -0.038180448 0.022236953 0.043255642 0.054264154
000040 83 01 b0 3d 40 32 99 3c ce 18 ac bd 40 3c eb 3d
       0.08594038 0.018700719 -0.084031686 0.11486101
000050 f7 15 37 be f2 ae 57 be 67 15 15 be 13 1e 46 be
       -0.17879473 -0.2106283 -0.14558946 -0.1934741
000060 a8 97 d4 bd ba bd 4d be e4 d4 90 bd 59 ff 7d 3d
       -0.10380489 -0.20091906 -0.07071856 0.062011097
000070 e0 f6 e3 bd b5 f5 7a 3c e0 2a 12 3e d1 9d c3 bc
       -0.11131072 0.01531737 0.14274168 -0.023878964
000080 d1 4e 5a 3b f0 41 90 bc a4 35 29 3d b8 e7 04 3e
       0.0033311138 -0.017609566 0.04131092 0.12979019
000090 85 82 47 3e 87 79 06 3e 0a 4d 48 3e 68 42 66 bc
       0.19483383 0.13132297 0.19560638 -0.014053918
0000a0 63 a2 3a be f4 ff c2 bd c8 29 08 3e 74 90 1b bc
       -0.18226008 -0.095214754 0.13297188 -0.0094948895
0000b0 39 37 e8 bd 92 7f a2 be 07 96 b3 be 8b 17 a9 be
       -0.11338658 -0.31737953 -0.350754 -0.33025774
0000c0 1c 97 29 bd 54 42 e5 3d 54 03 e2 3d ad 96 49 be
       -0.041403875 0.11194292 0.11035791 -0.19686384
0000d0 88 62 02 3e 05 90 23 be 30 c2 30 bd 9e 81 a9 bd
       0.12732899 -0.15972908 -0.04315394 -0.08276676
0000e0 50 0b 21 bd 20 29 24 bd 20 91 3b be 7e 7a 34 be
       -0.03931743 -0.040078282 -0.1831708 -0.17624852
0000f0 d0 d4 02 bd 00 00 2d 3b 6e e8 bd bd 4c 7a 9d 3d
       -0.031941235 0.0026397705 -0.09272848 0.07689342
000100 0e 22 3c be d0 b3 61 bc aa d1 37 3e 89 84 aa bd
       -0.18372366 -0.013775781 0.17951074 -0.0832606
000110 a0 bf 3c 3e a4 65 97 3d 9d a2 3c be 96 3f 04 3e
       0.18432474 0.07392433 -0.18421407 0.12914881
000120 94 97 5e 3d 8b d6 7b 3b d3 d3 8b 3e 51 0d 03 be
       0.054343775 0.0038427438 0.27310047 -0.12798049
000130 81 0e 58 3d 5b fd 92 bc 8d ad 1c 3e f4 43 ab 3d
       0.052748207 -0.017943075 0.1530058 0.083625704
000140 2a 1f 12 3e 04 a3 93 3d 20 0f 49 bd b8 d5 2f bd
       0.142697 0.07208827 -0.04908669 -0.042928427
000150 2f da 23 be f7 95 f0 3d 13 19 2c 3e e3 84 20 3e
       -0.16001199 0.117473535 0.1680644 0.15675692
000160 38 36 03 be e4 fb bb 3c f9 18 44 be dd b9 36 be
       -0.12813652 0.02294726 -0.19150151 -0.17844339
000170 7f eb 4b be 5c 56 00 3d ce c1 1c be 14 9f f8 bc
       -0.19914053 0.03133236 -0.15308306 -0.030349292
000180 ce 0a 0b 3d 74 0e 24 3e 8a 08 f4 bd 52 cc 16 be
       0.03394585 0.16021138 -0.11915691 -0.1472638
000190 75 79 fd bd 86 1a 0d 3e c3 1d 12 bd 86 fb 56 3e
       -0.12376682 0.13779649 -0.035672914 0.20994386
0001a0 fa 7e ee 3d 00 be d3 3c 00 2a c7 ba b4 47 25 bd
       0.116453126 0.025847435 -0.0015195012 -0.040351585
0001b0 1d 77 0d 3d 0b 9a 1b bd 2c 25 ed 3b 6f 00 cf 3c
       0.034537423 -0.037988704 0.0072370972 0.025268761
0001c0 0a 1d 24 be 7c ae dc bd 49 15 37 3e 05 b5 24 be
       -0.16026703 -0.10775468 0.17879213 -0.16084678
0001d0 9a 71 33 bc cd c8 87 3e 8a 42 0c 3e e1 7a 89 3d
       -0.010952378 0.26520386 0.13697258 0.067128904
0001e0 3b 24 35 be 44 17 cf 3d 16 e2 14 be 38 56 6d bd
       -0.17689602 0.101118594 -0.1453937 -0.057943553
0001f0 e8 42 8c bd 28 a1 f7 bc c0 53 12 3b 62 67 2c 3e
       -0.06848699 -0.030228212 0.002232775 0.16836312
000200 f0 c0 d0 3c 74 38 3b 3e 60 b9 ff 3d b8 25 04 be
       0.025482625 0.18283254 0.12486529 -0.12905014
000210 d8 7e bb 3d f4 c1 13 be b3 2d b1 bd f0 e9 75 3d
       0.09155053 -0.14429456 -0.086512946 0.060037553
000220 1c 09 8a 3d a4 d0 1c 3e 62 93 86 bd 00 52 ab 39
       0.06740019 0.15313965 -0.0657108 0.00032676756
000230 58 38 d7 3d 07 25 4a be a2 1e 17 3e 8e d8 2c be
       0.105087936 -0.19740687 0.14757779 -0.16879484
000240 04 91 3c be 89 23 6d be 14 9c a0 be d1 86 7e 3d
       -0.18414694 -0.23158087 -0.31369078 0.06214029
000250 39 ec 51 3e a4 80 bf bc 82 99 3a be be b2 1f be
       0.20500268 -0.02337677 -0.18222621 -0.15595528
000260 a2 e0 99 be 1c b4 bc 3d bf c5 c8 bd 54 7d 0b be
       -0.30054194 0.09214041 -0.09803342 -0.13622028
000270 f9 43 f8 bd 03 28 ea 3d f2 53 d7 3d 90 88 24 3e
       -0.1212234 0.11433413 0.10514058 0.1606772
000280 2c 84 a3 3d 94 3d 79 bd 43 34 53 bb 71 40 ec 3d
       0.07984194 -0.06084974 -0.0032227195 0.11535729
000290 cf 0c 64 3e 4f 7e 4a bd 62 af 50 be 7d ef 52 be
       0.22270511 -0.049436864 -0.20379403 -0.2059917
0002a0 d9 87 62 be 9d db 81 3c 0b 0d 12 be 57 3c 53 be
       -0.22122134 0.01585179 -0.14262788 -0.20628487
0002b0 a8 65 1e 3e d8 84 20 be fd 6f 1d bd 8a 29 29 3d
       0.15468466 -0.15675676 -0.03843688 0.04129938
0002c0 0d 4d 4f bc d9 a5 0c be 3b f5 28 be d2 9b 26 3e
       -0.012652648 -0.13735141 -0.16499798 0.16270378
0002d0 a0 a1 78 3c d2 de 1a 3e 26 50 b1 bd 3a 87 29 3d
       0.015175253 0.15124062 -0.08657865 0.041388728
0002e0 42 f6 85 bd 88 b8 e3 bc 15 e1 0a be 20 ca 69 3d
       -0.065411106 -0.027797952 -0.13562424 0.057077527
0002f0 76 16 53 3d bd 55 a1 bc fc c3 78 bd a3 ce 0e be
       0.051535092 -0.019694204 -0.06073378 -0.13946013
000300 82 8c 10 3e 14 9a 1b be 54 42 ab 3d cc 91 8c bd
       0.141161 -0.15195495 0.083622605 -0.06863746
000310 a7 b1 c9 bd 2c 33 16 3d 35 28 d9 bd c8 a3 40 3d
       -0.098483376 0.036669895 -0.10603372 0.047031194
000320 4c 31 24 3d 8e 32 1b be 4c 35 0b 3d e0 0e b2 3d
       0.040086076 -0.15156004 0.033986375 0.086942434
000330 c4 79 a5 3d 10 7e d2 bc c6 5a 2b be 18 e3 00 bd
       0.080798656 -0.025694877 -0.16733846 -0.031466573
000340 d0 30 91 3d 18 89 98 bd b4 ae 9e 3d 9a 33 0b 3e
       0.07089388 -0.074480236 0.07748166 0.13593903
000350 95 48 da bd 40 ed 03 3b 98 dc ac 3d f0 0f 83 3c
       -0.10658375 0.0020130426 0.084405124 0.01599881
000360 7d d3 46 bd a0 68 5c bd af 6a 81 be 54 d7 a8 3c
       -0.048541535 -0.053810716 -0.25276706 0.020610489
000370 8f a1 1a 3e 49 d1 4b 3e 4c df f0 3d e5 87 57 3c
       0.15100692 0.19904055 0.117613405 0.013154958
000380 61 18 a3 3d fa 5e cb bd 0d 37 2d be 50 be 33 be
       0.07963634 -0.09930225 -0.16915531 -0.17553067
000390 0c 8b 5c 3e e2 61 11 3e 28 32 03 be a9 1c a9 3d
       0.21537417 0.14197496 -0.12812102 0.082574196
0003a0 c9 02 22 3e 2d 8e 56 3e ff 98 37 3e 2e ee 26 3e
       0.15821375 0.20952673 0.17929457 0.16301796
0003b0 47 72 20 bd ff 36 ae bc f3 36 5c 3e c3 5b 23 3e
       -0.039171483 -0.021266459 0.21505336 0.15952973
0003c0 59 8c 9b bd 70 42 7a 3e ea 95 30 3e 3c 92 f0 3d
       -0.075951286 0.24439406 0.17244688 0.11746642
0003d0 d9 f0 03 be e4 de 4f 3d 9a f5 13 bd 54 17 65 3e
       -0.12884845 0.050749674 -0.036122896 0.2237218
0003e0 7c eb 4e 3d 28 c0 a2 3d 20 82 14 3d 8c dd b1 3d
       0.050517544 0.07946807 0.03625691 0.08684835
0003f0 48 ca 94 bd 34 1f c3 3d ba 14 17 be 16 9b 3f 3d
       -0.072651446 0.09527436 -0.14754 0.04677876

cnn.conv1.bias f4 [16]
000000 ba c2 8e 3c 5b 26 78 bd 00 cb 35 bd 12 ce 65 3d
       0.017426837 -0.060583454 -0.04438305 0.056104727
000010 99 33 d5 3d 83 70 12 be 3f 70 20 3e 11 f7 2c bd
       0.10410232 -0.14300732 0.15667818 -0.04222781
000020 67 26 2f be b9 73 e5 bd 7a 8f 41 3e 7a 4c 2a 3e
       -0.17104493 -0.11203713 0.18902388 0.16630736
000030 dc ac 3e be ae 35 10 3e 7c 8e ca 3d 70 c3 46 3e
       -0.18620628 0.14082977 0.09890458 0.19410491

cnn.conv2.weight f4 [64, 16, 3, 1]
000000 6c 5b 04 3e c2 d8 90 bd ad ef 56 3d c3 6b 86 3d
       0.129255 -0.07072593 0.052474666 0.06563523
000010 61 13 13 bd b5 60 62 3d 1c 19 2a bd 96 c2 b6 3d
       -0.035907153 0.05526801 -0.041527852 0.08923833
000020 74 08 24 bd 8e d5 4e bd 75 3d 21 3d 26 68 5b 3d
       -0.040047124 -0.05049663 0.03936525 0.05356612
000030 82 88 94 bd 23 f6 21 3c e5 b9 a2 3d e0 4a 6b bc
       -0.07252599 0.009885344 0.07945613 -0.014361113
000040 9c ec 33 3d 62 97 0e bd 03 78 6c 3d 00 41 c7 bd
       0.04392682 -0.03481234 0.05773164 -0.09729195
000050 2e df 9e bd de d2 86 bd 97 c8 0d 3e 29 7b 0a bd
       -0.07757412 -0.065831885 0.1384605 -0.03380886
000060 00 9e ce b9 ef 37 8f bd 86 8c 13 3e c4 22 18 3e
       -0.000394091 -0.0699309 0.14409074 0.14857012
000070 f9 62 cf bd 35 52 e0 bd bc fb d6 bd b1 0a 4a 3b
       -0.101262994 -0.1095318 -0.10497233 0.0030829126
000080 e3 a2 09 bd 72 01 b5 bd 0c b0 3a bd b7 53 09 3d
       -0.033602607 -0.08838166 -0.045578048 0.033527102
000090 67 09 9a bd 1c 3f 01 3d 90 28 f1 bc d0 1b 7a bd
       -0.075213246 0.031554326 -0.029438287 -0.06106168
0000a0 29 0f ee 3c 19 29 03 3e 31 d4 b8 bd 1f f2 62 3c
       0.029059963 0.12808646 -0.09024847 0.0138516715
0000b0 80 ab 3d bd 3b 82 d6 3d 5b 61 4f be 00 12 81 be
       -0.046306133 0.10474058 -0.20251982 -0.25209045
0000c0 41 68 54 3e 2a 2b a2 bc f9 8a 15 3d c5 16 d6 bd
       0.20742895 -0.019795973 0.036509488 -0.10453562
0000d0 df 02 d3 bc 09 69 ad 3d 9e d6 bb 3d 20 10 e2 3b
       -0.025758205 0.084672995 0.09171794 0.006898895
0000e0 e0 e6 0f be 82 ed a9 bd b9 d5 0e be 5d e1 4c be
       -0.14052916 -0.08297254 -0.13948716 -0.20007844
0000f0 f9 81 50 bc c6 6c 1c 3e 45 82 8c bd 04 51 d4 bc
       -0.0127263 0.15275869 -0.068607844 -0.025917538
000100 54 9f e7 3d 90 92 94 3d ba 3c 97 3c 27 80 81 3d
       0.11309686 0.07254517 0.018461574 0.06323271
000110 65 99 0a 3d ea 1f c4 bd 40 f3 2f bc 04 a7 f4 3d
       0.033837695 -0.095763996 -0.010739148 0.11945918
000120 b0 6b 46 bd 1b 11 09 be 38 5a 72 3d 22 35 2f 3e
       -0.048442543 -0.13385431 0.05916807 0.17110112
000130 2a 73 9d 3c b7 92 2c bd 73 fe fc bd f5 ac 5e bb
       0.019219954 -0.042132106 -0.1235322 -0.0033977602
000140 ef 3f e7 bd 64 cc 48 bd ee ff 6d 3d dd 2d b4 3d
       -0.11291491 -0.049023047 0.0581054 0.0879781
000150 5f fb 0a 3e 3c a0 92 3e af 26 4e 3e e3 e4 be be
       0.13572453 0.28637874 0.20131944 -0.37284002
000160 64 a8 a2 be 4d 13 24 3d 67 88 a3 bd c3 54 aa bc
       -0.31769097 0.04005747 -0.07985001 -0.02079237
000170 55 94 0f be 80 12 50 3e d7 b6 15 3e 0d 2b ba 3d
       -0.14021428 0.20319557 0.14620529 0.090902425
000180 e9 8a 10 be cd b8 90 bd 12 2a ef bd b9 62 f6 3d
       -0.1411549 -0.07066498 -0.11677946 0.120305486
000190 45 e0 b9 bd 6e f4 bc bd d2 de 9a 3d 6d be 88 bd
       -0.09075979 -0.09226309 0.07562031 -0.06676946
0001a0 58 97 91 bd e0 f3 9a bd 3e ab 96 bd 6c e3 27 be
       -0.07108945 -0.07566047 -0.073568806 -0.16395348
0001b0 b8 6c f8 3d 9f f2 07 bd a4 a7 d7 3d 34 8e 00 3e
       0.121301115 -0.033190366 0.10530022 0.12554246
0001c0 e0 13 95 3d e8 67 a7 3c f2 1b ff 3d d8 c6 28 3c
       0.072791815 0.020435289 0.12456502 0.010301314
0001d0 86 10 af bd dd 4e f6 3d 4b 21 83 3c a1 4c 23 be
       -0.085480735 0.12026761 0.016007086 -0.159472
0001e0 c2 4f 28 bd fa 5a c9 bd e6 95 01 3e 6f cf 21 bc
       -0.041091688 -0.098318055 0.12654838 -0.009876116
0001f0 92 3b 04 be 4e 60 8b bc 54 0e a4 3d 30 88 18 3d
       -0.1291335 -0.017013695 0.080105454 0.037239254
000200 01 0c 93 3d a9 10 6c 3c 78 ce 50 3d 4d 99 2d bd
       0.07180024 0.014408269 0.050978154 -0.042382527
000210 72 56 4e 3d 37 ff d5 bd 4e fa e6 bd 27 1c 55 3d
       0.05037541 -0.10449069 -0.112782106 0.0520288
000220 8b 4f ca bd 10 4d 19 3c 47 7a 0e 3d 3c 13 1b bc
       -0.09878453 0.009356752 0.03478458 -0.009465035
000230 da 6e f1 bd 16 54 1d 3e c1 44 24 bd ee 7e 3a 3e
       -0.117887214 0.15364107 -0.04010463 0.18212482
000240 3d 2d f8 bd 13 2d 27 bd 56 e7 95 3d 5a fb 80 bd
       -0.121180035 -0.04081447 0.073195145 -0.062979415
000250 33 32 f0 3d 0e 27 d3 bd 40 3d f8 bd 0f 4b 85 bd
       0.11728325 -0.103101835 -0.121210575 -0.06508457
000260 38 23 bf 3c 81 f6 f2 3d 64 95 ab bd 79 e2 16 3d
       0.023332223 0.11863423 -0.083781034 0.036837075
000270 45 1d 57 bd ed a5 4b bd db 1c b2 3d a2 16 e5 bd
       -0.052518148 -0.049718786 0.0869691 -0.111859575
000280 10 2d 7b 3c 7a fe 0a 3e ef 39 e2 bc 1e 5f d6 3d
       0.015330568 0.13573638 -0.027615516 0.10467361
000290 70 12 55 bd 73 45 d8 3d 5a 21 19 be 4b 3a fd bc
       -0.052019536 0.105601214 -0.14954129 -0.030911585
0002a0 c8 af cf bc e8 99 3f 3d 54 f2 67 3d 58 3a d0 3d
       -0.025352374 0.046777636 0.056627586 0.10167378
0002b0 1a fd f5 bc 90 32 6d bc 93 ff b4 3d 91 4c 4e bd
       -0.030027915 -0.014477387 0.088378094 -0.05036599
0002c0 e9 d3 e8 3d cf 2f da bd c5 ab d3 bc bc e4 94 bc
       0.11368544 -0.1065365 -0.025838742 -0.018175475
0002d0 3c f1 b6 3d 40 18 eb 3d 92 53 51 bc 86 03 04 be
       0.089327306 0.11479235 -0.012776272 -0.12891969
0002e0 dd 24 7f 3d 1e 3c 0a 3d 49 b1 47 3d fe 0c c9 bd
       0.062291015 0.03374874 0.048753057 -0.09816931
0002f0 a7 fd ab 3d d3 c7 99 3d f5 c0 c8 bd f1 27 b7 be
       0.0839799 0.075088166 -0.09802429 -0.3577266
000300 b4 82 cf 3d eb 2c db bd e4 e6 07 3d 60 d3 ab 3c
       0.101323515 -0.10701927 0.03317918 0.020974815
000310 69 5a 8a bd 04 db 4d 3d da 32 04 be 24 a7 06 3d
       -0.067555256 0.050257698 -0.12910023 0.03287424
000320 e4 65 bb bd a0 b7 7f bc a8 17 98 3c 70 d6 fb 3d
       -0.091502935 -0.015607744 0.018565968 0.1229676
000330 d1 09 8d bd ca 5f bd 3d e0 34 96 bc e6 63 8c bd
       -0.06886638 0.09246786 -0.01833576 -0.068549916
000340 a5 b4 00 be 5a 9c 07 be 3e 58 10 3e 5a 72 13 bd
       -0.1256891 -0.13243237 0.14096162 -0.035997726
000350 a0 3d ec 3b 8c 48 20 3d 5c ee c8 3d 30 4a fc 3d
       0.0072094947 0.039131686 0.098110884 0.12318838
000360 48 bd ef 3d ec 01 db bd 48 71 bd bc 6c eb ae bd
       0.117060244 -0.10693726 -0.023125306 -0.08540997
000370 bc e4 a8 bd 08 3d 0c 3d d6 bb 0a 3e 1a cf ec bd
       -0.082467526 0.03423789 0.13548216 -0.11562939
000380 84 e6 b2 3d af 42 99 bd c0 4d e6 bc 2c a4 ea 3d
       0.087353736 -0.07483422 -0.028113246 0.114570946
000390 a0 b6 05 bd c0 54 57 3c e8 a2 ce bd 30 a1 fb 3d
       -0.032644868 0.013142765 -0.10089666 0.122866035
0003a0 b0 d9 98 bc 93 33 d8 bd 84 1c 2d 3d da 2d d2 bd
       -0.018658489 -0.10556712 0.042263523 -0.10262652
0003b0 3c 90 ea bd 30 10 10 3c 00 5e ea 3d 52 4d 27 bd
       -0.11453292 0.008792922 0.1144371 -0.040845223
0003c0 d3 1f 9e 3d f7 8f 09 3e e2 6b d9 3d 09 56 88 bd
       0.07720914 0.13433824 0.1061628 -0.06657035
0003d0 ce 7e cd bb 0f a5 11 bd 90 b3 ed bd 00 20 7a 38
       -0.00627122 -0.035557803 -0.116065145 5.9634447e-05
0003e0 1c 6c de 3d 87 25 04 3e d6 35 ac 3c 3c d1 23 3d
       0.10860464 0.1290494 0.021021765 0.039994463
0003f0 07 30 71 bd 72 58 e0 3d 15 ba 83 bd 78 57 cd bd
       -0.058883693 0.109543696 -0.06431977 -0.10026449

cnn.conv2.bias f4 [64]
000000 17 3a 18 3e 42 26 14 be 94 20 f2 3d 5b 10 e8 3c
       0.1486591 -0.14467719 0.1182262 0.028328111
000010 ca b6 06 be c0 1a 0b 3e a9 45 55 bd 14 6a 47 bd
       -0.13155666 0.13584423 -0.052068386 -0.04868515
000020 32 de 83 bd ee 08 fa bd aa 97 dc 3d 02 2e 11 be
       -0.06438865 -0.122087345 0.10771115 -0.14177707
000030 34 f1 72 3d b4 17 12 bd 48 7b 4f 3d 74 cc 21 bd
       0.05931206 -0.035667136 0.05065468 -0.039501622
000040 f9 40 74 3d c8 68 64 3a 64 f6 ce 3d 40 87 70 bd
       0.059632275 0.00087131234 0.10105589 -0.058722734
000050 5e 54 cb bd 13 f1 1d 3b 4a cf cb bd 58 3f b7 bd
       -0.09928201 0.002409999 -0.099516466 -0.08947629
000060 11 1f 0e be ae 6b 98 bb 7d 1e de bd 2f 0e f8 3d
       -0.13879038 -0.0046515083 -0.10845659 0.1211208
000070 51 fe e5 3d 1a 34 90 3c 7e 01 db 3d 83 b6 5b 3d
       0.11230148 0.017602969 0.10693644 0.053640854
000080 85 3b 0b be f0 9c 6c bc 98 ee bf bc c0 7a b3 bd
       -0.13596924 -0.014441714 -0.0234292 -0.08763647
000090 0f bd 33 3d fd 1d f3 3c ec 59 8d bd 15 7f 20 3c
       0.043881472 0.029677385 -0.06901917 0.009795924
0000a0 86 99 bf bd 98 61 f0 3d ea 40 d2 3d d0 61 15 3e
       -0.09355454 0.117373645 0.102662876 0.14588094
0000b0 32 fe 18 bd 5e ab 6b 3d 80 3c be bb 11 9b f4 bd
       -0.037351795 0.057536475 -0.005805552 -0.11943639
0000c0 90 a2 6e 3d 79 d7 f2 bd 8a 0a 83 bd 5f 97 e5 bb
       0.0582605 -0.118575044 -0.063984945 -0.00700657
0000d0 d5 30 10 be af 4c 53 3c fb bf 5b bc b0 cf 2f bc
       -0.14081128 0.012896701 -0.013412471 -0.010730669
0000e0 6f 93 cb 3d 80 c6 e2 3b 1d d4 2b bd e4 b1 b6 bd
       0.0994023 0.0069206357 -0.041950334 -0.08920649
0000f0 65 d9 dd bd c0 1a a8 bc 73 cb b2 bd 64 00 c3 bd
       -0.1083248 -0.020520568 -0.08730211 -0.09521559

rnn.0.rnn.weight_ih_l0 f4 [256, 64]
000000 2d f8 40 bc 7f 7d 42 be ff ba 40 bd fe f6 95 3d
       -0.01177792 -0.18993185 -0.047053333 0.07322501
000010 92 1b d9 3d 69 76 aa bd d6 e7 c0 bd c1 8b 73 bd
       0.10600962 -0.08323366 -0.09419219 -0.05945945
000020 91 2a 11 be 26 fa ee 3d 1e 3a 0c 3e da 16 f4 bd
       -0.14176394 0.11668806 0.13694045 -0.11918421
000030 82 56 eb 3d a0 4c ad bb 1a 30 80 bd 4a 7d 8d bd
       0.114911094 -0.0052886754 -0.06259175 -0.069086626
000040 00 be de 3d a8 91 ab 3b 07 b0 fb 3d 1a 40 a8 3d
       0.108760834 0.0052358694 0.12289434 0.082153514
000050 2c b9 46 bd ae 22 e9 3c d1 77 97 bd 14 c6 d5 3d
       -0.048516437 0.02845892 -0.073959 0.10438171
000060 0e 5f 87 bd d2 b5 1b 3e 09 89 02 3d c7 97 9e 3d
       -0.06609927 0.15206078 0.03186897 0.07743793
000070 cd 81 b1 bd 1d 30 05 3c ca da 96 3d c9 cf ee 3b
       -0.08667336 0.008129147 0.073659495 0.0072879535
000080 80 15 eb ba 00 80 79 3d ba 55 bf bd f8 4c cd bc
       -0.0017935485 0.060913086 -0.09342523 -0.025061116
000090 04 f4 73 3d 02 7a 12 3e b0 c4 ed 3d dc 5e d6 bc
       0.059558883 0.14304355 0.11609781 -0.02616828
0000a0 00 1e 05 be 49 b2 71 bd fd e4 8b bc 76 b7 78 bd
       -0.12999725 -0.059007917 -0.017076964 -0.060721837
0000b0 98 43 cc 3d 5c 74 12 3b c8 49 50 3d d2 cf 8c 3d
       0.0997383 0.0022347188 0.050851613 0.06875576
0000c0 d7 6a c2 3c 1d d3 e0 bd 6a 32 23 3b 33 56 0a be
       0.023732586 -0.10977767 0.0024901875 -0.13509445
0000d0 f8 fb a4 3c 51 00 c8 bc 11 c0 d4 bd d4 82 ee 3d
       0.02013968 -0.024414213 -0.10388196 0.11646047
0000e0 e7 b5 43 bc 4c 88 7f bd 35 47 e6 bd 3d ca eb bd
       -0.011945224 -0.062385842 -0.112440504 -0.11513183
0000f0 44 71 48 3d f4 ba 69 bd 2e 2a 5d bd 88 20 94 bd
       0.048936144 -0.057063058 -0.053995304 -0.07232767
000100 d0 1f f2 3d e4 13 bd 3e 7f fc 4e 3e 26 7c 7e 3d
       0.11822474 0.36929238 0.20213507 0.062130116
000110 2c 7a c6 bd 7e e4 43 3e 79 b4 1d 3f f6 6d 1c 3e
       -0.09691271 0.19130132 0.61603504 0.15276322
000120 83 c5 f0 3e 98 fb f7 bd da ed 6e 3e 2c fb 33 3d
       0.4702569 -0.121085346 0.2333292 0.043940708
000130 50 bd 39 bd a2 20 c2 3d 02 00 d4 bd 7c cf bf 3d
       -0.045346558 0.094788805 -0.10351564 0.093657464
000140 25 f7 85 3e 40 b4 45 3e 61 e3 68 3e 78 d1 98 bd
       0.2616512 0.19307041 0.22742988 -0.07461828
000150 42 43 dc bd 6c 78 ea bd 3a 28 1b bd e4 05 91 3d
       -0.10755016 -0.1144875 -0.03788016 0.07081202
000160 6c 19 22 3d 81 ef 29 3e 9a 3d e6 3d 54 ec 73 3e
       0.039575025 0.1659527 0.11242218 0.23820621
000170 fe 74 10 bd 85 f2 0c bd 62 fc 0d 3d 77 0c 66 3c
       -0.035267822 -0.034410972 0.03466452 0.014041058
000180 00 94 6a ba 24 aa 45 3d 6c a0 b0 3d c0 a3 b8 bc
       -0.00089484453 0.048257962 0.08624348 -0.02253902
000190 6e 41 e4 3d 79 bc 3d 3e 44 88 44 3d e5 a1 1a 3e
       0.11145292 0.18528928 0.047981516 0.1510082
0001a0 b4 80 a9 3e d3 1c da 3c 6a 99 40 3e 3f 00 e0 bc
       0.33106005 0.026625073 0.18808523 -0.027343867
0001b0 69 44 41 3e b8 3c 1f 3d fc 9f af 3d 40 6f 4d 3d
       0.18873753 0.038876265 0.085754365 0.050154924
0001c0 f5 80 ef bc fe 84 8d 3e 5b 9c 52 bd d4 fb ae 3e
       -0.029236296 0.27640527 -0.051418643 0.34176505
0001d0 b8 be 16 3d 73 4f 65 3d ac 13 e6 3c c0 a0 22 bb
       0.036802977 0.05598397 0.028085552 -0.0024815053
0001e0 69 7b 04 3d 2c d3 8e 3d 81 97 14 3d 10 f8 3e 3d
       0.032344256 0.069738716 0.036277298 0.04662329
0001f0 ec 29 ae 3d be f1 85 bd 7c e5 ed bc 00 7f 69 bb
       0.0850409 -0.06540249 -0.02904009 -0.0035628676
000200 c5 5f cd 3d b8 1f 30 3e 69 1c 8a bd 67 e6 6c bd
       0.10028032 0.171996 -0.067437 -0.057836916
000210 e8 ac da bd 59 5b 8d bd 4e ed b0 3e 25 c0 76 3c
       -0.106775105 -0.06902189 0.3455605 0.015060459
000220 71 31 f0 3d f8 14 a9 bc 67 7a 40 bd 34 06 36 bd
       0.1172818 -0.020639881 -0.046991732 -0.04443951
000230 7e 21 d6 bd 14 53 8b 3d a0 f3 7c bc c5 34 24 3e
       -0.10455607 0.06802955 -0.015438944 0.16035755
000240 52 fe 7b bd 03 83 20 bd 2f 21 e5 3c b4 45 b2 bd
       -0.061521836 -0.039187443 0.027969925 -0.08704701
000250 d6 90 ba 3d 9a b2 b7 3d c4 f6 da 3d 5c 9a a1 bd
       0.091096565 0.089696124 0.10691598 -0.0789077
000260 e6 24 b6 3d 8f 63 ea 3d d2 3b 4c bd 5d 04 5b 3d
       0.088937566 0.114447705 -0.049861737 0.053470958
000270 db 0d 97 3d 6f 56 cb 3d 62 fb ed bd c6 cc e9 3d
       0.073756896 0.09928595 -0.11620213 0.114160106
000280 64 ba 00 bd a0 9c 50 3d b0 ff 9e bd ca 00 c5 bd
       -0.031427756 0.05093062 -0.07763612 -0.09619291
000290 a7 17 7c bd eb d8 b3 3d 70 8d 7c bd 36 1a f6 3d
       -0.061545994 0.08781608 -0.061658323 0.12016718
0002a0 b6 19 b1 3e df a8 ae 3d 26 b1 ce 3b 96 c3 a2 bc
       0.34589928 0.08528303 0.006307739 -0.019868653
0002b0 cb 85 e4 bc 12 7b 04 bd 3e 0a ec 3d 00 9a de bb
       -0.027895829 -0.03234393 0.11525391 -0.0067932606
0002c0 d8 da 5c bd 22 20 1c 3e 59 32 78 bb c3 90 61 3d
       -0.053919643 0.15246633 -0.0037871806 0.055069696
0002d0 80 ed c0 ba 46 b9 c3 3d 47 e3 93 bd 18 a8 8c 3d
       -0.0014719218 0.095568225 -0.07221084 0.06867999
0002e0 38 42 95 bb 6a e4 c4 bd d4 43 03 be 5a 5a 7e 3d
       -0.004555013 -0.09613879 -0.12818843 0.062097885
0002f0 b6 cc c5 bd 6c ff 79 3d f2 9c 92 3c 72 22 8b 3d
       -0.09658186 0.061034605 0.017897103 0.06793679
000300 d7 6f b4 bd f3 1a 16 bd 77 8d 8c bd 71 0e c5 bd
       -0.08810394 -0.036646795 -0.0686292 -0.09621895
000310 22 85 99 3d 23 0f bf 3b af 7a 3c be 0a 5f fd bc
       0.07496096 0.005830662 -0.18406175 -0.030929107
000320 73 98 59 be 92 cc de bd 08 60 a6 3d 4a 4a c3 3d
       -0.21249561 -0.108788624 0.08123785 0.09535654
000330 00 e8 18 3d b8 18 c1 3c cc b1 07 bd f9 e7 e0 3d
       0.037330627 0.023571357 -0.033128545 0.10981745
000340 da 43 81 3b 94 d1 33 3d 9a 53 43 3d 80 ca 9f 3c
       0.003944856 0.04390104 0.04768715 0.01950574
000350 34 bc 2a 3d 73 ee e7 3d 2c e8 a0 3d d8 0c 83 3c
       0.04168339 0.113247775 0.07856783 0.015997335
000360 94 b2 4c 3d fc c0 d9 3c 7d 98 af 3d b0 9a 16 3d
       0.049974993 0.02658128 0.08574007 0.036768615
000370 ac 3d bd 3d db ec 14 bc 01 39 bb bd 3c a6 0e 3d
       0.092402786 -0.009089674 -0.09141732 0.034826502
000380 40 3d 50 3d 74 da ce 3d 5c 72 46 3d f8 2b 3d 3d
       0.050839663 0.101002604 0.048448905 0.04618451
000390 a3 98 ca 3d 58 c1 a6 3c 90 07 e2 3d ad 9e 68 3d
       0.098923944 0.020355865 0.11036599 0.05679195
0003a0 b6 27 ac bd 96 7a b7 3d e8 4e be bd ed 54 84 3d
       -0.08406012 0.08958928 -0.09292394 0.06461511
0003b0 12 7b ff 3d 90 c0 b1 bd 10 87 2f bc 34 3c 9c bd
       0.12474646 -0.086793065 -0.010713354 -0.0762867
0003c0 53 9a ee bc 12 11 27 be 88 43 9f 3d eb 4c 8c bd
       -0.029126322 -0.16315106 0.077765524 -0.068506084
0003d0 80 69 f2 bd d4 95 8c 3d 24 2e 95 3d 60 a3 b9 bc
       -0.11836529 0.06864515 0.07284191 -0.022660911
0003e0 dd 2a d7 3d 5e 59 c5 3d 9a 63 ae bc f4 24 9e 3b
       0.105062224 0.09636186 -0.021287728 0.0048261825
0003f0 f3 d2 c2 3c 70 a9 c8 bc 50 44 fc bc dc 1d 67 bd
       0.023782229 -0.024494857 -0.030794293 -0.05642496

rnn.0.rnn.weight_hh_l0 f4 [256, 64]
000000 e0 1a 81 bc c8 8f ba bd a9 75 0e bc 4c 77 db 3d
       -0.015759885 -0.09109455 -0.008695045 0.107161134
000010 23 91 9d 3d f1 ec 36 bc e3 71 b0 bd ec 5c 41 bd
       0.07693698 -0.01116489 -0.08615472 -0.047207758
000020 fb 98 88 3a 2b 48 5a bd ae d9 49 bd a4 f1 95 3d
       0.0010421568 -0.05329148 -0.04927986 0.0732148
000030 b2 2e fd bd 7e 83 71 bc c5 d4 c6 3d 6a 3e 32 3d
       -0.12362422 -0.014740823 0.09708551 0.043516554
000040 5d 1e 49 bc b9 47 be 3d 24 6f a2 bd 0f 68 37 3d
       -0.012275306 0.09291024 -0.07931355 0.044776972
000050 ac 1e fd 3d bb 2a b7 bc be 52 f0 bd 4d d9 b9 bd
       0.12359366 -0.022359243 -0.11734532 -0.0907465
000060 06 7a e0 bd de 66 84 bd 16 46 21 3d c0 97 75 bd
       -0.10960774 -0.06464933 0.03937348 -0.059959173
000070 69 42 9e 3b c2 a6 e1 bd aa 4d e8 bc e6 96 49 3d
       0.004829694 -0.11018135 -0.028357346 0.049216174
000080 f0 59 5c 3d 37 c3 d4 3d 43 2d 65 3d 2a 2f bd bd
       0.05379671 0.10388797 0.055951368 -0.092375115
000090 3e 59 9d 3d 51 1c bb bd 51 1d 2f 3c 2b 6f 80 3d
       0.07683037 -0.0913626 0.010688142 0.062712036
0000a0 73 da e1 3d 49 66 a1 3c fd 17 44 3d f5 9c 9e 3d
       0.11027994 0.019702094 0.04787444 0.07744781
0000b0 15 0c fc 3d f5 af bc 3d 8d d4 39 bd 67 be 19 3d
       0.12306992 0.09213249 -0.04536872 0.037535097
0000c0 8e 86 e9 bd d9 fd 0b bd e1 f6 6c 3c c3 a5 96 3d
       -0.114026174 -0.034177635 0.014463157 0.07355835
0000d0 cd 70 a6 3d 8a cd 77 3c 49 b9 5c bd c2 2d c1 3d
       0.08126984 0.015124688 -0.05388764 0.09432556
0000e0 1d a5 c2 3d 70 c1 46 bd d6 19 db bc 87 ba a9 bc
       0.09504149 -0.04852432 -0.026745718 -0.020718826
0000f0 6c 94 42 3d fe c6 bb bd bf 7c b4 bd dc ec 8e bd
       0.047504827 -0.09168814 -0.08812856 -0.06978771
000100 48 ea cd 3d be 70 5d 3c 82 bf 13 3e c9 b8 f6 3c
       0.10054451 0.013515649 0.14428523 0.03011741
000110 85 4f 30 3e 7c ba cf bc 8f 89 92 3c 05 7e ac 3d
       0.17217834 -0.025357477 0.017887859 0.08422474
000120 bc dd 64 bd 10 c2 2a 3d 51 93 10 be 3a 35 0e bb
       -0.055875525 0.04168898 -0.14118697 -0.0021699206
000130 b2 e6 97 3b 18 72 96 3d be e0 af 3d 23 81 84 bd
       0.0046356553 0.073459804 0.08587788 -0.064699434
000140 1c 00 1e 3e de ad ab bc cd 9f 18 bd 1f 35 03 be
       0.15429729 -0.02095693 -0.037261773 -0.12813233
000150 42 b0 8c 3d f7 92 aa 3d a4 85 27 bd f1 de a3 3c
       0.06869556 0.083288126 -0.040898934 0.020003768
000160 83 d8 6f 3d 39 cd 52 3d eb 67 ad 3b 9b 83 8f bd
       0.05855609 0.051465247 0.005291929 -0.070075236
000170 63 9e a9 3d 91 ad 11 bd 5b be 0d be cb 5f 99 3c
       0.08282163 -0.035565916 -0.13842146 0.018722435
000180 fa a5 05 3d c8 d9 95 3d d1 2b 05 3e f7 4d 84 bd
       0.03262899 0.07316929 0.13004996 -0.06460183
000190 f7 84 67 bd 8a ba 04 bd 7b 95 36 3c 6b 4d e2 3d
       -0.05652329 -0.03240446 0.011144037 0.110499226
0001a0 cc 5f 89 3d 4f 0c 18 be 88 16 91 3d 9b 2c 28 3d
       0.06707725 -0.14848445 0.070843756 0.041058164
0001b0 4c 23 a4 bd 14 ea 5a 3d a1 80 a9 3b bb 81 94 bd
       -0.08014545 0.05344589 0.0051728045 -0.072513066
0001c0 55 65 4a bc b4 fc 4a 3d 82 b2 c1 3d 05 22 a8 3d
       -0.012353261 0.049557403 0.09457876 0.08209614
0001d0 54 11 74 3d 34 e9 81 3c a2 e7 99 3d 5e 02 d5 3d
       0.059586838 0.01585827 0.075148836 0.10400842
0001e0 ff 61 59 bd 5d aa a8 bd 54 0d c0 bd eb 1d a6 bc
       -0.053071972 -0.08235619 -0.09377542 -0.020277938
0001f0 43 fe 48 bd b3 f5 9c 3d bb a4 cc bc 99 98 20 3e
       -0.049070608 0.07664051 -0.024980893 0.15683211
000200 8c 4d cd bd fe ae a9 bc 14 81 a0 3b 10 57 6c bc
       -0.100245565 -0.020713326 0.0048982 -0.014425054
000210 06 0f 2c bc 3d 92 a2 bd f6 d0 10 bd a9 4b b8 bd
       -0.010501629 -0.07938049 -0.03535553 -0.08998806
000220 80 25 d8 bd 06 80 20 be d4 0d f0 3d e7 a3 12 3d
       -0.105540276 -0.15673837 0.117213875 0.03580084
000230 45 dc 12 3e 63 86 ac 3b c4 9b 5c bd 25 75 3f bd
       0.14341839 0.0052650436 -0.053859487 -0.046742577
000240 fc e1 08 be 88 b5 01 3e 63 84 b5 3d 84 67 a0 bd
       -0.13367456 0.12666905 0.088631414 -0.07832244
000250 17 90 ec 3c e9 de b1 3d 25 73 8b bd 76 04 7d bd
       0.028877301 0.08685095 -0.068090715 -0.061771832
000260 f8 08 9f bd e8 e5 e5 bd 34 36 dc 3d 9b 77 63 3c
       -0.077653825 -0.11225492 0.10752526 0.013883497
000270 37 4f d0 bc cf c5 c6 3d 21 ee aa bd 43 6c d8 3d
       -0.025428398 0.09705698 -0.08346201 0.10567524
000280 ef e4 b3 bd b6 40 e1 3d cf 0a be bd 9e 34 8c 3d
       -0.087839 0.10998671 -0.09279405 0.068459734
000290 29 6b c3 3c a1 23 02 be 0f f9 c1 3d eb 4d 91 3c
       0.023854809 -0.12708904 0.09471332 0.01773735
0002a0 13 3b ad 3d 59 bf 92 3d 29 e3 85 bd 07 a2 de 3c
       0.08458533 0.07165403 -0.06537468 0.02717687
0002b0 5d 5e 70 3d 6c 80 d4 3d ed 93 e7 bd e8 13 71 3b
       0.05868374 0.10376057 -0.113075115 0.0036785547
0002c0 b4 b8 b0 3d d7 be 96 bd 50 36 a9 bd 01 2e 03 3e
       0.08628979 -0.073606186 -0.082623124 0.12810518
0002d0 a9 c0 b8 3c 4a 5e 31 bd 10 9e db bd 74 78 15 bb
       0.022552805 -0.04330281 -0.107235074 -0.0022807391
0002e0 2c 02 05 3d c7 03 d9 3d 30 d3 10 bd 46 63 2f 3d
       0.032472774 0.105964236 -0.035357654 0.042819284
0002f0 98 bc a8 3d 49 09 2d 3d cf ef cd bc 3b 35 05 3d
       0.082390964 0.042245183 -0.025138764 0.032521468
000300 8b 50 82 bc a0 4a 6f bd 96 59 7f bd 48 db 01 bd
       -0.015907547 -0.058420777 -0.062341295 -0.031703264
000310 8f ad 15 bd 3f d8 17 bc 3f 17 b8 3d 7f d7 6e 3d
       -0.03654247 -0.009267866 0.08988809 0.05831098
000320 7c e1 29 3d 63 3f 58 3d 4f e7 ed 3d 4a 4a ae bd
       0.041474804 0.052794825 0.11616384 -0.08510263
000330 3f fb b3 bc 3c 62 bd bd c0 07 83 bd 75 fd 51 3d
       -0.02197039 -0.09247252 -0.063979626 0.051267106
000340 60 ea d1 3d b0 cb 31 3d 9e 55 10 bd 24 87 0e bc
       0.102497816 0.043407142 -0.0352379 -0.008699212
000350 27 02 a2 bd a6 8c a9 3b b2 fc ce bd 63 0a d6 3d
       -0.07910567 0.0051742373 -0.101067916 0.104512
000360 09 4e d5 bb 59 cd 45 3c c0 08 88 bd b9 45 63 bd
       -0.0065095467 0.0120728845 -0.06642294 -0.055486415
000370 0d b2 27 3d 3d 1c 24 3d 5f 3a 4d 3d e6 c5 ad 3d
       0.040941287 0.040065993 0.050104495 0.08485012
000380 b5 58 a4 bd e5 7c e5 3d 66 70 cc 3b 91 4a d5 bd
       -0.08024732 0.11205462 0.006238985 -0.10414613
000390 ca e6 9b 3d 9b c8 9f bd 92 5b f5 3d 43 24 7c bd
       0.07612379 -0.07801934 0.11980356 -0.06155802
0003a0 24 43 2e bd 64 a8 5d 3d be 3b ef 3d c2 ac aa bd
       -0.0425445 0.054115668 0.11681317 -0.08333732
0003b0 a9 82 53 3d cb 6f cb bd 1e d1 db 3d b8 08 ef bb
       0.05163828 -0.09933432 0.10733245 -0.0072947405
0003c0 c9 fd 90 3d 03 d1 9c bd fa 9d da 3a 45 59 d1 3d
       0.07079656 -0.07657053 0.0016679161 0.10222105
0003d0 b7 25 94 3d 02 60 b1 3d b0 89 45 3d 5f c3 bf bc
       0.07233756 0.0866089 0.048227012 -0.02340859
0003e0 dd 8a d5 bd b3 9c 4a 3c 7e ae 23 be a4 0a f7 bd
       -0.10426877 0.012366462 -0.15984532 -0.120625764
0003f0 b7 c3 2c 3d 51 47 ab 3d ed fa 81 3c 84 b3 1e be
       0.042178836 0.08363212 0.015866721 -0.15498167

rnn.0.rnn.bias_ih_l0 f4 [256]
000000 3d 62 ee bd b4 0f d8 3d 0b 97 92 bd c7 37 dd 3c
       -0.11639831 0.1054987 -0.071577154 0.027004136
000010 0c 0d 80 bd 0f 82 7e 3d b6 13 41 bd 99 69 a7 3c
       -0.062524885 0.062135752 -0.04713794 0.020436095
000020 15 14 00 3e 47 0e 3b 3d e0 fb a8 3d 56 48 bd 3c
       0.1250766 0.045667913 0.08251166 0.023105782
000030 54 99 b1 bd c4 bd 31 bc 1a 4e a9 3c c0 94 48 bc
       -0.08671823 -0.010848466 0.020667125 -0.012242496
000040 65 b4 82 3d 2f 20 91 3d 4f b7 09 bd 3e 35 58 3d
       0.06382064 0.07086217 -0.033622082 0.05278515
000050 a8 f3 85 bc 0a 79 c1 bc cb 75 6a 3d 76 f5 96 bd
       -0.016351536 -0.023617286 0.057241242 -0.07371037
000060 8b dd 25 3d f1 a4 09 3d ab 7c 82 3d c2 00 d6 bc
       0.040494483 0.033604566 0.06371435 -0.026123408
000070 44 ef 4c 3d 81 60 a5 bd 4d 15 ec bd 00 3a d4 bd
       0.05003287 -0.08075047 -0.115275 -0.10362625
000080 27 f2 43 bd 39 5e 26 bd 79 83 0e 3b 4f 64 64 3d
       -0.047838356 -0.0406172 0.0021745844 0.055759724
000090 d5 32 f5 3d 7b bd a7 bc 1f 9d d0 bc 15 0a e0 3d
       0.11972586 -0.020476094 -0.025465546 0.10939423
0000a0 cd 1f 02 3e 7c fd 0c 3c 23 f0 4d bc 73 0a 95 3d
       0.12707444 0.008605357 -0.01256946 0.07277384
0000b0 b0 75 cc bc de 80 ed bd d5 14 8d bd 04 0f 40 3d
       -0.024958462 -0.11596845 -0.06888739 0.04688932
0000c0 86 0a f0 3d 6a 4b 81 3d da c5 e2 bc d4 41 ca 3d
       0.11720757 0.06313212 -0.027682234 0.09875837
0000d0 90 63 d9 3c 7e 76 c3 bd bd 85 6c 3c 0d 7e b0 bd
       0.026536733 -0.09544085 0.014436183 -0.08617792
0000e0 ed 60 d3 3d 43 4b be 3d 42 ae cd bc 76 6f 5b 3d
       0.103212215 0.09291699 -0.025107507 0.053573094
0000f0 7f ba 22 3d a2 7e 31 bc 8b 94 98 bc 61 4b 93 3d
       0.039728638 -0.010833414 -0.018625518 0.07192112
000100 c5 11 79 3d 01 4c c5 3d e7 f6 07 be 03 de e1 3d
       0.060807962 0.09633637 -0.1327778 0.110286735
000110 81 7d 98 bd 38 84 27 bc 57 c9 e6 bc 04 bf f9 bb
       -0.07445813 -0.0102243945 -0.028172178 -0.007621648
000120 72 71 e8 bc f9 e1 15 bd 59 f8 76 3b c4 f1 e0 bd
       -0.028374407 -0.036592457 0.0037684648 -0.10983613
000130 24 f5 c6 3d 88 08 89 3b 16 ce 70 bd c6 5b e1 3d
       0.097147256 0.004181925 -0.05879029 0.110038325
000140 46 97 af bd e6 32 e8 3d e7 e5 3e bc b9 50 95 3d
       -0.08573775 0.11337833 -0.011651493 0.07290787
000150 3e e7 86 bd 58 33 fd bc d7 5f e1 bd 53 fa 84 3d
       -0.06587075 -0.030908272 -0.11004608 0.06493058
000160 94 be 2f bd 1a db b7 3d bc d9 8f bd 73 69 8b bd
       -0.04290636 0.08977337 -0.070239514 -0.06807222
000170 00 77 67 3c ce 83 c8 bc a2 74 96 bd 64 6a b0 3d
       0.014127493 -0.024476912 -0.07346465 0.086140424
000180 86 e9 a2 3d db 01 dd bd e0 e8 95 bd fe 7c e1 bd
       0.07954697 -0.107913695 -0.07319808 -0.110101685
000190 f1 6c 9e 3d 30 d5 81 3d c1 c4 8a 3d 40 64 cd bd
       0.07735623 0.063394904 0.06775809 -0.10028887
0001a0 2e 7d 17 3d d6 4b d9 bd d1 b7 fd 3d 4a 3d e2 3d
       0.036984615 -0.10610168 0.12388576 0.11046846
0001b0 45 85 b9 bd 7b 30 d7 bc 31 61 bd bc 8b 93 7d 3d
       -0.09058622 -0.026268234 -0.023117634 0.061908286
0001c0 9f 06 33 bd 71 05 b5 bd b3 dc 0a bd 2d dc 21 3d
       -0.043707486 -0.088389285 -0.03390188 0.039516617
0001d0 44 d8 a0 bd c2 ea 9b 3d fd f8 c5 bc d9 25 9c bd
       -0.078537494 0.07613136 -0.024166578 -0.07624406
0001e0 eb a8 cd 3d a1 22 f0 bd 50 3e 85 3d a2 e9 f3 bc
       0.10041984 -0.11725355 0.06506026 -0.02977449
0001f0 62 38 99 3d e6 f6 d3 bd 82 ff 89 bd b0 eb e3 3d
       0.07481457 -0.103498265 -0.067381874 0.11128938
000200 6e 2e cb 3d ad 01 94 bd fd 40 e5 3d f9 bc f2 bd
       0.09920965 -0.07226882 0.11194036 -0.1185245
000210 8f 9b ac ba 1d b8 c9 3d 44 9b 9a 3d a1 c8 fb 3d
       -0.0013168919 0.0984957 0.07549146 0.12294126
000220 90 2b 49 bd 52 0c 31 bc 13 b8 91 bd 58 39 93 bd
       -0.04911381 -0.01080616 -0.071151875 -0.07188672
000230 67 74 2a 3d 2a ef d1 3d a4 d7 70 3d 49 d5 de 3b
       0.041614916 0.10250695 0.0587994 0.006800328
000240 95 df 68 3c e0 ac 03 be 43 e7 9a bd 42 ec b8 3d
       0.014213462 -0.12858915 -0.07563641 0.090294376
000250 83 21 79 bc cb ba 7a bd 82 a0 4c bd d5 8a a7 bd
       -0.015205744 -0.061213296 -0.04995776 -0.08180777
000260 b4 54 31 bd ac 35 b3 bd 47 93 ce 3d 3d 0a 03 be
       -0.04329367 -0.087504715 0.10086685 -0.12796874
000270 2a 22 7e 3d 32 6e 09 bd 6e f7 f1 bd f7 84 9e 3d
       0.0620443 -0.033552356 -0.118147716 0.07740205
000280 bb 89 a9 3c ce f1 c6 bd 00 46 fa 3c 28 ee 06 be
       0.020695558 -0.09714089 0.030550957 -0.13176787
000290 41 d8 7f 3d 5b d5 2f 3d ad 42 f3 bc 3f db b8 3d
       0.062462095 0.04292808 -0.02969488 0.09026193
0002a0 07 1e 76 3d 16 9a 70 3b b6 df 76 bd e3 b3 a1 3d
       0.06008723 0.0036712936 -0.06027194 0.07895639
0002b0 f0 8c 0f be 23 73 c5 bd 20 78 85 bd 36 fd 7d bd
       -0.14018607 -0.09641101 -0.06517053 -0.06200906
0002c0 78 fd b9 3d 53 ec 09 be fd 68 c2 bd bd e0 f9 bd
       0.090815485 -0.13469057 -0.09492681 -0.122010686
0002d0 e0 88 6d 3d 97 88 07 3d 00 1d 15 bd 2a c9 39 bd
       0.057991862 0.033089247 -0.03640461 -0.04535786
0002e0 56 98 b2 bd 3d d9 e9 bd 50 8a 58 bd d1 ea 90 bd
       -0.08720462 -0.11418388 -0.05286628 -0.07076038
0002f0 85 ad 83 bd c8 93 e0 3d b3 b4 8c bd 12 93 a0 bc
       -0.064295806 0.10965687 -0.06870403 -0.019601379
000300 18 62 9f bd 83 ed 03 3e af 7c 81 bd 57 ea 59 bc
       -0.07782382 0.12883572 -0.0632261 -0.0133005
000310 88 da 77 3d 37 9f 5a 3b 2c 1b e7 bc 5b 47 6b bd
       0.060511142 0.003335906 -0.028211199 -0.057441097
000320 8d 83 2c bd e4 bd ac 3d 5f af 94 bb e2 26 73 3d
       -0.042117644 0.08434656 -0.0045375074 0.059363253
000330 fd 2e aa bd 44 01 ee 3d 67 3a 05 3e 88 ef 63 3d
       -0.083097436 0.11621335 0.1301056 0.055648357
000340 e2 bc b6 3c 9f 77 75 3d b4 d2 a0 bc 32 86 cd 3d
       0.022306863 0.059928533 -0.019631721 0.10035361
000350 bb 02 fc bd 38 78 07 3e cb fd f2 bd 7a de c5 3c
       -0.12305208 0.13229454 -0.118648134 0.024153937
000360 f3 29 80 bd 76 e6 88 3b 02 be 98 bd 08 b5 a3 bd
       -0.06258001 0.0041778637 -0.07458116 -0.07993513
000370 a2 f0 92 bd 7e 84 88 bd c6 84 11 be 08 ae d5 bd
       -0.07174803 -0.06665896 -0.14210805 -0.104335845
000380 a2 bc 27 3d 9a 00 36 3d ff 5b 90 3d 2b 25 16 3d
       0.04095138 0.044434167 0.07048797 0.03665654
000390 bb 36 f4 bd ce f8 d2 bd c1 52 62 bd 1a 8a d1 bd
       -0.119245015 -0.10301362 -0.0552547 -0.10231419
0003a0 67 4f 18 bc 22 00 db bd f6 7a 80 bd be 1f 50 bc
       -0.009296275 -0.10693385 -0.06273453 -0.01270288
0003b0 1d c0 b0 bd d5 ec ad 3d 83 c4 ef 3d 9d d3 66 3d
       -0.08630393 0.08492438 0.117074035 0.056354154
0003c0 2f a6 99 bc 90 bd a2 bd 6a ca 1c 3c eb ef e5 bc
       -0.018756 -0.079463124 0.009569744 -0.028068503
0003d0 e1 66 46 bd 2b f7 02 3d 38 d5 9b bd cb cd d9 3d
       -0.048437957 0.031974 -0.076090276 0.10634955
0003e0 de 33 03 3e a0 6d f4 3d b5 b9 90 bc 2a cb 07 3e
       0.12812755 0.11934972 -0.017666677 0.13261095
0003f0 9d fa d8 3d cf a7 f7 3d 09 6d de 3b ae 67 13 3e
       0.10594676 0.12092554 0.0067879003 0.1439502

rnn.0.rnn.bias_hh_l0 f4 [256]
000000 49 dd b0 bd 2f 0a d3 3a 95 ed d6 3d 48 58 32 3c
       -0.08635957 0.0016101057 0.10494534 0.010885306
000010 50 c1 b3 bd 57 09 67 bd 3b 2f 90 3d 9a a8 d6 bd
       -0.08777106 -0.05640539 0.070402585 -0.10481377
000020 7a 27 b4 3d 4e 44 9c 3d ba 39 01 3e df 29 f2 bc
       0.08796592 0.076302156 0.12619677 -0.029560981
000030 de 39 82 3c f6 af ad bb da 79 7f 3b d1 b2 b1 3d
       0.015896734 -0.005300517 0.0038982541 0.08676685
000040 32 58 c7 3a 53 85 a8 3d ed 7e ab 3d 12 f0 f5 3b
       0.0015208779 0.082285546 0.083738185 0.0075054253
000050 26 97 d6 bd 96 e7 fd 3c 80 38 20 3a 6e 96 8b 3d
       -0.10478048 0.030994218 0.0006111935 0.068158016
000060 7f 85 78 3d 96 75 82 bd c4 04 9a 3d db 58 ee bd
       0.060674187 -0.06370084 0.0752044 -0.116380416
000070 3d d4 0c 3c b2 b0 a1 3d f4 0c 81 bd 75 61 18 bc
       0.008595523 0.0789503 -0.06301299 -0.009300579
000080 44 a7 bc bc ad 0b 82 bd f4 eb c2 bd 8a 4c b1 bd
       -0.023028977 -0.06349883 -0.09517661 -0.08657177
000090 ee ef 6f 3d 7d 4d f6 bc f5 57 06 be cd 39 e9 3d
       0.058578424 -0.030066246 -0.1311949 0.11387978
0000a0 b7 87 8e 3d 25 f7 c4 3c 74 24 a6 bc cb 78 a2 3d
       0.06959479 0.024043629 -0.020281054 0.07933196
0000b0 89 b1 06 3e 10 a5 b0 3d b9 2d 88 3d 69 6e aa bd
       0.13153662 0.08625233 0.06649346 -0.0832184
0000c0 56 90 d3 bd 21 32 68 bd 56 1e 18 bd 9f 38 85 3c
       -0.10330264 -0.05668843 -0.037138306 0.01626235
0000d0 94 c3 c8 3d ac b5 ba bd 45 4a 3f bd b0 36 00 be
       0.098029286 -0.091166824 -0.04670169 -0.12520862
0000e0 ed 58 d1 bd 1d 9e c5 3d 15 b2 37 bd 17 93 a7 bd
       -0.10222039 0.09649298 -0.044847567 -0.08182352
0000f0 90 ca a3 bc cf 7a d8 bd 63 d8 22 bd 9d 2d a3 3d
       -0.01999405 -0.10570299 -0.039757144 0.079676844
000100 22 07 f7 3d 21 e1 00 be 23 5a 1a bd 2e d1 b8 3b
       0.12061907 -0.1258588 -0.037683617 0.0056401705
000110 85 60 be bd 93 84 c6 3d f6 c8 f2 bd b6 bf fa 3d
       -0.092957534 0.09693255 -0.118547365 0.12243597
000120 3c 5f 84 3b 3a b4 f6 bd ac 40 29 3d c4 4a fc bd
       0.004039673 -0.12046094 0.04132144 -0.12318948
000130 f0 75 8f 3d bb fd 81 bd 2a 50 5c 3d 9c 07 c9 bd
       0.07004917 -0.06347223 0.053787388 -0.098159045
000140 f8 9d a6 3d aa c4 f1 bd a6 bf 47 3d e8 33 ff bc
       0.08135599 -0.11805089 0.048766755 -0.03115268
000150 17 7f cd bd ba 44 3a 3d 09 a4 aa 3d 15 63 c2 3d
       -0.10034006 0.0454757 0.083320685 0.09491555
000160 ca 42 db bc ea 3f 65 bd a9 2b aa 3d ce 5a fb bd
       -0.026765246 -0.055969156 0.08309109 -0.12273179
000170 10 af 6e bd 48 92 c0 bd 0a 18 85 3c c8 38 ab bc
       -0.05827242 -0.09402901 0.016246814 -0.020901099
000180 cc fb d4 bc ca d4 c7 3a 3d ae f9 3d 5e 3b d5 bd
       -0.025998972 0.0015245911 0.121914364 -0.10411714
000190 2e 2f 7e bd 5f 8d b0 3b d2 dc 26 bd 90 48 bf bd
       -0.062056713 0.0053879465 -0.040737934 -0.09340012
0001a0 1c 8b cf 3c ee ed 99 3d f3 89 40 bd 1c e0 c5 3d
       0.025334887 0.075160846 -0.04700656 0.09661886
0001b0 e5 78 f8 bd 03 f6 7e 3a af c4 9b bc 9c f2 22 bd
       -0.12132434 0.00097259897 -0.019014684 -0.03978215
0001c0 f8 2e 4a 3d f3 32 e2 bd b1 9b d1 bd 89 e9 22 3d
       0.0493612 -0.11044874 -0.10234774 0.039773498
0001d0 a0 44 a4 bd 6c b9 85 3d 26 c0 11 be 79 86 61 3d
       -0.08020902 0.06529507 -0.14233455 0.055059884
0001e0 70 96 3f 3d fb 30 72 3d b4 23 c5 bd da f8 f7 bd
       0.046774328 0.059128743 -0.096259505 -0.121080115
0001f0 59 26 22 3d 42 76 f1 bd 53 ab 8c bd 02 d3 6a bd
       0.039587352 -0.11790134 -0.06868615 -0.05733014
000200 6e 27 fc bd 50 93 85 3d eb ed d5 bd 64 e6 37 3d
       -0.12312208 0.06522238 -0.1044577 0.044897452
000210 ed c3 94 bb 7f 39 a4 3d 18 d5 ea bd 5e fa 84 bd
       -0.0045399577 0.08018779 -0.11466426 -0.06493066
000220 ed 4d ba bd 78 6b 51 bd de 55 b4 bd d0 9a c7 3d
       -0.090968944 -0.05112788 -0.0880544 0.09746325
000230 aa 9c 73 3d fe 32 9a 3d 9f 84 22 3d 93 95 e8 3b
       0.05947558 0.07529257 0.03967726 0.0070979088
000240 9b bc 37 3d 3a 48 ab bd bb 5d f9 3d b2 50 2c 3d
       0.044857603 -0.083633855 0.12176081 0.042069145
000250 cd d9 bf 3d 24 11 6b 3d dc c9 b3 3d b0 76 46 3d
       0.09367714 0.057389393 0.08778736 0.048453033
000260 ea 7b f2 bc e2 54 0c be 40 65 a8 bc 5f 18 6f bd
       -0.029600102 -0.13704255 -0.020556092 -0.05837285
000270 9a d3 d4 bc 5c b8 cd 3d 8c 8b 8e 3d db ba 93 bd
       -0.025979806 0.100449294 0.0696021 -0.07213374
000280 f6 91 ce bc 5c 50 66 3d ef 8a 56 3d e8 f4 0b bd
       -0.025216084 0.05622898 0.05237859 -0.034169108
000290 e9 18 0e be 49 33 00 be 2e 24 e2 3a 75 de a6 bd
       -0.1387669 -0.12519564 0.0017253214 -0.08147899
0002a0 67 a3 e7 bd f6 df 05 be 88 6e de 3c b5 8f b4 bd
       -0.113104634 -0.13073716 0.027152315 -0.088164724
0002b0 a3 ad 8b bc 99 3f eb bd 10 20 bb 3d 91 a8 ef bd
       -0.01705057 -0.1148674 0.09136975 -0.11702073
0002c0 bd af 7f 3d 9d 69 f4 3b 81 e3 07 3d ec 7c 1c be
       0.062423456 0.007458879 0.03317595 -0.15282029
0002d0 6f 0a 02 3e a1 b4 0a 3e f9 0d f4 3c a2 b2 d4 3d
       0.12699293 0.13545467 0.029791819 0.10385634
0002e0 ad 06 49 bc 2c 65 18 bd 80 b7 ad bc b8 d4 f8 ba
       -0.012269658 -0.03720586 -0.021205664 -0.0018984294
0002f0 a0 30 0e 3e 0c 29 67 bd 0b ef 84 3d e2 19 07 3e
       0.13885736 -0.05643563 0.06490906 0.13193467
000300 70 4a 0c 3d 3d ef 87 3d 21 73 f3 3d 6e ab e4 bd
       0.034250677 0.06637428 0.118871935 -0.1116551
000310 a0 6b d1 bb bd 81 77 bd 7b ee 9d 3d e4 31 b3 bd
       -0.0063910037 -0.060426462 0.07711502 -0.0874975
000320 7c 80 dd bd 55 44 2c bd 81 e3 83 3d ac 13 ea 3d
       -0.10815522 -0.042057354 0.06439877 0.11429533
000330 9a 72 02 bc 8d 4c a3 3b 8b 78 f7 3b ca f2 8b 3d
       -0.007961893 0.004983491 0.0075522116 0.06833418
000340 29 19 cf bd 16 a6 db bd b3 fb c5 3d 29 41 20 3d
       -0.10112221 -0.10725038 0.096671484 0.03912464
000350 54 7c 7d bd c9 f1 97 3c d2 c4 17 3d 92 d5 46 bd
       -0.061886147 0.01854791 0.037052937 -0.04854352
000360 80 33 cd 3d a8 e4 05 3d dc 1e 5e 3d 7a 3d bf 3d
       0.100195885 0.032688767 0.05422865 0.093378976
000370 e0 7f 08 bc 45 04 2a 3e 52 2a 48 bd 26 c0 e7 bd
       -0.008331269 0.16603191 -0.048868485 -0.11315946
000380 14 16 f8 3d 32 b9 db bc 60 b7 2a bc b8 45 ff 3d
       0.12113586 -0.026821706 -0.010419697 0.1246447
000390 a6 23 db bb d2 6c cb bd 88 99 9c bd 58 e7 6c 3d
       -0.0066875992 -0.09932865 -0.07646471 0.057837814
0003a0 dc 78 a2 bc e2 0d 3b 3d 36 3f 38 bd 55 03 b7 bd
       -0.01983302 0.045667537 -0.044982158 -0.089361824
0003b0 f9 47 54 bd 4d 54 86 bd 11 53 58 bd 68 88 a3 bc
       -0.05182645 -0.06559048 -0.052813593 -0.019962505
0003c0 da 22 83 3d 78 cd 1f 3d f6 1b a8 bd 57 93 90 3d
       0.06403132 0.03901431 -0.08208458 0.07059353
0003d0 e9 83 32 bd 63 72 ac bd 50 fd 91 bd 1f c3 ed bd
       -0.04358283 -0.08420255 -0.07128394 -0.11609482
0003e0 7c ba 84 3d a8 ab bd bd ce d7 0b bd 9e 30 5c 3d
       0.064808816 -0.092612565 -0.034141354 0.053757302
0003f0 d3 cd 77 bd 60 20 3d bd 92 9c e1 bd cf 5f 00 3e
       -0.060499024 -0.046173453 -0.110161915 0.12536548
