ckpt/HUST/wx_inner_finetune_fine_end.pt (torch, 320651 bytes, 20 tensors)

cnn.conv0.weight f4 [8, 4, 3, 1]
000000 90 96 f0 3b 22 1a 28 3e 56 db 69 be d4 39 4e be
       0.007342167 0.16416219 -0.22837576 -0.20139247
000010 22 b8 ce bd e5 e3 b1 3d b4 db 43 bc d3 f7 61 3e
       -0.10093714 0.086860456 -0.011954237 0.22067194
000020 fe d5 01 bd 34 a7 9c 3d 56 13 b3 bd 55 75 6a bd
       -0.03169822 0.07649079 -0.087439224 -0.057240803
000030 57 1a 1d be cc e9 8c bd c9 29 52 3b d7 e7 bd 3d
       -0.15342079 -0.06880531 0.0032068363 0.092727356
000040 52 d9 49 3e c5 a9 83 3e a1 d9 9a bd 24 47 0f bb
       0.19711807 0.2571546 -0.07561041 -0.0021862471
000050 17 b9 6a 3e 0b 34 52 3e 57 4f b9 bd 30 af 40 3e
       0.22922169 0.20527665 -0.09048336 0.18816829
000060 55 68 70 bc 80 8b 80 3d 35 48 96 3e ce b0 57 be
       -0.014673312 0.062766075 0.29351965 -0.2106354
000070 81 3a ff bd cf 45 83 bc d5 a7 d7 bd 71 74 84 3e
       -0.124623306 -0.016024498 -0.10530058 0.25870088
000080 52 63 39 be 25 c9 34 be 5c 8b 7b be b3 17 a1 be
       -0.18104294 -0.17654856 -0.2456488 -0.31463394
000090 3e 8e 2c be 9c 19 7e 3e 54 e7 03 3e 54 45 0f 3e
       -0.16851136 0.24814457 0.12881213 0.1399129
0000a0 60 bd 78 3c 0b 8d 17 be d8 0b 48 3d 6b 00 8a be
       0.015181869 -0.14799897 0.04883942 -0.26953444
0000b0 ce 97 55 be 73 64 18 be e2 81 3a 3e 8a 51 2d 3e
       -0.2085869 -0.14882068 0.18213609 0.16925636
0000c0 5b 30 f4 bd 93 0b cc ba a7 18 46 3e dd 08 9b 3e
       -0.119232856 -0.0015567414 0.19345342 0.302802
0000d0 a6 97 05 3e e9 1d 61 3d c2 c9 47 3e 5c f9 27 be
       0.1304613 0.054960165 0.19510558 -0.16403717
0000e0 f3 d3 70 3d f9 50 6b be 59 fd 52 be dc ca 1e be
       0.05879588 -0.22980107 -0.20604457 -0.15507072
0000f0 93 c4 06 3e 98 c8 ef 3d 37 2f 2e be 34 52 cb 3d
       0.13160925 0.11708182 -0.17010199 0.099277884
000100 77 ea 2e 3e 2c 26 c3 bc 75 8a 04 3c 8b 7d 86 3d
       0.17081629 -0.023821913 0.008089651 0.06566914
000110 4a b5 37 3e 93 a5 90 3e b2 21 5e be 7a e8 cc bd
       0.1794025 0.28251323 -0.21692541 -0.10005279
000120 eb 4b 09 3e 65 24 85 3e 9f 42 8b 3e ce 8b 8b 3e
       0.13407867 0.2600433 0.27199265 0.272551
000130 06 24 9c 3d 72 d8 6c be 5d 08 2a 3d cc de 22 be
       0.076240584 -0.23129442 0.041511882 -0.15905303
000140 2c 56 7e be 8a 82 5b 3e 0d 9c 36 3e f5 07 a8 be
       -0.2483756 0.21436515 0.17832966 -0.3281857
000150 d6 9d eb 3d 97 aa 45 3c 4d 79 50 3c 03 0e ae bd
       0.11504714 0.012064598 0.012724233 -0.08498766
000160 08 23 21 3e 76 71 00 be 4b c9 ea 3d 7f 84 21 3e
       0.1573602 -0.12543282 0.11464175 0.157732
000170 4b 5f 5e 3e da e1 a9 bc dd 86 d4 be cf 79 a2 be
       0.21716039 -0.020737577 -0.41509143 -0.31733558

cnn.conv0.bias f4 [8]
000000 d0 92 48 3e 24 99 ca 3d 88 57 38 be d3 36 2a be
       0.19587255 0.098924905 -0.1800214 -0.16622476
000010 85 26 8e 3e e6 a7 34 3e 42 3c 23 be 7f 85 32 3d
       0.27763763 0.17642173 -0.15940955 0.043584343

cnn.conv1.weight f4 [16, 8, 3, 1]
000000 36 e1 59 be b5 93 f3 bc ba c3 40 be 4d 13 e9 bd
       -0.21277317 -0.029733518 -0.18824664 -0.113806345
000010 6b 78 13 3d c8 fb a6 3d 73 5f b8 bd 7e ea ea 3d
       0.03600351 0.08153492 -0.090025805 0.11470507
000020 61 d7 05 be 4e a9 3d 3e 58 3e 0f 3e 01 44 30 be
       -0.13070442 0.18521616 0.13988626 -0.17213441
000030 b9 65 1f bd ea 6d ae 3c c8 3b 2c 3d 4b e3 77 3d
       -0.03891537 0.021292645 0.0420492 0.060519498
000040 e0 02 bd 3d 7f c0 c8 3c c7 fa c7 bd 15 23 cd 3d
       0.09229064 0.024505852 -0.09764629 0.10016457
000050 45 31 43 be 44 c0 49 be cb df 03 be 19 ef 36 be
       -0.19061764 -0.1970225 -0.12878339 -0.17864646
000060 8c 3e f9 bd 5f 08 64 be a7 b9 d4 bd 35 b1 a1 3d
       -0.12170133 -0.22268818 -0.10386973 0.07895128
000070 db 08 c1 bd 86 d7 d6 3c ca 35 14 3e 35 62 b7 bc
       -0.09425517 0.026225816 0.14473644 -0.022385696
000080 73 c7 b7 3b f0 41 90 bc a4 35 29 3d b8 e7 04 3e
       0.005608493 -0.017609566 0.04131092 0.12979019
000090 e1 65 4f 3e e1 45 0e 3e a6 0f 50 3e 15 05 b8 bb
       0.20253707 0.13893844 0.2031847 -0.00561584
0000a0 35 28 32 be ba 92 b2 bd 2b 35 22 3e c6 8b 8d 3c
       -0.1739815 -0.08719392 0.15840594 0.017278563
0000b0 02 10 ac bd 47 0a 58 be e2 d7 7b be df 7a 6b be
       -0.08401491 -0.2109767 -0.24594072 -0.2299609
0000c0 1c 97 29 bd 54 42 e5 3d 54 03 e2 3d ad 96 49 be
       -0.041403875 0.11194292 0.11035791 -0.19686384
0000d0 88 62 02 3e 05 90 23 be 30 c2 30 bd 9e 81 a9 bd
       0.12732899 -0.15972908 -0.04315394 -0.08276676
0000e0 50 0b 21 bd 20 29 24 bd 20 91 3b be 7e 7a 34 be
       -0.03931743 -0.040078282 -0.1831708 -0.17624852
0000f0 d0 d4 02 bd 00 00 2d 3b 6e e8 bd bd 4c 7a 9d 3d
       -0.031941235 0.0026397705 -0.09272848 0.07689342
000100 0e 22 3c be d0 b3 61 bc aa d1 37 3e 89 84 aa bd
       -0.18372366 -0.013775781 0.17951074 -0.0832606
000110 a0 bf 3c 3e a4 65 97 3d 9d a2 3c be 96 3f 04 3e
       0.18432474 0.07392433 -0.18421407 0.12914881
000120 ad f6 32 3d 58 53 7f bc 1a 48 7d 3e 56 03 00 be
       0.04369228 -0.015583836 0.24734536 -0.12501273
000130 31 5d 6c 3d 45 e4 32 bc 73 56 17 3c c5 3f 53 bd
       0.05770606 -0.0109186815 0.00923692 -0.051574487
000140 2c 41 96 3c 04 a3 93 3d 20 0f 49 bd b8 d5 2f bd
       0.018341623 0.07208827 -0.04908669 -0.042928427
000150 38 d2 1f be 46 2e f9 3d e7 74 30 3e cd af 1f 3e
       -0.15607536 0.12167029 0.17232095 0.15594406
000160 bc 9f 03 be a4 88 c0 3c bc 34 57 be aa 82 40 be
       -0.12853903 0.023502655 -0.2101621 -0.18799844
000170 ff ab 4a be 99 92 48 3d ff 23 10 be 97 e1 b5 bc
       -0.19792174 0.04896793 -0.14076231 -0.022202296
000180 93 99 15 3d 31 5c 27 3e d9 ef f1 bd 4f 5f fa bd
       0.036523413 0.16343762 -0.118133254 -0.1222521
000190 18 71 d4 bd 1c 88 1e 3e c4 be 96 bd 34 ea 49 3e
       -0.103731334 0.15481609 -0.073606044 0.19718248
0001a0 b3 bb f3 3d 00 be d3 3c 00 2a c7 ba b4 47 25 bd
       0.11901035 0.025847435 -0.0015195012 -0.040351585
0001b0 58 bb 14 3d 7d 0e 14 bd b3 2d 11 3c 62 78 10 3d
       0.036311477 -0.03614663 0.008860993 0.035271056
0001c0 e4 4e 1a be e8 29 c9 bd be 0b 32 3e ea 4c 1f be
       -0.15069157 -0.09822446 0.17387292 -0.15556684
0001d0 c5 bb 2e bb c9 88 7f 3e 50 33 fb 3d 85 66 64 3d
       -0.0026662212 0.24954523 0.122656465 0.055761833
0001e0 3b 24 35 be 44 17 cf 3d 16 e2 14 be 38 56 6d bd
       -0.17689602 0.101118594 -0.1453937 -0.057943553
0001f0 e8 42 8c bd 28 a1 f7 bc c0 53 12 3b 62 67 2c 3e
       -0.06848699 -0.030228212 0.002232775 0.16836312
000200 f0 c0 d0 3c 74 38 3b 3e 60 b9 ff 3d b8 25 04 be
       0.025482625 0.18283254 0.12486529 -0.12905014
000210 d8 7e bb 3d f4 c1 13 be b3 2d b1 bd f0 e9 75 3d
       0.09155053 -0.14429456 -0.086512946 0.060037553
000220 1c 09 8a 3d a4 d0 1c 3e 62 93 86 bd 00 52 ab 39
       0.06740019 0.15313965 -0.0657108 0.00032676756
000230 58 38 d7 3d 07 25 4a be a2 1e 17 3e 8e d8 2c be
       0.105087936 -0.19740687 0.14757779 -0.16879484
000240 d4 79 ed bd 23 9a 24 be 8a 1b 73 be 5a 9f af 3d
       -0.115955025 -0.16074423 -0.23740974 0.08575316
000250 10 c9 6d 3e d4 cb f5 3b 6b 3d 21 bd c0 a3 aa bc
       0.2322123 0.007501105 -0.039365213 -0.020830035
000260 4b a8 2c be 1c b4 bc 3d bf c5 c8 bd 54 7d 0b be
       -0.16861074 0.09214041 -0.09803342 -0.13622028
000270 28 1a e6 bd 29 88 fb 3d 3c a9 e8 3d 60 de 27 3e
       -0.11235458 0.1228183 0.11360404 0.16393423
000280 e8 96 a7 3d ec a0 75 bd 28 a7 d9 bb c8 b4 e1 3d
       0.0818308 -0.05996792 -0.006642241 0.110208094
000290 9a 1c 5d 3e 9f 11 08 bd e1 68 3f be a8 82 42 be
       0.21592942 -0.03321993 -0.18692352 -0.18995154
0002a0 24 c0 62 be 46 87 80 3c 72 11 12 be 09 e3 53 be
       -0.22143608 0.015689503 -0.14264467 -0.20692076
0002b0 0f e0 1d 3e 2c f8 20 be 51 cc 12 bd 58 61 34 3d
       0.15417503 -0.1571967 -0.035839383 0.044038147
0002c0 5f df 29 bc d9 a5 0c be 3b f5 28 be d2 9b 26 3e
       -0.010368197 -0.13735141 -0.16499798 0.16270378
0002d0 cc df 7a 3c 93 00 1b 3e 1d 0f b1 bd 84 d8 29 3d
       0.015312146 0.15136938 -0.08645461 0.04146625
0002e0 27 d0 85 bd 1b fc e2 bc 2c 3f 0a be 7f 2e 6d 3d
       -0.065338425 -0.027708104 -0.1350066 0.05790567
0002f0 40 b6 55 3d 86 41 86 bc 4c de 6a bd bb d5 0a be
       0.05217576 -0.016388666 -0.057340905 -0.13558094
000300 82 8c 10 3e 14 9a 1b be 54 42 ab 3d cc 91 8c bd
       0.141161 -0.15195495 0.083622605 -0.06863746
000310 a7 b1 c9 bd 2c 33 16 3d 35 28 d9 bd c8 a3 40 3d
       -0.098483376 0.036669895 -0.10603372 0.047031194
000320 4c 31 24 3d 8e 32 1b be 4c 35 0b 3d e0 0e b2 3d
       0.040086076 -0.15156004 0.033986375 0.086942434
000330 c4 79 a5 3d 10 7e d2 bc c6 5a 2b be 18 e3 00 bd
       0.080798656 -0.025694877 -0.16733846 -0.031466573
000340 d0 30 91 3d 18 89 98 bd b4 ae 9e 3d 9a 33 0b 3e
       0.07089388 -0.074480236 0.07748166 0.13593903
000350 95 48 da bd 40 ed 03 3b 98 dc ac 3d f0 0f 83 3c
       -0.10658375 0.0020130426 0.084405124 0.01599881
000360 92 7f 75 bd c4 26 81 bd e9 3c 86 be 30 2f 8e 3d
       -0.059936114 -0.06306222 -0.26218346 0.06942594
000370 37 c1 4e 3e f0 da 80 3e 56 23 08 3e ab ed a5 3c
       0.20190893 0.25167036 0.1329473 0.02025493
000380 54 bc 96 3d fa 5e cb bd 0d 37 2d be 50 be 33 be
       0.073601395 -0.09930225 -0.16915531 -0.17553067
000390 73 82 61 3e 70 0a 16 3e cc a6 fd bd 34 8e bd 3d
       0.22022419 0.14652419 -0.123853296 0.09255639
0003a0 31 70 2b 3e b5 11 5f 3e 47 e0 4f 3e d0 21 3a 3e
       0.16742016 0.21784098 0.20300399 0.18176961
0003b0 f5 e1 cb bc 02 e1 81 bc 89 d6 64 3e 35 b5 2c 3e
       -0.024888018 -0.015854362 0.22347464 0.16866
0003c0 6c cc 9a bd 22 8e 73 3e ee 8b 22 3e f1 eb f6 3d
       -0.07558522 0.23784688 0.15873691 0.12056721
0003d0 4a 18 fd bd a5 4b 73 3d da 91 ef bd eb 8f 15 3e
       -0.123581484 0.059398312 -0.11697741 0.14605682
0003e0 55 32 bf bc 28 c0 a2 3d 20 82 14 3d 8c dd b1 3d
       -0.02333943 0.07946807 0.03625691 0.08684835
0003f0 2b 53 89 bd 01 a3 cf 3d 7e 53 10 be d9 a7 47 3d
       -0.06705316 0.101385124 -0.1409435 0.048744056

cnn.conv1.bias f4 [16]
000000 fb f2 98 3c 1a a3 67 bd 00 cb 35 bd fc fa 5e 3d
       0.01867055 -0.05655203 -0.04438305 0.054438576
000010 24 22 e5 3d 83 70 12 be 20 83 2f 3e bc 81 2d bd
       0.111881524 -0.14300732 0.17139864 -0.042360052
000020 67 26 2f be 1e 34 d1 bd 3d b0 40 3e b1 61 3a 3e
       -0.17104493 -0.10215019 0.1881723 0.18201329
000030 3a 6f 3b be a2 15 09 3e bc b3 d7 3d 30 0a 53 3e
       -0.18304148 0.13387159 0.105323285 0.20609355

cnn.conv2.weight f4 [64, 16, 3, 1]
000000 45 71 04 3e 81 69 90 bd 71 9e 57 3d 09 95 85 3d
       0.12933834 -0.07051373 0.052641336 0.06522567
000010 73 de 14 bd b2 bc 60 3d 1c 19 2a bd 96 c2 b6 3d
       -0.036344957 0.054867454 -0.041527852 0.08923833
000020 74 08 24 bd fb 9b 4b bd ed dc 24 3d d3 97 5e 3d
       -0.040047124 -0.0497093 0.040249754 0.05434401
000030 c7 d2 93 bd 2e 19 2a 3c ba cf a3 3d e0 4a 6b bc
       -0.07217937 0.01038198 0.07998605 -0.014361113
000040 9c ec 33 3d 62 97 0e bd 1c b8 6d 3d 0f a2 c6 bd
       0.04392682 -0.03481234 0.05803691 -0.09698879
000050 4f 2b 9e bd 55 fa 84 bd 3b 36 0e 3e 40 14 09 bd
       -0.07723104 -0.064930595 0.13887875 -0.033466578
000060 00 9e ce b9 ef 37 8f bd 86 8c 13 3e 53 d6 18 3e
       -0.000394091 -0.0699309 0.14409074 0.14925508
000070 00 37 ce bd 85 0c df bd 1a e9 d5 bd 8d 8d 51 3b
       -0.10069084 -0.1089106 -0.10444851 0.003197524
000080 57 f3 08 bd 39 60 b4 bd f6 4a 39 bd 39 09 0b 3d
       -0.033435192 -0.088074155 -0.045237504 0.033944342
000090 28 87 54 bd 5e 8c 32 3d a1 38 a7 bc ea d5 74 bd
       -0.051886708 0.043590896 -0.020412745 -0.059774317
0000a0 0c 8f f9 3c d8 eb 04 3e 96 fd b7 bd 93 3e 6a 3c
       0.030463718 0.12980592 -0.089839146 0.014297145
0000b0 be 2e 3c bd 20 44 ed 3d f7 4c 3b be f2 ee 56 be
       -0.045943014 0.115852594 -0.18291079 -0.20989588
0000c0 3c a4 11 3e 78 06 bb bd 40 b2 e2 3c 35 f0 d2 bc
       0.14222807 -0.09132093 0.027672887 -0.025749305
0000d0 d7 02 1d bd 72 0b 04 bd 9e d6 bb 3d 20 10 e2 3b
       -0.038332786 -0.032237478 0.09171794 0.006898895
0000e0 e0 e6 0f be 98 94 d1 bd 3a ec 86 bd dc 46 6a 3d
       -0.14052916 -0.1023342 -0.065880254 0.057196483
0000f0 2b b2 e2 bd f4 d4 f2 3d f2 a0 4c bd 04 51 d4 bc
       -0.11069139 0.11857024 -0.049958177 -0.025917538
000100 54 9f e7 3d 90 92 94 3d cc c9 be 3d 6c 6f 5d 3d
       0.11309686 0.07254517 0.093158334 0.05406134
000110 61 d5 94 bd ea 1f c4 bd 40 f3 2f bc 04 a7 f4 3d
       -0.07267261 -0.095763996 -0.010739148 0.11945918
000120 b0 6b 46 bd 1b 11 09 be 38 5a 72 3d 0f 61 f6 3d
       -0.048442543 -0.13385431 0.05916807 0.12030231
000130 c8 fe 79 bd b8 bc 0e be 2d fd 17 be c5 f3 9b 3c
       -0.061033994 -0.13939178 -0.14842673 0.019037137
000140 d7 82 e4 bc 29 f1 bf bd 8d 62 08 3c e7 4a 0b 3d
       -0.02789442 -0.093721695 0.008324278 0.03400698
000150 90 1f dd 3d 4a 1f c2 3d bb 74 47 bd 91 b4 11 be
       0.10797036 0.09478624 -0.048695307 -0.14229037
000160 2b 98 05 be 3a 00 0a 3e ea a9 0c 3d f3 03 09 3d
       -0.13046329 0.13476649 0.03434173 0.033451032
000170 64 d2 1e be 4c c1 ed 3d e5 d4 f3 3d 6d 23 e6 3d
       -0.15509945 0.11609134 0.11905841 0.11237226
000180 75 fb 11 be ea 0f 9b bd 89 e5 f4 bd 2d 49 f9 3d
       -0.1425608 -0.07571395 -0.11957843 0.1217216
000190 b0 49 a4 bd ef 64 b1 bd d2 de 9a 3d 6d be 88 bd
       -0.08021867 -0.0866183 0.07562031 -0.06676946
0001a0 58 97 91 bd 35 17 e7 bc bc f9 11 bd 9a 13 0f be
       -0.07108945 -0.028209308 -0.035638556 -0.13972321
0001b0 0d cc 03 3e e4 2a 2b bd 71 69 b0 3d 34 8e 00 3e
       0.12870808 -0.04178895 0.08613861 0.12554246
0001c0 e0 13 95 3d e8 67 a7 3c f7 96 e9 3d 23 b0 00 3c
       0.072791815 0.020435289 0.114057474 0.007854494
0001d0 bb ab a5 bd 6f 9b f6 3d 6c 74 83 3c 04 31 23 be
       -0.080893956 0.12041365 0.016046725 -0.15936667
0001e0 c2 4f 28 bd fa 5a c9 bd e6 95 01 3e ad 4e aa bc
       -0.041091688 -0.098318055 0.12654838 -0.020789469
0001f0 da 49 08 be 4e 09 7a bc f1 d7 af 3d be 87 37 3d
       -0.13309422 -0.0152610075 0.085861094 0.04480719
000200 59 f4 8d 3d fd e4 bd 3b 28 58 3a 3d 4c 49 36 bd
       0.06931371 0.00579512 0.04549423 -0.044503495
000210 22 12 5e 3d 11 1d 8e bd 2f 28 86 bd 49 5b 43 3d
       0.05421651 -0.06939138 -0.06550633 0.04769448
000220 f6 0e ce bd 63 6d a1 3b 99 41 12 3d 0f d4 91 bb
       -0.10061447 0.00492637 0.03570709 -0.004450328
000230 b3 1a e3 bd 4d c5 28 3e e8 34 39 bd bc d4 2e 3e
       -0.11089077 0.16481514 -0.04521647 0.17073339
000240 f6 d2 fd bd 0e d1 33 bd 10 59 8e 3d 9d 79 8e bd
       -0.12393753 -0.043900542 0.06950581 -0.0695679
000250 3f f4 e2 3d 9a 58 e0 bd 40 3d f8 bd 0f 4b 85 bd
       0.110817425 -0.109543994 -0.121210575 -0.06508457
000260 38 23 bf 3c a6 1f f5 3d e5 75 a8 bd 9e 7f 1c 3d
       0.023332223 0.11968927 -0.082256116 0.038207643
000270 62 fe 4e bd d4 f7 3c bd bc f9 b9 3d a2 16 e5 bd
       -0.050535567 -0.046134785 0.09080836 -0.111859575
000280 10 2d 7b 3c 7a fe 0a 3e be b6 02 bd 70 14 cd 3d
       0.015330568 0.13573638 -0.031912558 0.10013664
000290 45 c9 66 bd f9 22 da 3d 9f 85 18 be b7 9b f9 bc
       -0.05634429 0.10651202 -0.14894722 -0.030469758
0002a0 c8 af cf bc e8 99 3f 3d 54 f2 67 3d fc 4f c8 3d
       -0.025352374 0.046777636 0.056627586 0.09780881
0002b0 36 89 0c bd ae d1 97 bc 87 4e aa 3d 82 7a 66 bd
       -0.034310542 -0.0185326 0.08315759 -0.056269176
0002c0 03 7d dc 3d 5e ba dd bd 46 6d e2 bc 74 e8 a1 bc
       0.107660316 -0.10826562 -0.027639996 -0.019764163
0002d0 60 67 48 3d 3d 95 ae 3d 11 20 10 bd b4 b9 05 be
       0.04892671 0.08524559 -0.03518683 -0.13059121
0002e0 5e 25 78 3d 03 57 04 3d 9c 78 3d 3d 96 7c ce bd
       0.06058251 0.032309543 0.0462576 -0.10082357
0002f0 65 f2 a5 3d 8c b4 97 3d fa fc cc bd 46 21 a3 be
       0.08102874 0.074074835 -0.10009189 -0.31861323
000300 b4 82 cf 3d eb 2c db bd e4 e6 07 3d 60 d3 ab 3c
       0.101323515 -0.10701927 0.03317918 0.020974815
000310 69 5a 8a bd 04 db 4d 3d da 32 04 be 24 a7 06 3d
       -0.067555256 0.050257698 -0.12910023 0.03287424
000320 e4 65 bb bd a0 b7 7f bc a8 17 98 3c 70 d6 fb 3d
       -0.091502935 -0.015607744 0.018565968 0.1229676
000330 d1 09 8d bd ca 5f bd 3d e0 34 96 bc e6 63 8c bd
       -0.06886638 0.09246786 -0.01833576 -0.068549916
000340 a5 b4 00 be 5a 9c 07 be 3e 58 10 3e 5a 72 13 bd
       -0.1256891 -0.13243237 0.14096162 -0.035997726
000350 a0 3d ec 3b 8c 48 20 3d 5c ee c8 3d 30 4a fc 3d
       0.0072094947 0.039131686 0.098110884 0.12318838
000360 48 bd ef 3d ec 01 db bd 48 71 bd bc 6c eb ae bd
       0.117060244 -0.10693726 -0.023125306 -0.08540997
000370 bc e4 a8 bd 08 3d 0c 3d d6 bb 0a 3e 1a cf ec bd
       -0.082467526 0.03423789 0.13548216 -0.11562939
000380 84 e6 b2 3d af 42 99 bd c0 4d e6 bc 2c a4 ea 3d
       0.087353736 -0.07483422 -0.028113246 0.114570946
000390 a0 b6 05 bd c0 54 57 3c e8 a2 ce bd 30 a1 fb 3d
       -0.032644868 0.013142765 -0.10089666 0.122866035
0003a0 b0 d9 98 bc 93 33 d8 bd 84 1c 2d 3d da 2d d2 bd
       -0.018658489 -0.10556712 0.042263523 -0.10262652
0003b0 3c 90 ea bd 30 10 10 3c 00 5e ea 3d 52 4d 27 bd
       -0.11453292 0.008792922 0.1144371 -0.040845223
0003c0 be c4 9f 3d da 12 0a 3e 62 72 da 3d 40 92 88 bd
       0.078011975 0.13483754 0.10666348 -0.0666852
0003d0 ee 11 d3 bb 0c 3e 12 bd 90 b3 ed bd 00 20 7a 38
       -0.0064413464 -0.035703704 -0.116065145 5.9634447e-05
0003e0 1c 6c de 3d 6a aa 04 3e e9 97 ae 3c cd 53 23 3d
       0.10860464 0.12955633 0.02131267 0.03987484
0003f0 9b 26 75 bd f2 41 e2 3d a7 87 79 bd 78 57 cd bd
       -0.05985127 0.11047734 -0.060920384 -0.10026449

cnn.conv2.bias f4 [64]
000000 a4 af 18 3e 0d 95 15 be ae 82 e9 3d 03 83 d4 3c
       0.14910752 -0.1460764 0.11401878 0.025941378
000010 ca b6 06 be 5e 5b 0c 3e bc dc 4b bd 22 b0 49 bd
       -0.13155666 0.13706729 -0.049771056 -0.04924024
000020 17 08 01 be ee 08 fa bd 1d 6a e1 3d 02 2e 11 be
       -0.12600742 -0.122087345 0.110065676 -0.14177707
000030 34 f1 72 3d 44 f2 1f bd 48 7b 4f 3d 63 52 13 bd
       0.05931206 -0.039049402 0.05065468 -0.035967242
000040 bf a6 83 3d 83 18 90 3b 66 6c d6 3d 40 87 70 bd
       0.06428289 0.0043974533 0.10469894 -0.058722734
000050 5e 54 cb bd 2d a3 fc 3a 2e 33 cb bd 58 3f b7 bd
       -0.09928201 0.0019274704 -0.09921871 -0.08947629
000060 11 1f 0e be 29 34 d6 bb 8c ae d9 bd b7 92 00 3e
       -0.13879038 -0.0065369797 -0.10628995 0.12555967
000070 cd 9f e2 3d 1e 10 65 3d 45 03 de 3d 28 8f 5a 3d
       0.11065636 0.055923574 0.10840467 0.05335918
000080 85 3b 0b be f0 9c 6c bc 98 ee bf bc c0 7a b3 bd
       -0.13596924 -0.014441714 -0.0234292 -0.08763647
000090 42 66 3f 3d 4a 1a e4 3c ec 59 8d bd dc 94 49 3c
       0.04672838 0.027844567 -0.06901917 0.012303557
0000a0 bf 97 dc bd 7a b4 f6 3d d8 7a d6 3d b7 ff 15 3e
       -0.10771131 0.12046142 0.10472649 0.14648329
0000b0 b4 6c 15 bd b5 1c 76 3d 80 3c be bb 11 9b f4 bd
       -0.03648062 0.06008597 -0.005805552 -0.11943639
0000c0 76 4c 01 3e a6 f3 db bd 56 0b 83 bd 22 65 12 bb
       0.12626824 -0.107398316 -0.063986465 -0.0022338112
0000d0 d5 30 10 be 06 91 63 3c 6c f2 2a bc b0 cf 2f bc
       -0.14081128 0.013889557 -0.010433774 -0.010730669
0000e0 86 04 ce 3d 80 c6 e2 3b b1 b2 2b bd 19 3c a1 bd
       0.100594565 0.0069206357 -0.04191846 -0.07872791
0000f0 aa 57 c4 bd c0 1a a8 bc a9 7d ad bd 64 00 c3 bd
       -0.09587033 -0.020520568 -0.084712334 -0.09521559

rnn.0.rnn.weight_ih_l0 f4 [256, 64]
000000 bb ca 40 bc 66 32 a7 bc 12 d1 47 bd de e4 97 3d
       -0.011767085 -0.020409774 -0.04878337 0.074167
000010 92 1b d9 3d e8 d4 a2 bd 53 45 60 3d 02 00 6a bd
       0.10600962 -0.07950765 0.054753613 -0.057128914
000020 4c 58 fb bd 26 fa ee 3d 6f 9a 12 3e da 16 f4 bd
       -0.12272701 0.11668806 0.14316724 -0.11918421
000030 82 56 eb 3d 09 51 7e bb 1a 30 80 bd 3b d3 81 bd
       0.114911094 -0.0038805625 -0.06259175 -0.06339117
000040 6e 50 e7 3d b0 24 09 3c e6 2f 0b 3e 1a 40 a8 3d
       0.112946376 0.008370563 0.1359249 0.082153514
000050 2c b9 46 bd ea 48 e7 3c 28 ed 97 bd 14 c6 d5 3d
       -0.048516437 0.02823301 -0.07418281 0.10438171
000060 0e 5f 87 bd 7c 50 13 3e 77 ba 01 3d 47 40 a5 3d
       -0.06609927 0.14386171 0.031671967 0.080689006
000070 7f eb ab bd 7b ed af bd 35 b0 96 3d da cf c4 3b
       -0.08394527 -0.08590218 0.073578276 0.006006223
000080 80 15 eb ba 00 80 79 3d ba 55 bf bd f8 4c cd bc
       -0.0017935485 0.060913086 -0.09342523 -0.025061116
000090 58 29 80 3d 7d 70 0f 3e b0 c4 ed 3d bb eb b5 bc
       0.06257886 0.14007755 0.11609781 -0.022207132
0000a0 b0 85 4d be f7 bb 61 bd 6a 73 53 bc 7f 13 6e bd
       -0.20070529 -0.055110898 -0.012905935 -0.05812406
0000b0 89 23 d4 3d cd 76 c9 3b c8 49 50 3d d2 cf 8c 3d
       0.1035834 0.0061481954 0.050851613 0.06875576
0000c0 10 a5 b9 bd a6 36 d4 bc 7e e5 29 3b 23 f5 ea bd
       -0.09064686 -0.025904965 0.0025924142 -0.11472537
0000d0 f8 fb a4 3c 28 10 b3 bc 53 31 d9 bd d4 82 ee 3d
       0.02013968 -0.02185829 -0.10605111 0.11646047
0000e0 b8 77 03 bc 4c 88 7f bd ff 0f e6 bd b4 c9 eb bd
       -0.008024149 -0.062385842 -0.1123352 -0.11513081
0000f0 80 d3 42 3d f4 ba 69 bd 94 2b 5d bd 88 20 94 bd
       0.047564983 -0.057063058 -0.053996637 -0.07232767
000100 01 49 e8 3d 8b 44 fe bc 42 32 02 3e ad 1e e4 3d
       0.113420494 -0.031038543 0.12714484 0.111386634
000110 2c 7a c6 bd 37 24 2f 3e ef 9a c3 bc 47 0d 25 3e
       -0.09691271 0.17103659 -0.023877589 0.16118346
000120 00 eb 9d 3e 98 fb f7 bd fb bd 37 3e 2c fb 33 3d
       0.30843353 -0.121085346 0.17943566 0.043940708
000130 50 bd 39 bd c8 35 c2 3d 02 00 d4 bd 3e 2b 9c 3d
       -0.045346558 0.09482914 -0.10351564 0.07625435
000140 c1 9a 6f 3e 0c 9b 32 3e 9b 8b 36 3e 78 d1 98 bd
       0.23398878 0.17441958 0.17826693 -0.07461828
000150 42 43 dc bd da 6b ea bd cc 58 1a bd e4 05 91 3d
       -0.10755016 -0.11446352 -0.03768234 0.07081202
000160 6c 19 22 3d 09 a3 c2 3d bb 3b e6 3d 52 d5 5c 3e
       0.039575025 0.09503753 0.112418614 0.2156575
000170 d9 de 21 bd 49 ce d0 3d e8 4f 61 3a 58 21 67 3c
       -0.039519165 0.10195596 0.0008594976 0.014107071
000180 00 94 6a ba 24 aa 45 3d 6c a0 b0 3d c0 a3 b8 bc
       -0.00089484453 0.048257962 0.08624348 -0.02253902
000190 cd f1 d5 3d c9 d5 03 3e 44 88 44 3d 48 b9 ed 3d
       0.104465105 0.12874521 0.047981516 0.11607605
0001a0 04 15 42 3e 7f 80 1f bb ec 22 0c 3e 8c e0 67 bc
       0.1895333 -0.0024338064 0.13685197 -0.014152657
0001b0 d5 f6 e2 3d 16 8b 2a 3c fc 9f af 3d 40 6f 4d 3d
       0.11082236 0.010409137 0.085754365 0.050154924
0001c0 b6 bf 1f 3e 9f 3e 91 3e 8b ca 52 bd 12 c3 a3 3e
       0.15600476 0.2836809 -0.05146269 0.31984764
0001d0 b8 be 16 3d e7 f8 4c 3d 61 8a ae 3c c0 a0 22 bb
       0.036802977 0.05004206 0.021306219 -0.0024815053
0001e0 3e 02 84 3c 2c d3 8e 3d 65 d9 12 3d 38 f9 3e 3d
       0.01611435 0.069738716 0.035851855 0.046624392
0001f0 2b 5f ac 3d be f1 85 bd 10 ea ed bc 00 7f 69 bb
       0.08416589 -0.06540249 -0.029042274 -0.0035628676
000200 13 16 c9 3d 84 26 d2 bd 89 33 90 bd a9 dd 05 bd
       0.098186634 -0.102612525 -0.070410796 -0.032682095
000210 e8 ac da bd 23 e4 a4 bd 8d 5d af 3d 91 95 c7 3c
       -0.106775105 -0.08051326 0.08562765 0.024363311
000220 5d f1 7b 3d f8 14 a9 bc c0 57 4e bd 34 06 36 bd
       0.06150948 -0.020639881 -0.050376654 -0.04443951
000230 7e 21 d6 bd 95 96 9a 3d a0 f3 7c bc 98 99 16 3e
       -0.10455607 0.075482525 -0.015438944 0.14707029
000240 e5 bc 98 bd 00 37 49 bd 83 78 dd 3b b4 45 b2 bd
       -0.07457904 -0.049124718 0.006758751 -0.08704701
000250 d6 90 ba 3d a4 32 b7 3d 7f 52 db 3d 5c 9a a1 bd
       0.091096565 0.08945206 0.10709094 -0.0789077
000260 e6 24 b6 3d 5a dc 00 3e d7 b9 4b bd 6d f8 3a 3d
       0.088937566 0.12584057 -0.049737778 0.045647074
000270 69 7a 85 3d e8 cd 82 3e 90 a6 01 be 0d ba e8 3d
       0.065174885 0.2554772 -0.12661195 0.11363611
000280 64 ba 00 bd a0 9c 50 3d b0 ff 9e bd ca 00 c5 bd
       -0.031427756 0.05093062 -0.07763612 -0.09619291
000290 89 e3 84 bd 42 e4 a5 3d 70 8d 7c bd b5 e6 d2 3d
       -0.064887114 0.08100177 -0.061658323 0.1029791
0002a0 b0 8a a9 3e 0c cb 93 3d 90 16 30 bc f2 92 7c bc
       0.33113623 0.072164625 -0.010747567 -0.015415894
0002b0 bf c3 29 bd 92 3d 3e bd 3e 0a ec 3d 00 9a de bb
       -0.041446444 -0.046445437 0.11525391 -0.0067932606
0002c0 8b 64 42 3e 91 33 52 3d 2d ab 75 bb 5e 9f af 3c
       0.18983667 0.05131871 -0.0037486062 0.021438297
0002d0 80 ed c0 ba 06 0f bc 3d 47 25 95 bd 18 a8 8c 3d
       -0.0014719218 0.09182553 -0.07282501 0.06867999
0002e0 d8 df 4c bc 6a e4 c4 bd c1 cf 03 be e0 59 7e 3d
       -0.01250454 -0.09613879 -0.1287222 0.06209743
0002f0 8c e7 c3 bd 6c ff 79 3d 78 9d 92 3c 72 22 8b 3d
       -0.095656484 0.061034605 0.017897353 0.06793679
000300 ef 5c b4 bd e8 37 e1 3d 29 fb 90 bd 9d f8 c2 bd
       -0.08806788 0.109969914 -0.07079155 -0.095200755
000310 22 85 99 3d c8 9d 47 3c 4c c6 8f bd 32 57 e5 bc
       0.07496096 0.012183614 -0.07020244 -0.02799568
000320 89 a6 4f be 92 cc de bd fc 05 bf 3d 4a 4a c3 3d
       -0.20278372 -0.108788624 0.09327313 0.09535654
000330 00 e8 18 3d 06 c8 d0 3c cc b1 07 bd 0c 81 f1 3d
       0.037330627 0.025486004 -0.033128545 0.11792192
000340 85 2d 3b 3c 2f ee 47 3d 27 a6 84 3d 80 ca 9f 3c
       0.011424427 0.048811134 0.064770035 0.01950574
000350 34 bc 2a 3d 65 60 e7 3d 3c 7e a0 3d d8 0c 83 3c
       0.04168339 0.11297683 0.07836577 0.015997335
000360 94 b2 4c 3d a9 01 d6 3c ae fc ae 3d 04 b8 24 3d
       0.049974993 0.026123838 0.085442886 0.040214553
000370 df 66 c8 3d 23 76 ae bd ac 93 bb bd 99 86 08 3d
       0.09785246 -0.085186265 -0.091590255 0.033331487
000380 40 3d 50 3d 74 da ce 3d 5c 72 46 3d f8 2b 3d 3d
       0.050839663 0.101002604 0.048448905 0.04618451
000390 19 50 d4 3d 81 e4 ba 3c 90 07 e2 3d c8 c6 81 3d
       0.1036684 0.022814037 0.11036599 0.06336743
0003a0 cc 04 f6 bd d4 64 c3 3d 55 a2 b2 bd 84 8e 8d 3d
       -0.12012634 0.09540716 -0.08722369 0.06911948
0003b0 43 ec 03 3e 4c 2f a5 bd 10 87 2f bc 34 3c 9c bd
       0.12883095 -0.08065662 -0.010713354 -0.0762867
0003c0 38 e4 18 be 1c f4 20 bd d8 6d 9f 3d f0 32 2b bd
       -0.14930809 -0.0392953 0.07784623 -0.041796625
0003d0 80 69 f2 bd 8d 7b 95 3d f5 9c 8c 3d 60 a3 b9 bc
       -0.11836529 0.07298956 0.06865875 -0.022660911
0003e0 c2 48 e2 3d 5e 59 c5 3d 00 60 ad bc 20 2c 9e 3b
       0.11049034 0.09636186 -0.02116394 0.0048270375
0003f0 97 da b3 3c 70 a9 c8 bc c0 46 fc bc dc 1d 67 bd
       0.021954818 -0.024494857 -0.030795455 -0.05642496

rnn.0.rnn.weight_hh_l0 f4 [256, 64]
000000 bc bb 88 bc 34 cb 98 bd 55 97 d6 bb 26 58 d7 3d
       -0.016691081 -0.07460633 -0.006548802 0.1051486
000010 64 97 9c 3d ab 1f 0e bc 3d 18 a7 bd 2d f7 43 bd
       0.07646063 -0.008674542 -0.0815892 -0.047843147
000020 1f d7 b4 bb 81 5a 60 bd ec f8 51 bd af c5 9a 3d
       -0.0055188085 -0.05477381 -0.05126278 0.075572364
000030 e0 1c e1 bd 9a 28 3f bc 0a c4 cc 3d f2 3d 36 3d
       -0.109918356 -0.011667395 0.09998329 0.04449267
000040 7f ea 36 bc be fc b9 3d 4a 93 98 bd 1f 8a 3f 3d
       -0.011164307 0.0908141 -0.07449968 0.046762582
000050 a1 09 ff 3d f6 19 6f bc 47 59 f2 bd cf 3b c1 bd
       0.124530084 -0.014593592 -0.118334346 -0.09435236
000060 22 9e e4 bd 62 d0 8a bd 95 a3 2c 3d 64 90 7b bd
       -0.11162974 -0.06778027 0.04214819 -0.061417
000070 69 d1 02 3c d0 db ea bd 34 e6 0e bd c2 eb 50 3d
       0.007984498 -0.11467707 -0.034887508 0.051006086
000080 17 bb 5a 3d 2a fa d7 3d a3 96 70 3d cc 99 c6 bd
       0.05340108 0.10545762 0.05873741 -0.09697303
000090 38 47 a0 3d 30 fe bf bd bc 90 05 3c 83 c4 6f 3d
       0.07826084 -0.09374654 0.008152183 0.058537018
0000a0 64 67 f4 3d 8b 4b 88 3c a5 5a 44 3d 6b 0f 9e 3d
       0.11933783 0.016637584 0.047938008 0.077177845
0000b0 1e d6 f7 3d 90 85 b9 3d 6b 9e 42 bd 83 31 13 3d
       0.121013865 0.09058678 -0.04751436 0.03593589
0000c0 46 ad e2 bd e6 28 11 bd c6 cf 14 3c 38 d4 8f 3d
       -0.110682055 -0.035439394 0.00908274 0.070228994
0000d0 84 f0 a6 3d ab 1c 88 3c 48 07 4f bd 94 9f c0 3d
       0.081513435 0.016615232 -0.050544053 0.09405437
0000e0 9f b6 be 3d c3 ac 4b bd 96 5e ae bc df 8f c3 bc
       0.09312176 -0.049725305 -0.021285336 -0.023872314
0000f0 d8 7c 56 3d 6c 95 a9 bd 91 44 ae bd 4e 25 90 bd
       0.052365154 -0.08280453 -0.08509172 -0.07038365
000100 af ea b7 3d fa e2 64 3c d9 6a 22 3e eb 18 c4 3c
       0.08980309 0.013970131 0.15861072 0.023937663
000110 2a 64 4b 3e 61 f3 d8 bc c9 46 a1 3c 69 1d aa 3d
       0.19862428 -0.02648324 0.019687073 0.08306391
000120 9d b2 8e bd 10 3c a2 3d aa 12 23 be f3 2d 08 bc
       -0.069676615 0.07921612 -0.15925089 -0.008311736
000130 91 d1 11 bd 50 fb 89 3d ce a7 cb 3d dc b3 45 bd
       -0.03560025 0.06737387 0.099441156 -0.04826723
000140 a9 23 2a 3e ea b0 d4 bc 69 87 7f bd 60 66 07 be
       0.16615166 -0.025963265 -0.062384997 -0.13222647
000150 26 91 c9 3d d9 e3 c2 3d 4d db 1a bd ec 0e 32 3c
       0.09842138 0.09516115 -0.037806798 0.010867815
000160 39 6e 62 3d 47 65 5e 3d be 79 53 3c 06 e1 83 bd
       0.055280898 0.054295804 0.012907444 -0.06439404
000170 e5 7d 6f 3d 6b b7 45 bc 83 86 08 be 2b 12 93 3a
       0.05846967 -0.012067656 -0.13332562 0.0011220624
000180 42 0d 30 3c 85 3d 78 3d 56 90 0c 3e 81 0d 69 bd
       0.010745348 0.060605545 0.13726935 -0.056897644
000190 7e f5 b5 bd d7 fe cd ba 93 6d b8 3c df 71 f2 3d
       -0.088847145 -0.0015716207 0.022513187 0.118381254
0001a0 22 c6 e5 3c 37 01 22 be 84 1a 06 3d 19 37 58 3d
       0.028048579 -0.15820776 0.03274013 0.05278692
0001b0 1b 86 ad bd 9a 2a 25 3d 8a 6e ed ba c6 02 b1 bd
       -0.08472844 0.04032383 -0.0018114608 -0.08643107
0001c0 6a 0d f6 bc ad 3d 27 3d cb 0b c7 3d 54 f2 9f 3d
       -0.030035693 0.040830303 0.09719046 0.07809892
0001d0 79 dc 77 3d 4b 39 ad 3c 73 cc a4 3d fe c5 e2 3d
       0.060512993 0.021145483 0.08046808 0.1107292
0001e0 f8 83 6c bd ee 7d a5 bd ce 5f 9f bd ab 48 2b 3c
       -0.057743043 -0.0808066 -0.07781945 0.010454337
0001f0 c8 e2 21 bd f5 28 8b 3d 17 56 2f bd cc 8a 2f 3e
       -0.039522916 0.06794921 -0.04280671 0.1714279
000200 83 3f d8 bd d9 4c 7e bb e0 eb 81 3b fc 3f 8b bc
       -0.10558989 -0.003880313 0.003964886 -0.016998284
000210 19 9f 01 bc 79 1e a2 bd 8a bc 10 bd 64 a2 bd bd
       -0.007911467 -0.079159684 -0.035336055 -0.09259489
000220 77 f9 d5 bd cb 95 0c be 49 2e ec 3d 62 a5 fc 3c
       -0.10447972 -0.13729016 0.11532266 0.03084058
000230 dd ec f2 3d a4 c0 58 3b 0a f1 56 bd 35 9a 18 bd
       0.11861584 0.0033073807 -0.052475967 -0.03725644
000240 81 b3 06 be 84 23 02 3e 08 34 9f 3d 70 89 9e bd
       -0.13154413 0.1270886 0.07773596 -0.07741058
000250 5c 26 23 3d a2 73 b5 3d 50 39 82 bd 56 2d 83 bd
       0.039831504 0.08859946 -0.06358588 -0.064051315
000260 75 48 93 bd d8 58 e5 bd 19 b8 d7 3d 10 74 56 3c
       -0.071915545 -0.11198586 0.10533161 0.013089195
000270 f2 38 e7 bc 0d 05 5c 3d ef f0 b8 bd fe bc b7 3d
       -0.028225396 0.053715754 -0.090303294 0.08971594
000280 5c 34 d9 bd 56 6a be 3d e1 88 b0 bd 7a 73 8f 3d
       -0.1060569 0.09297626 -0.086198576 0.07004447
000290 2a 97 4d 3c 10 e3 e2 bd 78 1c b2 3d b3 c1 56 3d
       0.012548247 -0.11078465 0.08696836 0.05243082
0002a0 ff 40 76 3d bb 8c 8e 3d da ce bb bd bb ef e6 3c
       0.06012058 0.06960436 -0.09170313 0.028190484
0002b0 38 72 6e 3d ca da c6 3d 94 01 e4 bd 5b 14 00 3c
       0.058214396 0.097096995 -0.111331135 0.007817353
0002c0 b7 c1 a8 3d fa 67 9d bd 52 b1 9f bd 57 19 03 3e
       0.08240073 -0.076858476 -0.07797493 0.12802635
0002d0 53 59 a1 3c 46 19 25 bd 3b a7 c2 bd c4 28 94 3b
       0.019695913 -0.040307306 -0.09504553 0.004521461
0002e0 4c 95 e4 3c 80 ae df 3d cd bf 02 bd 56 7a 71 3d
       0.027903222 0.10921955 -0.031921197 0.05895456
0002f0 86 b9 9d 3d ba 7f 20 3d 5a 9c 2b bd 71 31 ca 3c
       0.077014014 0.03918431 -0.041897155 0.024681779
000300 dc 5b 98 bc 38 29 70 bd ca 31 7b bd ef 46 11 bd
       -0.01859849 -0.05863306 -0.06132678 -0.03546804
000310 e5 ca 13 bd 6d 7f ca bb 51 4d c4 3d 80 5b 72 3d
       -0.036082167 -0.006179741 0.095850594 0.059169292
000320 bd ab 0f 3d ab 95 5b 3d 9a 5f e2 3d 4f a4 a5 bd
       0.03507589 0.05360953 0.11053391 -0.0808798
000330 8e 85 81 bc d1 50 b5 bd 78 22 73 bd 8d 45 5e 3d
       -0.015810754 -0.08853305 -0.059359044 0.054265548
000340 de c4 d7 3d bd dd 21 3d c3 8d f3 bc 76 6c 53 bc
       0.10535596 0.039518107 -0.029730683 -0.012904277
000350 8f b1 a2 bd 09 f7 51 3c f5 4f d0 bd 25 a2 cb 3d
       -0.07944023 0.012815245 -0.101715006 0.09943036
000360 17 2d 17 bc f8 e4 0f 3c 32 36 7a bd a2 70 68 bd
       -0.009227059 0.008782618 -0.06108684 -0.05674804
000370 af a7 34 3d 06 af 03 3d 9e f9 41 3d 45 21 ae 3d
       0.044105228 0.032149337 0.047357194 0.085024394
000380 a2 33 a8 bd c8 e8 e8 3d ce c0 12 3c 3d 1a e2 bd
       -0.08212973 0.113725245 0.008957101 -0.11040161
000390 cb 90 97 3d e0 36 9d bd 3e 6e fb 3d e6 e2 86 bd
       0.07400664 -0.07676482 0.122768864 -0.06586246
0003a0 77 7a 0a bd 2f fe 4a 3d ee 51 ee 3d 90 c6 a9 bd
       -0.033808198 0.049558815 0.116367206 -0.08289826
0003b0 8d 56 48 3d 67 f7 d0 bd 41 82 d3 3d 03 b2 14 bc
       0.048910666 -0.10203438 0.10327578 -0.009075644
0003c0 6b 1f 98 3d 44 59 a3 bd 3c a5 86 3b 76 5e c7 3d
       0.074278675 -0.079760104 0.004109053 0.09734814
0003d0 18 59 96 3d 8e ea b6 3d 84 61 5f 3d a5 7e c4 bc
       0.07341212 0.089314565 0.054536358 -0.02398617
0003e0 b3 27 da bd c4 7d 2a 3c 28 a9 16 be 7d ab 00 be
       -0.10652103 0.010405961 -0.14712965 -0.12565418
0003f0 1c 64 4e 3d 8f 9e b9 3d b1 ac 97 3c 75 ff 12 be
       0.05038844 0.09063446 0.018514963 -0.14355262

rnn.0.rnn.bias_ih_l0 f4 [256]
000000 05 6c e8 bd 45 1f af 3d 0f 56 a5 bd 06 02 01 3d
       -0.11348728 0.08550886 -0.08073055 0.03149607
000010 08 e5 72 bd 05 34 7f 3d df b8 36 bd aa c6 ad 3c
       -0.059300452 0.06230547 -0.0446099 0.021212894
000020 c9 64 07 3e bd 9b 36 3d 40 e2 ad 3d cb cc d3 3c
       0.1322204 0.044582117 0.084904194 0.025854489
000030 63 9b c5 bd 1e 2f 26 bc df 03 b6 3c e8 61 3a bc
       -0.09648778 -0.01014307 0.022218643 -0.011375882
000040 22 a9 84 3d 14 a8 94 3d c6 82 0b bd fc f3 6d 3d
       0.06477572 0.07258621 -0.034060262 0.05809401
000050 e1 aa 19 bc 7e 22 f2 bc 2d bf 70 3d 9f 63 8e bd
       -0.00937912 -0.029557463 0.05877607 -0.06952595
000060 f2 ce 22 3d b7 c3 0f 3d b4 c9 88 3d 9f 8e cc bc
       0.03974814 0.035098758 0.06679097 -0.02497035
000070 fa fc 4b 3d 29 50 a2 bd b4 e5 cf bd aa e8 d2 bd
       0.049801804 -0.079254456 -0.10151234 -0.102982834
000080 17 6e 47 bd 1f 76 28 bd fa 21 6f 3b 67 dc 6a 3d
       -0.048688974 -0.041128274 0.0036488757 0.0573391
000090 54 3b f4 3d 20 88 b2 bc 5b b7 c2 bc 9a 14 d4 3d
       0.119253784 -0.021793425 -0.023769071 0.10355492
0000a0 42 15 fd 3d 5f c7 4d 3c 2d 83 83 bc 27 cf 92 3d
       0.1235757 0.012559741 -0.01605376 0.071684174
0000b0 84 76 c8 bc df 3d eb bd d8 4d 8c bd 6a 72 3f 3d
       -0.024470575 -0.1148641 -0.06850785 0.046739973
0000c0 b5 a2 ef 3d 29 76 87 3d b8 c6 d5 bc 62 30 d2 3d
       0.11700956 0.06614334 -0.026095733 0.102631345
0000d0 5f 53 dc 3c c9 0b be bd 7f 42 47 3c 68 42 af bd
       0.026895223 -0.092795916 0.01216185 -0.08557588
0000e0 16 af d5 3d 5a 70 c0 3d 7b 59 d7 bc b9 89 54 3d
       0.104337856 0.09396429 -0.026287785 0.051889155
0000f0 ba af 2e 3d 87 a4 75 bc 33 73 8b bc 38 1b 95 3d
       0.042648055 -0.01499284 -0.017022705 0.07280582
000100 5c 26 7b 3d 47 46 de 3d 14 5c 03 be e8 a9 e6 3d
       0.06131588 0.10853248 -0.12828094 0.11262876
000110 cc 04 95 bd 6a f3 15 bc d4 b0 c6 bc dd 2d e7 bb
       -0.072763056 -0.009152273 -0.02425424 -0.007055028
000120 80 1b b5 bc 8b 74 14 bd 9d 53 1f 3c 75 2b de bd
       -0.02210784 -0.036243957 0.009724525 -0.108481325
000130 1e 6e c2 3d 81 0e b2 3b d2 15 6c bd 78 46 e5 3d
       0.094936594 0.005433858 -0.057637997 0.111950815
000140 95 ed aa bd 11 53 eb 3d 77 af 16 bc 95 e4 af 3d
       -0.083460964 0.11490453 -0.0091971075 0.085885204
000150 f1 03 57 bd 7a 2b fb bc 4c ee db bd 46 4e 8c 3d
       -0.052493993 -0.03066038 -0.10738811 0.06850867
000160 e8 0f 2f bd c2 a2 bc 3d 5c 10 89 bd e6 67 86 bd
       -0.04273978 0.09210731 -0.066925734 -0.06562786
000170 b9 bf 64 3c 93 be 2b bc b6 e1 55 bd aa af b4 3d
       0.013961726 -0.010482448 -0.052217208 0.08822568
000180 04 6e a4 3d 4a d5 dc bd 0f e0 92 bd 4f 50 dd bd
       0.08028796 -0.10782869 -0.07171642 -0.10806333
000190 0c 65 a3 3d 73 1a 87 3d e8 33 8e 3d 5e a2 cb bd
       0.079782575 0.06596842 0.06943494 -0.099430785
0001a0 64 33 2a 3d c3 45 d7 bd b5 cb fd 3d 14 f0 e4 3d
       0.041552916 -0.10511353 0.1239237 0.11178604
0001b0 c6 89 b7 bd ea eb cd bc 5e a3 a6 bc fc 82 80 3d
       -0.08961825 -0.025136907 -0.020341571 0.06274983
0001c0 69 64 2f bd 69 df ad bd a3 ab e3 bc d6 52 2b 3d
       -0.042820368 -0.08489878 -0.027791804 0.041827045
0001d0 ec 41 9b bd 4a c6 9f 3d 0b 23 bb bc e2 70 9a bd
       -0.07580933 0.078014925 -0.022843858 -0.07541062
0001e0 76 5c d1 3d 1d 12 ea bd 7f ac 97 3d 54 a2 e7 bc
       0.10222714 -0.11429236 0.07405948 -0.028275646
0001f0 c7 3a ab 3d 68 ef cc bd 94 1c 65 bd 69 50 00 3e
       0.0836082 -0.100066006 -0.055935457 0.12530674
000200 5e f5 c8 3d ed 0d 8e bd b2 de eb 3d 55 c5 f8 bd
       0.09812425 -0.0693625 0.11517085 -0.12147013
000210 ea 2c 77 3a 90 61 cb 3d 48 3b 9e 3d e3 08 fe 3d
       0.0009428995 0.09930718 0.07726151 0.12404039
000220 03 65 58 bd af 52 21 bc 5f bd 93 bd 1c 3c 92 bd
       -0.052830707 -0.009846373 -0.07213854 -0.07140371
000230 3a e5 38 3d 20 ce d4 3d 9b 76 76 3d c5 dc 00 3c
       0.045140482 0.10390878 0.060171705 0.007865136
000240 f7 e1 82 3c 23 06 06 be 1a 79 9a bd 3f 35 b5 3d
       0.015976889 -0.13088278 -0.075426295 0.088480465
000250 95 d0 85 bc 39 15 70 bd 81 62 44 bd fa 3d ad bd
       -0.016334811 -0.05861399 -0.047945503 -0.08459087
000260 8b a3 33 bd 8e 4c b7 bd 81 f7 cf 3d cd b6 06 be
       -0.04385714 -0.089501485 0.101546295 -0.1315567
000270 68 82 83 3d 66 9e 00 bd e8 31 eb bd 67 33 9c 3d
       0.064213574 -0.03140106 -0.11484128 0.07626992
000280 23 3e 9f 3c 86 c9 c6 bd e9 69 05 3d 1f fb 07 be
       0.019438809 -0.09706406 0.032571707 -0.13279389
000290 39 42 81 3d 8a c1 31 3d 15 35 ea bc 6a 84 b5 3d
       0.06311459 0.043397464 -0.028589765 0.088631466
0002a0 b7 7e 7f 3d 8c 0b 0f 3b b9 3a 7c bd 98 af a3 3d
       0.062376704 0.002182695 -0.06157944 0.07992476
0002b0 db af 10 be 10 74 c9 bd 52 49 8a bd 5c 8e 82 bd
       -0.14129584 -0.0983659 -0.06752266 -0.06374809
0002c0 bd 26 bd 3d 12 4d 0c be be 72 be bd a1 c1 fc bd
       0.09235904 -0.13701275 -0.09299229 -0.12341619
0002d0 17 16 76 3d a9 7e 12 3d ae ea 1b bd 14 bd 34 bd
       0.06007966 0.035765324 -0.038065605 -0.04412563
0002e0 29 df b4 bd b0 26 ee bd a7 55 5b bd 8d 31 97 bd
       -0.08831627 -0.11628473 -0.05354848 -0.07382498
0002f0 e8 3d 83 bd fc 77 de 3d c1 a9 81 bd 1a 84 a2 bc
       -0.06408292 0.10862729 -0.06331206 -0.019838382
000300 4b 12 99 bd 6e ee dd 3d 24 d7 93 bd 8a 97 13 bc
       -0.07474192 0.108364925 -0.07218769 -0.009008298
000310 3d 9d 82 3d 98 e5 62 3b 4b 66 d5 bc 60 2e 68 bd
       0.06377647 0.0034621712 -0.026049754 -0.05668485
000320 2d ad 0f bd dd 3a aa 3d f7 81 89 ba 21 60 7e 3d
       -0.035077263 0.083120085 -0.0010491003 0.062103394
000330 14 ad ba bd b7 18 ef 3d 85 d1 06 3e a8 35 68 3d
       -0.09115043 0.11674636 0.13165863 0.056691796
000340 be 72 bd 3c c1 0f 7c 3d 44 c0 a2 bc c3 da d9 3d
       0.023126002 0.06153846 -0.01986707 0.106374286
000350 94 5d ee bd a9 20 01 3e f6 c8 ef bd 14 7a eb 3c
       -0.11638942 0.12610115 -0.11708252 0.028744735
000360 45 a3 81 bd 1c 89 be 3b 1e f5 91 bd df 60 a1 bd
       -0.06329969 0.0058146846 -0.071268305 -0.07879805
000370 0b 44 93 bd 60 d1 86 bd 5d bc 01 be 34 c3 d3 bd
       -0.071907125 -0.06582904 -0.12669511 -0.103399664
000380 4a df 24 3d c1 25 33 3d 23 32 93 3d 42 82 1d 3d
       0.040252008 0.043737177 0.07187297 0.0384543
000390 b5 8d f4 bd 65 be d6 bd 73 d9 59 bd da 49 dd bd
       -0.11941091 -0.104855336 -0.05318589 -0.10805102
0003a0 a5 43 53 bc a1 71 d3 bd 06 32 87 bd 7c 57 60 bc
       -0.012894546 -0.10324407 -0.06601338 -0.013692733
0003b0 40 d4 af bd 8d 84 b0 3d a7 75 f0 3d 8f 86 66 3d
       -0.08585405 0.08619032 0.117411904 0.05628067
0003c0 0b f4 99 bc 20 41 9c bd ed a5 36 3c 3d 07 c1 bc
       -0.018793127 -0.07629609 0.011147958 -0.023563022
0003d0 f3 b4 44 bd 14 85 0e 3d 0b b0 9e bd ba 20 db 3d
       -0.04802413 0.034794882 -0.07748421 0.106996015
0003e0 5b 66 04 3e 34 48 f6 3d bd 6a 8e bc f8 62 05 3e
       0.1292967 0.120254904 -0.017384881 0.13026035
0003f0 18 fd de 3d c6 55 f3 3d 0e 3a 0c 3c 3f b0 12 3e
       0.108881176 0.11881594 0.008558763 0.14325045

rnn.0.rnn.bias_hh_l0 f4 [256]
000000 11 e7 aa bd d5 8f 96 bc 91 2e c4 3d b9 f0 7b 3c
       -0.08344854 -0.018379131 0.09579194 0.015377217
000010 fb 26 ad bd 98 57 66 bd 7e 5c 95 3d 69 11 d5 bd
       -0.084547006 -0.05623588 0.07293032 -0.10403711
000020 f4 c8 c2 3d 2d 0b 9a 3d d1 ac 03 3e 69 a5 db bc
       0.09510985 0.07521663 0.12858893 -0.026812272
000030 ce c5 c8 3b d1 92 96 bb 34 94 b2 3b 2f 79 b3 3d
       0.006127096 -0.0045951386 0.005449796 0.08763348
000040 01 48 22 3b 38 0d ac 3d 63 99 aa 3d 95 f3 51 3c
       0.0024762156 0.08400959 0.083300374 0.012814422
000050 82 4f c8 bd 23 3e cd 3c 4a a5 0c 3b 45 28 94 3d
       -0.0978079 0.025054043 0.0021460825 0.07234243
000060 e8 76 75 3d 84 cc 7e bd cc 51 a0 3d 46 fc eb bd
       0.05992785 -0.06220676 0.078281015 -0.11522727
000070 ca 0b 09 3c 07 c1 a4 3d d1 ba 49 bd 98 d6 0d bc
       0.008364627 0.080446295 -0.049250428 -0.00865712
000080 12 9f c3 bc ad 17 83 bd 24 e7 bf bd 81 10 ae bd
       -0.023879562 -0.06401 -0.093702585 -0.084992416
000090 dd 00 6e 3d 25 8c 00 bd 31 9b 04 be 52 44 dd 3d
       0.058106292 -0.031383652 -0.12949826 0.10804047
0000a0 96 5d 87 3d fc 5b e5 3c ad af c2 bc 7f 3d a0 3d
       0.06609647 0.027997963 -0.02376541 0.078242294
0000b0 95 31 07 3e 0f e8 b2 3d b6 f4 88 3d bc bc aa bd
       0.13202508 0.08735668 0.066873 -0.083367795
0000c0 27 f8 d3 bd c2 dc 5b bd ac 9e 11 bd d5 f2 a4 3c
       -0.10350066 -0.053677328 -0.035551712 0.020135323
0000d0 a6 7f c9 3d f7 4a b5 bd f1 9a 48 bd ea 31 ff bd
       0.098388 -0.08852189 -0.04897589 -0.12460692
0000e0 c4 0a cf bd 34 c3 c7 3d cf 87 3c bd 1f 06 ab bd
       -0.10109475 0.09754029 -0.046027955 -0.08350777
0000f0 36 e0 8b bc 8f ff e0 bd d1 47 1c bd 7c fd a4 3d
       -0.017074686 -0.10986244 -0.038154427 0.08056161
000100 6d 11 f8 3d 42 c8 e8 bd 7c ee 07 bd d2 c8 02 3c
       0.12112699 -0.11366321 -0.03318642 0.00798245
000110 cf e7 ba bd e1 b6 c8 3d e3 c2 ea bd c5 e8 fb 3d
       -0.09126245 0.098005064 -0.11462953 0.12300257
000120 b8 db 28 3c 99 fd f5 bd 25 a6 41 3d 75 84 f9 bd
       0.010306291 -0.120112605 0.04727759 -0.12183467
000130 ea ee 8a 3d a5 da 7e bd 71 08 61 3d ea 1c c5 bd
       0.067838505 -0.062220234 0.05493969 -0.096246555
000140 a9 47 ab 3d 7c a4 ee bd 39 cd 51 3d 4f e4 94 bc
       0.083632775 -0.11652467 0.051221106 -0.018175272
000150 9e 19 b2 bd a8 48 3b 3d 94 15 b0 3d 08 b7 c9 3d
       -0.08696292 0.045723587 0.08597866 0.098493636
000160 3b e5 d9 bc a1 b0 5b bd 07 f5 b0 3d 3d 59 f6 bd
       -0.026598563 -0.053635243 0.08640485 -0.120287396
000170 e9 5c 6f bd 0b e9 a3 bd 9a 93 19 3d 59 24 9a bc
       -0.058438215 -0.08003434 0.03749428 -0.01881616
000180 8e e9 ce bc 07 fc d2 3a 13 b7 fc 3d af 0e d1 bd
       -0.025257852 0.0016096839 0.12339606 -0.10207879
000190 00 3f 74 bd 53 70 02 3c 81 fe 1f bd ae 86 bd bd
       -0.059630394 0.0079613505 -0.039061073 -0.09254204
0001a0 9a f7 f4 3c 01 f4 9b 3d 92 62 40 bd e6 92 c8 3d
       0.029903222 0.076148994 -0.046969004 0.09793644
0001b0 66 7d f6 bd 47 e2 09 3b da 06 85 bc 5f 80 1f bd
       -0.120356366 0.0021039413 -0.016238619 -0.038940784
0001c0 30 d1 4d 3d eb 0c db bd 4e 18 c5 bd 32 60 2c 3d
       0.050248325 -0.10695823 -0.096237764 0.042083926
0001d0 48 ae 9e bd f4 94 89 3d 61 65 10 be 31 f0 64 3d
       -0.07748085 0.06717864 -0.14101173 0.055893127
0001e0 73 fd 46 3d b4 51 7e 3d 85 b5 b2 bd 09 e7 f4 bd
       0.04858155 0.062089637 -0.08726028 -0.11958129
0001f0 69 2b 46 3d c4 6e ea bd 48 74 6a bd e9 68 31 bd
       0.048381243 -0.11446908 -0.0572398 -0.04331294
000200 7e 60 fe bd 0e 87 8b 3d 36 50 cf bd 7c d5 2b 3d
       -0.12420748 0.06812869 -0.10122721 0.04195164
000210 ce 6e 15 bb f2 e2 a5 3d 14 35 e7 bd 1d ba 82 bd
       -0.002280164 0.08099927 -0.11289421 -0.063831545
000220 82 ea c1 bd 31 7d 4d bd 1d 5b b6 bd 0c 98 c8 3d
       -0.09468557 -0.05016822 -0.08904097 0.09794626
000230 c0 06 81 3d f4 11 9d 3d 96 23 28 3d 0a bd 05 3c
       0.063001156 0.0766944 0.041049562 0.008162746
000240 b9 f5 3e 3d de fa af bd e4 cb f9 3d 9a e2 24 3d
       0.046621058 -0.08592771 0.12197092 0.040255167
000250 c9 89 bd 3d 84 b6 75 3d f1 e8 b7 3d 4c 10 3b 3d
       0.09254796 0.059988514 0.08979977 0.04566984
000260 b3 19 f7 bc 45 60 0e be 7a d4 a2 bc 27 cb 7d bd
       -0.030163622 -0.13903911 -0.019876707 -0.06196132
000270 ce 0d c3 bc 29 20 d2 3d 12 51 95 3d 6b 0c 96 bd
       -0.023810294 0.1026004 0.072908536 -0.07326587
000280 8b dd d8 bc 31 a1 66 3d ce d1 5e 3d 44 28 10 bd
       -0.026472827 0.056306068 0.054399304 -0.03519465
000290 e2 6d 0d be 57 70 ff bd 66 7e 39 3b 4a 35 aa bd
       -0.13811448 -0.12472599 0.00283041 -0.08310945
0002a0 0e f3 e2 bd 34 66 07 be 5d b8 d3 3c 00 94 b2 bd
       -0.11081515 -0.13222581 0.025844747 -0.08719635
0002b0 f2 c4 94 bc 86 40 ef bd de 4e b6 3d 58 38 f3 bd
       -0.018160317 -0.11682229 0.089017615 -0.11875981
0002c0 2d 01 83 3d 4c 53 a8 3b e7 cf 0f 3d 5f ed 1d be
       0.06396709 0.005136883 0.03511038 -0.15422581
0002d0 d3 2d 04 3e 38 72 0d 3e 99 72 e6 3c 93 38 d7 3d
       0.12908106 0.13813102 0.028130816 0.105088376
0002e0 e2 3d 5b bc fb ff 20 bd 3e 4e b3 bc 66 a4 a2 bb
       -0.013381453 -0.039306622 -0.021887895 -0.0049634455
0002f0 52 68 0e 3e f7 60 6b bd 08 fa 8f 3d dc db 06 3e
       0.13906983 -0.05746552 0.070301116 0.13169807
000300 30 ea 18 3d 10 05 3c 3d ac 18 e1 3d 1a e1 db bd
       0.037332714 0.045903265 0.10991034 -0.10736294
000310 aa d7 4c bb 70 fd 76 bd af 5b a2 3d 4a a5 b1 bd
       -0.0031256475 -0.06030029 0.079276435 -0.086741045
000320 3a 15 cf bd 8f 4a 31 bd 66 08 8b 3d 4e b0 ef 3d
       -0.101114705 -0.043283995 0.06788711 0.11703549
000330 93 31 83 bc f9 c3 b4 3b d2 2f 15 3c cb 15 8e 3d
       -0.01601485 0.005516526 0.0091056395 0.069377504
000340 b6 6b cd bd f1 59 d8 bd 5e 80 c5 3d fe e9 38 3d
       -0.1003031 -0.1056403 0.09643625 0.045145027
000350 6c 32 62 bd 67 68 4a 3c 61 2e 1e 3d bb 07 34 bd
       -0.055223867 0.012353993 0.03861845 -0.043952685
000360 2e ba cb 3d 08 99 0c 3d bb b0 6b 3d a3 91 c1 3d
       0.0994762 0.03432563 0.05754159 0.09451606
000370 53 1a 0b bc c0 dd 2a 3e 88 08 09 bd 52 d5 e5 bd
       -0.008490163 0.16686153 -0.0334554 -0.11222328
000380 74 a7 f6 3d b8 6e e1 bc 9d 07 14 bc 0d 7a 01 3e
       0.12043658 -0.027518615 -0.009035018 0.12644215
000390 5d 94 e0 bb 69 32 cf bd c4 5c 98 bd 06 68 55 3d
       -0.006853624 -0.10117037 -0.07439569 0.052101158
0003a0 df f2 bf bc b3 2a 4a 3d 44 ad 45 bd 5c 0a b9 bd
       -0.02343124 0.049357127 -0.048260942 -0.09035179
0003b0 dc 6f 52 bd 94 bc 83 bd f6 f0 56 bd 79 22 a4 bc
       -0.05137621 -0.06432453 -0.052475892 -0.02003597
0003c0 64 0f 83 3d ad c6 2c 3d 88 e0 a4 bd 88 cd 99 3d
       0.0639942 0.04218166 -0.080506384 0.07509905
0003d0 fb d1 30 bd 54 ab a6 bd 23 d8 94 bd 30 70 ec bd
       -0.043169003 -0.08138147 -0.07267787 -0.115448356
0003e0 66 1f 87 3d 14 d1 bb bd 71 b0 0a bd 3a 90 52 3d
       0.06597786 -0.09170738 -0.033859674 0.051407076
0003f0 35 c9 6b bd 7d c4 45 bd 07 fc dd bd a7 50 ff 3d
       -0.057564933 -0.04828309 -0.10839086 0.12466555
