ckpt/HUST/wx_inner_pretrain_best.pt (torch, 320579 bytes, 20 tensors)

cnn.conv0.weight f4 [8, 4, 3, 1]
000000 aa fe ed 3b 9a 05 28 3e c8 ef 69 be a2 33 4e be
       0.0072630243 0.16408387 -0.22845376 -0.20136884
000010 25 ab ce bd 7b f1 b1 3d e3 43 40 bc 0a 37 62 3e
       -0.10091237 0.08688637 -0.011734935 0.22091308
000020 70 e6 00 bd 92 35 9c 3d a2 84 b3 bd 42 57 6b bd
       -0.031469762 0.07627405 -0.08765532 -0.057456262
000030 4a 16 1d be 1a e2 8c bd 92 17 53 3b 80 c4 bd 3d
       -0.15340534 -0.06879063 0.0032210094 0.09265995
000040 52 c7 49 3e 9e a0 83 3e e7 56 9b bd 8c cd 1f bb
       0.19704941 0.2570848 -0.07584935 -0.002438399
000050 69 76 6a 3e 40 8a 52 3e 94 a3 b8 bd bd 04 41 3e
       0.22896732 0.2056055 -0.09015575 0.18849464
000060 9c 13 72 bc 0d 54 80 3d da 3a 96 3e e3 04 58 be
       -0.014775183 0.062660314 0.29341775 -0.21095614
000070 e4 e2 ff bd 2b e8 85 bc 0a 72 d7 bd f8 7f 84 3e
       -0.12494448 -0.016346058 -0.10519798 0.25878882
000080 ff 3a 39 be 6f 8d 34 be cb 4e 7b be fd f8 a0 be
       -0.18088911 -0.17632078 -0.24541776 -0.31439963
000090 3e 8e 2c be 9c 19 7e 3e 54 e7 03 3e 54 45 0f 3e
       -0.16851136 0.24814457 0.12881213 0.1399129
0000a0 60 bd 78 3c 0b 8d 17 be d8 0b 48 3d 6b 00 8a be
       0.015181869 -0.14799897 0.04883942 -0.26953444
0000b0 ce 97 55 be 73 64 18 be e2 81 3a 3e 8a 51 2d 3e
       -0.2085869 -0.14882068 0.18213609 0.16925636
0000c0 d0 0d f4 bd 56 79 c3 ba e9 29 46 3e 34 09 9b 3e
       -0.11916697 -0.001491348 0.19351925 0.3028046
0000d0 2e 98 05 3e 66 1f 61 3d 3e b9 47 3e fa 14 28 be
       0.13046333 0.054961585 0.19504258 -0.16414252
0000e0 25 7b 70 3d 82 42 6b be 06 ef 52 be a7 bc 1e be
       0.05871119 -0.2297459 -0.20598993 -0.15501653
0000f0 ba c8 06 3e da d0 ef 3d f0 2a 2e be 8d 27 cb 3d
       0.13162509 0.11709757 -0.17008567 0.09919653
000100 fd d4 2e 3e 1a d3 c3 bc 56 0f 02 3c 92 1e 86 3d
       0.17073436 -0.023904372 0.007938227 0.065487996
000110 9e 81 37 3e 21 c1 90 3e 8c ea 5d be 1c 7a cc bd
       0.17920539 0.28272346 -0.21671504 -0.09984228
000120 bd 59 09 3e 36 2b 85 3e 81 49 8b 3e 23 86 8b 3e
       0.13413139 0.2600953 0.27204517 0.27250776
000130 b3 0c 9c 3d 6b e4 6c be 5c 64 29 3d 47 13 23 be
       0.0761961 -0.2313401 0.041355476 -0.15925322
000140 5c 8b 7e be 5a ba 5b 3e b7 d3 36 3e 33 ec a7 be
       -0.24857849 0.21457806 0.178542 -0.32797393
000150 72 8c eb 3d de 18 45 3c 93 eb 4f 3c 28 1c ae bd
       0.11501397 0.012029855 0.012690443 -0.08501464
000160 dd 1b 21 3e bb 78 00 be 5b 7a ea 3d 8f 56 21 3e
       0.15733285 -0.12546055 0.11449119 0.15755676
000170 8d 35 5e 3e b3 c8 a8 bc 38 75 d4 be 16 68 a2 be
       0.21700116 -0.020603513 -0.4149568 -0.31720036

cnn.conv0.bias f4 [8]
000000 3e 82 48 3e 22 9f ca 3d df 78 38 be d3 36 2a be
       0.19580933 0.098936334 -0.18014859 -0.16622476
000010 c4 2b 8e 3e 34 aa 34 3e 50 31 23 be 40 6b 32 3d
       0.27767766 0.17643052 -0.1593678 0.043559313

cnn.conv1.weight f4 [16, 8, 3, 1]
000000 41 ed 59 be b6 d9 f3 bc d5 cb 40 be aa 4b e9 bd
       -0.21281911 -0.029766899 -0.18827756 -0.11391385
000010 0b 02 13 3d e8 bf a6 3d 73 5f b8 bd 7e ea ea 3d
       0.03589062 0.08142072 -0.090025805 0.11470507
000020 61 d7 05 be 4e a9 3d 3e 58 3e 0f 3e 01 44 30 be
       -0.13070442 0.18521616 0.13988626 -0.17213441
000030 cd 92 1f bd 50 12 ae 3c 06 0d 2c 3d 76 c2 77 3d
       -0.03895836 0.021248966 0.042004608 0.060488187
000040 77 f2 bc 3d 4c 80 c8 3c ee d4 c7 bd 09 46 cd 3d
       0.09225934 0.02447524 -0.0975741 0.10023124
000050 bf 21 43 be c9 d8 49 be 1a f8 03 be 73 05 37 be
       -0.19055842 -0.19711603 -0.12887612 -0.17873172
000060 16 f3 f8 bd 7f e2 63 be 08 6c d4 bd c2 c7 a1 3d
       -0.1215574 -0.2225437 -0.10372168 0.07899429
000070 8d f6 c0 bd e6 0d d7 3c ca 35 14 3e de 7c b7 bc
       -0.09422026 0.026251744 0.14473644 -0.022398409
000080 13 81 b4 3b f0 41 90 bc a4 35 29 3d b8 e7 04 3e
       0.005508551 -0.017609566 0.04131092 0.12979019
000090 4b 6f 4f 3e 12 4f 0e 3e b6 18 50 3e b2 bd b6 bb
       0.20257299 0.1389735 0.20321926 -0.0055768127
0000a0 9d 1e 32 be 4a 80 b2 bd 07 5c 22 3e d3 b9 8e 3c
       -0.1739449 -0.087158754 0.15855418 0.017422592
0000b0 87 c5 ab bd 32 ee 57 be 6f be 7b be 55 61 6b be
       -0.08387285 -0.21086958 -0.24584363 -0.22986348
0000c0 1c 97 29 bd 54 42 e5 3d 54 03 e2 3d ad 96 49 be
       -0.041403875 0.11194292 0.11035791 -0.19686384
0000d0 88 62 02 3e 05 90 23 be 30 c2 30 bd 9e 81 a9 bd
       0.12732899 -0.15972908 -0.04315394 -0.08276676
0000e0 50 0b 21 bd 20 29 24 bd 20 91 3b be 7e 7a 34 be
       -0.03931743 -0.040078282 -0.1831708 -0.17624852
0000f0 d0 d4 02 bd 00 00 2d 3b 6e e8 bd bd 4c 7a 9d 3d
       -0.031941235 0.0026397705 -0.09272848 0.07689342
000100 0e 22 3c be d0 b3 61 bc aa d1 37 3e 89 84 aa bd
       -0.18372366 -0.013775781 0.17951074 -0.0832606
000110 a0 bf 3c 3e a4 65 97 3d 9d a2 3c be 96 3f 04 3e
       0.18432474 0.07392433 -0.18421407 0.12914881
000120 e2 92 32 3d 1d 78 80 bc fb 2c 7d 3e ea ff ff bd
       0.04359711 -0.015682274 0.2472419 -0.124999836
000130 73 73 6c 3d d2 6c 32 bc 7d 43 1a 3c 42 96 52 bd
       0.05772729 -0.010890203 0.0094155045 -0.05141283
000140 57 a3 97 3c 04 a3 93 3d 20 0f 49 bd b8 d5 2f bd
       0.018510504 0.07208827 -0.04908669 -0.042928427
000150 33 ca 1f be 36 40 f9 3d b4 7e 30 3e 09 b1 1f 3e
       -0.15604477 0.121704504 0.17235833 0.15594877
000160 90 9d 03 be dc a1 c0 3c 99 45 57 be 68 93 40 be
       -0.12853074 0.02351468 -0.21022643 -0.18806231
000170 bf bc 4a be 47 0e 49 3d c3 04 10 be c8 e0 b4 bc
       -0.19798563 0.04908588 -0.14064316 -0.02207984
000180 eb 44 15 3d e8 46 27 3e d6 1a f2 bd fd 80 fa bd
       0.03644268 0.16335642 -0.11821525 -0.12231634
000190 fa 8e d4 bd 46 7a 1e 3e cb 56 96 bd 26 1c 4a 3e
       -0.10378833 0.15476331 -0.07340773 0.197373
0001a0 ef 2c f4 3d 00 be d3 3c 00 2a c7 ba b4 47 25 bd
       0.11922633 0.025847435 -0.0015195012 -0.040351585
0001b0 a6 ac 14 3d 10 1d 14 bd 24 f5 10 3c fa 61 10 3d
       0.036297463 -0.03616053 0.008847509 0.035249688
0001c0 a1 54 1a be 58 35 c9 bd 4e 05 32 3e fd 59 1f be
       -0.15071346 -0.09824628 0.17384836 -0.15561672
0001d0 91 27 33 bb 83 78 7f 3e 9a 0d fb 3d b3 21 64 3d
       -0.0027336816 0.24948315 0.12258454 0.0556962
0001e0 3b 24 35 be 44 17 cf 3d 16 e2 14 be 38 56 6d bd
       -0.17689602 0.101118594 -0.1453937 -0.057943553
0001f0 e8 42 8c bd 28 a1 f7 bc c0 53 12 3b 62 67 2c 3e
       -0.06848699 -0.030228212 0.002232775 0.16836312
000200 f0 c0 d0 3c 74 38 3b 3e 60 b9 ff 3d b8 25 04 be
       0.025482625 0.18283254 0.12486529 -0.12905014
000210 d8 7e bb 3d f4 c1 13 be b3 2d b1 bd f0 e9 75 3d
       0.09155053 -0.14429456 -0.086512946 0.060037553
000220 1c 09 8a 3d a4 d0 1c 3e 62 93 86 bd 00 52 ab 39
       0.06740019 0.15313965 -0.0657108 0.00032676756
000230 58 38 d7 3d 07 25 4a be a2 1e 17 3e 8e d8 2c be
       0.105087936 -0.19740687 0.14757779 -0.16879484
000240 6f 49 ed bd 89 82 24 be af 06 73 be 9a 95 af 3d
       -0.11586272 -0.1606542 -0.23733018 0.08573456
000250 9d c4 6d 3e e3 4d f5 3b e4 07 22 bd 46 8b ab bc
       0.23219533 0.0074860915 -0.039558306 -0.020940434
000260 47 c4 2c be 1c b4 bc 3d bf c5 c8 bd 54 7d 0b be
       -0.16871749 0.09214041 -0.09803342 -0.13622028
000270 3b 1d e6 bd 26 85 fb 3d e8 a6 e8 3d 38 df 27 3e
       -0.11236044 0.122812554 0.1135996 0.16393745
000280 f6 97 a7 3d 8f 9f 75 bd 56 dd d9 bb ee a9 e1 3d
       0.08183281 -0.05996662 -0.0066486998 0.1101874
000290 2c 16 5d 3e 6a 1d 08 bd a5 6d 3f be 20 86 42 be
       0.21590489 -0.033231176 -0.1869417 -0.18996477
0002a0 24 c0 62 be 46 87 80 3c 72 11 12 be 09 e3 53 be
       -0.22143608 0.015689503 -0.14264467 -0.20692076
0002b0 0f e0 1d 3e 2c f8 20 be 51 cc 12 bd 58 61 34 3d
       0.15417503 -0.1571967 -0.035839383 0.044038147
0002c0 5f df 29 bc d9 a5 0c be 3b f5 28 be d2 9b 26 3e
       -0.010368197 -0.13735141 -0.16499798 0.16270378
0002d0 cc df 7a 3c 93 00 1b 3e 1d 0f b1 bd 84 d8 29 3d
       0.015312146 0.15136938 -0.08645461 0.04146625
0002e0 27 d0 85 bd 1b fc e2 bc 2c 3f 0a be 7f 2e 6d 3d
       -0.065338425 -0.027708104 -0.1350066 0.05790567
0002f0 40 b6 55 3d 86 41 86 bc 4c de 6a bd bb d5 0a be
       0.05217576 -0.016388666 -0.057340905 -0.13558094
000300 82 8c 10 3e 14 9a 1b be 54 42 ab 3d cc 91 8c bd
       0.141161 -0.15195495 0.083622605 -0.06863746
000310 a7 b1 c9 bd 2c 33 16 3d 35 28 d9 bd c8 a3 40 3d
       -0.098483376 0.036669895 -0.10603372 0.047031194
000320 4c 31 24 3d 8e 32 1b be 4c 35 0b 3d e0 0e b2 3d
       0.040086076 -0.15156004 0.033986375 0.086942434
000330 c4 79 a5 3d 10 7e d2 bc c6 5a 2b be 18 e3 00 bd
       0.080798656 -0.025694877 -0.16733846 -0.031466573
000340 d0 30 91 3d 18 89 98 bd b4 ae 9e 3d 9a 33 0b 3e
       0.07089388 -0.074480236 0.07748166 0.13593903
000350 95 48 da bd 40 ed 03 3b 98 dc ac 3d f0 0f 83 3c
       -0.10658375 0.0020130426 0.084405124 0.01599881
000360 dc 4b 75 bd ad 0e 81 bd 33 36 86 be 8c 1e 8e 3d
       -0.0598868 -0.06301627 -0.26213226 0.0693942
000370 f7 b6 4e 3e 94 d4 80 3e 3b f9 07 3e f7 80 a4 3c
       0.20186983 0.25162184 0.13278668 0.020081026
000380 80 4f 96 3d fa 5e cb bd 0d 37 2d be 50 be 33 be
       0.07339382 -0.09930225 -0.16915531 -0.17553067
000390 93 78 61 3e 05 00 16 3e ae bc fd bd b4 87 bd 3d
       0.22018652 0.14648445 -0.123895034 0.09254399
0003a0 a7 6b 2b 3e 34 0c 5f 3e 5f f4 4f 3e fc 36 3a 3e
       0.16740285 0.21781999 0.20308064 0.18185037
0003b0 12 34 cb bc ea e7 82 bc ef b2 64 3e 0f 90 2c 3e
       -0.024805102 -0.015979726 0.22333883 0.16851829
0003c0 b0 09 9b bd 48 6e 73 3e ee 6c 22 3e 6f eb f6 3d
       -0.07570207 0.23772538 0.15861866 0.12056624
0003d0 3e 14 fd bd b1 59 73 3d 76 1a ef bd 99 c5 15 3e
       -0.123573765 0.05941171 -0.11674969 0.14626159
0003e0 c1 66 bd bc 28 c0 a2 3d 20 82 14 3d 8c dd b1 3d
       -0.023120286 0.07946807 0.03625691 0.08684835
0003f0 14 4b 89 bd 72 ac cf 3d 83 4e 10 be 6d a1 47 3d
       -0.06703773 0.10140313 -0.1409245 0.048737932

cnn.conv1.bias f4 [16]
000000 9d a7 98 3c 7a 71 67 bd 00 cb 35 bd ae d8 5e 3d
       0.018634612 -0.056504704 -0.04438305 0.05440586
000010 df 17 e5 3d 83 70 12 be 78 85 2f 3e bc 81 2d bd
       0.11186194 -0.14300732 0.17140758 -0.042360052
000020 67 26 2f be 96 2e d1 bd 4b a7 40 3e 5f 69 3a 3e
       -0.17104493 -0.10213964 0.18813817 0.18204258
000030 38 67 3b be d2 ff 08 3e 55 b0 d7 3d db fd 52 3e
       -0.18301094 0.13378838 0.105316795 0.2060465

cnn.conv2.weight f4 [64, 16, 3, 1]
000000 45 71 04 3e 81 69 90 bd 71 9e 57 3d 09 95 85 3d
       0.12933834 -0.07051373 0.052641336 0.06522567
000010 73 de 14 bd b2 bc 60 3d 1c 19 2a bd 96 c2 b6 3d
       -0.036344957 0.054867454 -0.041527852 0.08923833
000020 74 08 24 bd fb 9b 4b bd ed dc 24 3d d3 97 5e 3d
       -0.040047124 -0.0497093 0.040249754 0.05434401
000030 c7 d2 93 bd 2e 19 2a 3c ba cf a3 3d e0 4a 6b bc
       -0.07217937 0.01038198 0.07998605 -0.014361113
000040 9c ec 33 3d 62 97 0e bd 1c b8 6d 3d 0f a2 c6 bd
       0.04392682 -0.03481234 0.05803691 -0.09698879
000050 4f 2b 9e bd 55 fa 84 bd 3b 36 0e 3e 40 14 09 bd
       -0.07723104 -0.064930595 0.13887875 -0.033466578
000060 00 9e ce b9 ef 37 8f bd 86 8c 13 3e 53 d6 18 3e
       -0.000394091 -0.0699309 0.14409074 0.14925508
000070 00 37 ce bd 85 0c df bd 1a e9 d5 bd 8d 8d 51 3b
       -0.10069084 -0.1089106 -0.10444851 0.003197524
000080 57 f3 08 bd 39 60 b4 bd f6 4a 39 bd 39 09 0b 3d
       -0.033435192 -0.088074155 -0.045237504 0.033944342
000090 28 87 54 bd 5e 8c 32 3d a1 38 a7 bc ea d5 74 bd
       -0.051886708 0.043590896 -0.020412745 -0.059774317
0000a0 0c 8f f9 3c d8 eb 04 3e 96 fd b7 bd 93 3e 6a 3c
       0.030463718 0.12980592 -0.089839146 0.014297145
0000b0 be 2e 3c bd 20 44 ed 3d f7 4c 3b be f2 ee 56 be
       -0.045943014 0.115852594 -0.18291079 -0.20989588
0000c0 3c a4 11 3e 78 06 bb bd 40 b2 e2 3c 35 f0 d2 bc
       0.14222807 -0.09132093 0.027672887 -0.025749305
0000d0 d7 02 1d bd 72 0b 04 bd 9e d6 bb 3d 20 10 e2 3b
       -0.038332786 -0.032237478 0.09171794 0.006898895
0000e0 e0 e6 0f be 74 94 d1 bd 1f ec 86 bd 02 47 6a 3d
       -0.14052916 -0.10233393 -0.06588005 0.057196625
0000f0 f2 b1 e2 bd 2c d5 f2 3d 87 a0 4c bd 04 51 d4 bc
       -0.110690966 0.118570656 -0.04995778 -0.025917538
000100 54 9f e7 3d 90 92 94 3d cc c9 be 3d 6c 6f 5d 3d
       0.11309686 0.07254517 0.093158334 0.05406134
000110 61 d5 94 bd ea 1f c4 bd 40 f3 2f bc 04 a7 f4 3d
       -0.07267261 -0.095763996 -0.010739148 0.11945918
000120 b0 6b 46 bd 1b 11 09 be 38 5a 72 3d 41 61 f6 3d
       -0.048442543 -0.13385431 0.05916807 0.120302685
000130 5d fe 79 bd 9e bc 0e be 13 fd 17 be 96 f4 9b 3c
       -0.061033595 -0.13939139 -0.14842634 0.019037526
000140 0c 82 e4 bc 0e f1 bf bd 6c 63 08 3c 1f 4b 0b 3d
       -0.027894042 -0.093721494 0.008324485 0.034007188
000150 05 21 dd 3d d8 21 c2 3d 68 6d 47 bd 91 b4 11 be
       0.107973136 0.094791114 -0.048688322 -0.14229037
000160 2b 98 05 be 3a 00 0a 3e ea a9 0c 3d f3 03 09 3d
       -0.13046329 0.13476649 0.03434173 0.033451032
000170 64 d2 1e be 83 c1 ed 3d 18 d5 f3 3d 9e 23 e6 3d
       -0.15509945 0.11609175 0.11905879 0.11237262
000180 6e e5 11 be 05 e1 9a bd 7f c3 f4 bd e1 2d f9 3d
       -0.14247677 -0.0756245 -0.119513504 0.12166954
000190 cb 53 a4 bd 77 61 b1 bd d2 de 9a 3d 6d be 88 bd
       -0.08023795 -0.08661168 0.07562031 -0.06676946
0001a0 58 97 91 bd 01 7b e6 bc f1 5e 11 bd 10 d6 0e be
       -0.07108945 -0.028134825 -0.035490934 -0.13948846
0001b0 c8 d9 03 3e 29 09 2b bd 6d 82 b0 3d 34 8e 00 3e
       0.12876046 -0.041756783 0.08618627 0.12554246
0001c0 e0 13 95 3d e8 67 a7 3c 30 83 e9 3d 09 42 00 3c
       0.072791815 0.020435289 0.11401975 0.007828244
0001d0 56 bc a5 bd 6f 9b f6 3d 6c 74 83 3c 04 31 23 be
       -0.08092563 0.12041365 0.016046725 -0.15936667
0001e0 c2 4f 28 bd fa 5a c9 bd e6 95 01 3e 5c 7d aa bc
       -0.041091688 -0.098318055 0.12654838 -0.02081173
0001f0 e4 4b 08 be 4f d4 79 bc 7f dd af 3d 29 79 37 3d
       -0.133102 -0.015248372 0.08587169 0.04479328
000200 fd df 8d 3d c2 7d bd 3b cf 4b 3a 3d 01 4f 36 bd
       0.06927488 0.0057828138 0.045482453 -0.044508938
000210 f6 e9 5d 3d fb 16 8e bd 2d 11 86 bd 4a 3c 43 3d
       0.0541782 -0.06937977 -0.06546245 0.047664918
000220 fb 1b ce bd af d2 a1 3b 33 3f 12 3d 7d 1c 91 bb
       -0.100639306 0.0049384455 0.035704803 -0.004428445
000230 9e 07 e3 bd 27 cf 28 3e 95 0d 39 bd 50 e1 2e 3e
       -0.11085437 0.16485272 -0.04517897 0.17078137
000240 f6 d2 fd bd 0e d1 33 bd 10 59 8e 3d 9d 79 8e bd
       -0.12393753 -0.043900542 0.06950581 -0.0695679
000250 3f f4 e2 3d 9a 58 e0 bd 40 3d f8 bd 0f 4b 85 bd
       0.110817425 -0.109543994 -0.121210575 -0.06508457
000260 38 23 bf 3c a6 1f f5 3d e5 75 a8 bd 9e 7f 1c 3d
       0.023332223 0.11968927 -0.082256116 0.038207643
000270 62 fe 4e bd d4 f7 3c bd bc f9 b9 3d a2 16 e5 bd
       -0.050535567 -0.046134785 0.09080836 -0.111859575
000280 10 2d 7b 3c 7a fe 0a 3e be b6 02 bd 70 14 cd 3d
       0.015330568 0.13573638 -0.031912558 0.10013664
000290 45 c9 66 bd f9 22 da 3d 9f 85 18 be b7 9b f9 bc
       -0.05634429 0.10651202 -0.14894722 -0.030469758
0002a0 c8 af cf bc e8 99 3f 3d 54 f2 67 3d fc 4f c8 3d
       -0.025352374 0.046777636 0.056627586 0.09780881
0002b0 36 89 0c bd ae d1 97 bc 87 4e aa 3d 82 7a 66 bd
       -0.034310542 -0.0185326 0.08315759 -0.056269176
0002c0 03 7d dc 3d 5e ba dd bd 46 6d e2 bc 74 e8 a1 bc
       0.107660316 -0.10826562 -0.027639996 -0.019764163
0002d0 60 67 48 3d 3d 95 ae 3d 11 20 10 bd b4 b9 05 be
       0.04892671 0.08524559 -0.03518683 -0.13059121
0002e0 5e 25 78 3d 03 57 04 3d 9c 78 3d 3d 96 7c ce bd
       0.06058251 0.032309543 0.0462576 -0.10082357
0002f0 65 f2 a5 3d 8c b4 97 3d fa fc cc bd 46 21 a3 be
       0.08102874 0.074074835 -0.10009189 -0.31861323
000300 b4 82 cf 3d eb 2c db bd e4 e6 07 3d 60 d3 ab 3c
       0.101323515 -0.10701927 0.03317918 0.020974815
000310 69 5a 8a bd 04 db 4d 3d da 32 04 be 24 a7 06 3d
       -0.067555256 0.050257698 -0.12910023 0.03287424
000320 e4 65 bb bd a0 b7 7f bc a8 17 98 3c 70 d6 fb 3d
       -0.091502935 -0.015607744 0.018565968 0.1229676
000330 d1 09 8d bd ca 5f bd 3d e0 34 96 bc e6 63 8c bd
       -0.06886638 0.09246786 -0.01833576 -0.068549916
000340 a5 b4 00 be 5a 9c 07 be 3e 58 10 3e 5a 72 13 bd
       -0.1256891 -0.13243237 0.14096162 -0.035997726
000350 a0 3d ec 3b 8c 48 20 3d 5c ee c8 3d 30 4a fc 3d
       0.0072094947 0.039131686 0.098110884 0.12318838
000360 48 bd ef 3d ec 01 db bd 48 71 bd bc 6c eb ae bd
       0.117060244 -0.10693726 -0.023125306 -0.08540997
000370 bc e4 a8 bd 08 3d 0c 3d d6 bb 0a 3e 1a cf ec bd
       -0.082467526 0.03423789 0.13548216 -0.11562939
000380 84 e6 b2 3d af 42 99 bd c0 4d e6 bc 2c a4 ea 3d
       0.087353736 -0.07483422 -0.028113246 0.114570946
000390 a0 b6 05 bd c0 54 57 3c e8 a2 ce bd 30 a1 fb 3d
       -0.032644868 0.013142765 -0.10089666 0.122866035
0003a0 b0 d9 98 bc 93 33 d8 bd 84 1c 2d 3d da 2d d2 bd
       -0.018658489 -0.10556712 0.042263523 -0.10262652
0003b0 3c 90 ea bd 30 10 10 3c 00 5e ea 3d 52 4d 27 bd
       -0.11453292 0.008792922 0.1144371 -0.040845223
0003c0 92 c5 9f 3d 2f 13 0a 3e ea 72 da 3d 76 91 88 bd
       0.078013554 0.1348388 0.10666449 -0.066683695
0003d0 50 01 d3 bb bd 3b 12 bd 90 b3 ed bd 00 20 7a 38
       -0.0064393654 -0.035701502 -0.116065145 5.9634447e-05
0003e0 1c 6c de 3d 60 ac 04 3e ad ad ae 3c fc 61 23 3d
       0.10860464 0.12956381 0.02132305 0.039888367
0003f0 9e 2d 75 bd ca 3d e2 3d b5 90 79 bd 78 57 cd bd
       -0.059857957 0.110469416 -0.06092902 -0.10026449

cnn.conv2.bias f4 [64]
000000 a4 af 18 3e ff 94 15 be db 7e e9 3d 03 83 d4 3c
       0.14910752 -0.14607619 0.11401149 0.025941378
000010 ca b6 06 be f4 5b 0c 3e bc dc 4b bd 25 b1 49 bd
       -0.13155666 0.13706952 -0.049771056 -0.049241204
000020 e2 0d 01 be ee 08 fa bd 01 60 e1 3d 02 2e 11 be
       -0.12602952 -0.122087345 0.110046394 -0.14177707
000030 34 f1 72 3d 44 f2 1f bd 48 7b 4f 3d 7e 50 13 bd
       0.05931206 -0.039049402 0.05065468 -0.035965435
000040 e1 a6 83 3d e5 29 90 3b a9 5b d6 3d 40 87 70 bd
       0.06428314 0.0043995255 0.104667015 -0.058722734
000050 5e 54 cb bd 2d a3 fc 3a 2e 33 cb bd 58 3f b7 bd
       -0.09928201 0.0019274704 -0.09921871 -0.08947629
000060 11 1f 0e be 15 67 d7 bb 8c ae d9 bd 44 93 00 3e
       -0.13879038 -0.0065735676 -0.10628995 0.12556177
000070 ed 9f e2 3d 3e 1a 65 3d 2e 02 de 3d 28 8f 5a 3d
       0.1106566 0.05593323 0.108402595 0.05335918
000080 85 3b 0b be f0 9c 6c bc 98 ee bf bc c0 7a b3 bd
       -0.13596924 -0.014441714 -0.0234292 -0.08763647
000090 aa 6c 3f 3d 5f dc e3 3c ec 59 8d bd 6b 92 49 3c
       0.04673449 0.027815042 -0.06901917 0.012302975
0000a0 6c 82 dc bd cc b4 f6 3d 5d 7b d6 3d 04 01 16 3e
       -0.107670635 0.12046203 0.104727484 0.14648825
0000b0 4a 81 15 bd 69 1d 76 3d 80 3c be bb 11 9b f4 bd
       -0.036500253 0.06008664 -0.005805552 -0.11943639
0000c0 2b 2b 01 3e ed fa db bd 56 0b 83 bd aa ce 11 bb
       0.12614124 -0.1074122 -0.063986465 -0.0022248426
0000d0 d5 30 10 be 74 92 63 3c 6c f2 2a bc b0 cf 2f bc
       -0.14081128 0.013889898 -0.010433774 -0.010730669
0000e0 85 04 ce 3d 80 c6 e2 3b b1 b2 2b bd 19 3c a1 bd
       0.10059456 0.0069206357 -0.04191846 -0.07872791
0000f0 aa 57 c4 bd c0 1a a8 bc a9 7d ad bd 64 00 c3 bd
       -0.09587033 -0.020520568 -0.084712334 -0.09521559

rnn.0.rnn.weight_ih_l0 f4 [256, 64]
000000 bb ca 40 bc 66 32 a7 bc 7b 05 48 bd de e4 97 3d
       -0.011767085 -0.020409774 -0.04883335 0.074167
000010 92 1b d9 3d 9d f5 a2 bd 53 45 60 3d b8 45 6a bd
       0.10600962 -0.07957003 0.054753613 -0.057195395
000020 75 61 fa bd 26 fa ee 3d b2 91 12 3e da 16 f4 bd
       -0.1222562 0.11668806 0.14313391 -0.11918421
000030 82 56 eb 3d 09 51 7e bb 1a 30 80 bd ae eb 81 bd
       0.114911094 -0.0038805625 -0.06259175 -0.063437805
000040 4e 32 e7 3d 5a 21 08 3c 10 2c 0b 3e 1a 40 a8 3d
       0.11288892 0.008308733 0.13591027 0.082153514
000050 2c b9 46 bd ea 48 e7 3c 28 ed 97 bd 14 c6 d5 3d
       -0.048516437 0.02823301 -0.07418281 0.10438171
000060 0e 5f 87 bd 23 51 13 3e 77 ba 01 3d 6d 24 a5 3d
       -0.06609927 0.1438642 0.031671967 0.08063588
000070 ef 1f ac bd 2c ee af bd a9 88 96 3d da cf c4 3b
       -0.08404528 -0.085903496 0.073502846 0.006006223
000080 80 15 eb ba 00 80 79 3d ba 55 bf bd f8 4c cd bc
       -0.0017935485 0.060913086 -0.09342523 -0.025061116
000090 f0 06 80 3d ac 69 0f 3e b0 c4 ed 3d 2e 66 b6 bc
       0.06251323 0.14005154 0.11609781 -0.02226552
0000a0 f7 45 4d be 20 fa 61 bd 54 52 54 bc 73 55 6e bd
       -0.2004622 -0.05517018 -0.012959082 -0.05818696
0000b0 10 0e d4 3d 32 99 c7 3b c8 49 50 3d d2 cf 8c 3d
       0.10354245 0.0060912604 0.050851613 0.06875576
0000c0 54 42 b9 bd 40 b1 d3 bc 7e e5 29 3b 71 f2 ea bd
       -0.09045854 -0.025841355 0.0025924142 -0.11472023
0000d0 f8 fb a4 3c 5f 97 b3 bc 53 31 d9 bd d4 82 ee 3d
       0.02013968 -0.021922765 -0.10605111 0.11646047
0000e0 4d 7a 04 bc 4c 88 7f bd ff 0f e6 bd b4 c9 eb bd
       -0.008085799 -0.062385842 -0.1123352 -0.11513081
0000f0 80 d3 42 3d f4 ba 69 bd 94 2b 5d bd 88 20 94 bd
       0.047564983 -0.057063058 -0.053996637 -0.07232767
000100 01 49 e8 3d 8b 44 fe bc 5f 1b 02 3e ad 1e e4 3d
       0.113420494 -0.031038543 0.12705754 0.111386634
000110 2c 7a c6 bd 7e 20 2f 3e ef 9a c3 bc 8c 1e 25 3e
       -0.09691271 0.17102239 -0.023877589 0.16124934
000120 5c bd 9c 3e 98 fb f7 bd e7 9f 37 3e 2c fb 33 3d
       0.3061322 -0.121085346 0.17932092 0.043940708
000130 50 bd 39 bd c8 35 c2 3d 02 00 d4 bd 13 f2 9b 3d
       -0.045346558 0.09482914 -0.10351564 0.07614531
000140 6a 8c 6f 3e f5 9a 32 3e 52 62 36 3e 78 d1 98 bd
       0.23393407 0.17441924 0.17810944 -0.07461828
000150 42 43 dc bd da 6b ea bd cc 58 1a bd e4 05 91 3d
       -0.10755016 -0.11446352 -0.03768234 0.07081202
000160 6c 19 22 3d c4 36 c2 3d bb 3b e6 3d 50 d0 5c 3e
       0.039575025 0.09483102 0.112418614 0.2156384
000170 94 14 21 bd 38 b9 d0 3d ac fa 86 3a 58 21 67 3c
       -0.039326265 0.10191578 0.0010298095 0.014107071
000180 00 94 6a ba 24 aa 45 3d 6c a0 b0 3d c0 a3 b8 bc
       -0.00089484453 0.048257962 0.08624348 -0.02253902
000190 40 1d d6 3d b1 b2 03 3e 44 88 44 3d c9 ad ed 3d
       0.10454798 0.12861134 0.047981516 0.116054125
0001a0 f6 b9 40 3e 1d 6e 20 bb 2f 11 0c 3e 3f 35 67 bc
       0.18820938 -0.0024479695 0.1367843 -0.014111816
0001b0 1f ab e2 3d 59 56 29 3c fc 9f af 3d 40 6f 4d 3d
       0.11067795 0.010335528 0.085754365 0.050154924
0001c0 a9 ad 1d 3e f2 1f 91 3e 8b ca 52 bd 0a b9 a3 3e
       0.15398277 0.28344685 -0.05146269 0.3197711
0001d0 b8 be 16 3d 42 5b 4d 3d 61 8a ae 3c c0 a0 22 bb
       0.036802977 0.05013586 0.021306219 -0.0024815053
0001e0 9a 4e 84 3c 2c d3 8e 3d 65 d9 12 3d 38 f9 3e 3d
       0.016150761 0.069738716 0.035851855 0.046624392
0001f0 2b 5f ac 3d be f1 85 bd 10 ea ed bc 00 7f 69 bb
       0.08416589 -0.06540249 -0.029042274 -0.0035628676
000200 13 16 c9 3d 84 26 d2 bd 03 20 90 bd a9 dd 05 bd
       0.098186634 -0.102612525 -0.07037356 -0.032682095
000210 e8 ac da bd a8 d4 a4 bd 8d 5d af 3d c2 b7 c7 3c
       -0.106775105 -0.080483735 0.08562765 0.024379615
000220 6f b3 79 3d f8 14 a9 bc c9 52 4e bd 34 06 36 bd
       0.060962137 -0.020639881 -0.05037192 -0.04443951
000230 7e 21 d6 bd 95 96 9a 3d a0 f3 7c bc f0 92 16 3e
       -0.10455607 0.075482525 -0.015438944 0.1470449
000240 67 af 98 bd 12 12 49 bd 1e 16 dd 3b b4 45 b2 bd
       -0.0745533 -0.0490895 0.0067470213 -0.08704701
000250 d6 90 ba 3d a4 32 b7 3d 7f 52 db 3d 5c 9a a1 bd
       0.091096565 0.08945206 0.10709094 -0.0789077
000260 e6 24 b6 3d 44 d2 00 3e d7 b9 4b bd 06 f2 3a 3d
       0.088937566 0.1258021 -0.049737778 0.045640968
000270 17 ad 85 3d 0b cd 82 3e f3 85 01 be 0d ba e8 3d
       0.06527155 0.2554706 -0.12648754 0.11363611
000280 64 ba 00 bd a0 9c 50 3d b0 ff 9e bd ca 00 c5 bd
       -0.031427756 0.05093062 -0.07763612 -0.09619291
000290 dc c5 84 bd 49 e4 a5 3d 70 8d 7c bd 9b ef d2 3d
       -0.06483051 0.081001826 -0.061658323 0.10299607
0002a0 d1 58 a9 3e ab d8 93 3d 8a ea 2f bc 35 01 7c bc
       0.33075574 0.072190605 -0.010737071 -0.015381147
0002b0 2d d6 29 bd 15 35 3e bd 3e 0a ec 3d 00 9a de bb
       -0.04146402 -0.04643734 0.11525391 -0.0067932606
0002c0 8f 18 42 3e 09 dc 51 3d 2d ab 75 bb ab 7b af 3c
       0.18954681 0.051235233 -0.0037486062 0.021421274
0002d0 80 ed c0 ba ac 27 bc 3d 47 25 95 bd 18 a8 8c 3d
       -0.0014719218 0.09187254 -0.07282501 0.06867999
0002e0 7d 6a 4c bc 6a e4 c4 bd c1 cf 03 be e0 59 7e 3d
       -0.012476561 -0.09613879 -0.1287222 0.06209743
0002f0 8c e7 c3 bd 6c ff 79 3d 78 9d 92 3c 72 22 8b 3d
       -0.095656484 0.061034605 0.017897353 0.06793679
000300 ef 5c b4 bd e8 37 e1 3d de 06 91 bd 9d f8 c2 bd
       -0.08806788 0.109969914 -0.07081388 -0.095200755
000310 22 85 99 3d 72 14 47 3c 4c c6 8f bd e8 8b e5 bc
       0.07496096 0.012150871 -0.07020244 -0.028020814
000320 3e 43 4f be 92 cc de bd a2 04 bf 3d 4a 4a c3 3d
       -0.20240495 -0.108788624 0.093270555 0.09535654
000330 00 e8 18 3d 06 c8 d0 3c cc b1 07 bd b9 7d f1 3d
       0.037330627 0.025486004 -0.033128545 0.11791558
000340 56 d8 3a 3c 2d c7 47 3d 1a ac 84 3d 80 ca 9f 3c
       0.011404118 0.048773933 0.06478138 0.01950574
000350 34 bc 2a 3d 65 60 e7 3d 3c 7e a0 3d d8 0c 83 3c
       0.04168339 0.11297683 0.07836577 0.015997335
000360 94 b2 4c 3d 82 31 d6 3c ae fc ae 3d 3f a7 24 3d
       0.049974993 0.026146654 0.085442886 0.04019856
000370 e3 44 c8 3d ad 7c ae bd 9b b0 bb bd 99 86 08 3d
       0.09778764 -0.08519874 -0.09164544 0.033331487
000380 40 3d 50 3d 74 da ce 3d 5c 72 46 3d f8 2b 3d 3d
       0.050839663 0.101002604 0.048448905 0.04618451
000390 a9 3b d4 3d ad f3 ba 3c 90 07 e2 3d ae b9 81 3d
       0.10362942 0.022821272 0.11036599 0.06334244
0003a0 f1 cb f5 bd 59 54 c3 3d 22 ad b2 bd 09 7c 8d 3d
       -0.12001789 0.095375724 -0.08724429 0.069084235
0003b0 ef e9 03 3e 2d 3b a5 bd 10 87 2f bc 34 3c 9c bd
       0.12882207 -0.080679275 -0.010713354 -0.0762867
0003c0 6e cd 18 be 23 ad 20 bd d8 6d 9f 3d 66 31 2b bd
       -0.14922115 -0.039227616 0.07784623 -0.041795157
0003d0 80 69 f2 bd 7d 6a 95 3d f5 9c 8c 3d 60 a3 b9 bc
       -0.11836529 0.07295702 0.06865875 -0.022660911
0003e0 5e 37 e2 3d 5e 59 c5 3d 00 60 ad bc 20 2c 9e 3b
       0.11045717 0.09636186 -0.02116394 0.0048270375
0003f0 97 da b3 3c 70 a9 c8 bc c0 46 fc bc dc 1d 67 bd
       0.021954818 -0.024494857 -0.030795455 -0.05642496

rnn.0.rnn.weight_hh_l0 f4 [256, 64]
000000 de aa 89 bc c5 d3 98 bd 6f af d4 bb d0 1c d7 3d
       -0.016805109 -0.07462267 -0.00649064 0.105035424
000010 56 cb 9c 3d 25 b4 0c bc 4d c7 a6 bd 8c 92 43 bd
       0.07655971 -0.008587872 -0.08143482 -0.04774718
000020 51 a5 b7 bb ab 00 5e bd bf 8b 52 bd 41 f2 9a 3d
       -0.005604424 -0.054199856 -0.051402804 0.075657375
000030 f1 0e e1 bd 16 9c 3d bc 02 ea cc 3d 39 c9 36 3d
       -0.10989178 -0.011572858 0.10005571 0.044625495
000040 c1 77 35 bc 48 cc b9 3d 86 61 98 bd e3 b8 3e 3d
       -0.011075915 0.09072167 -0.07440476 0.04656304
000050 51 26 ff 3d a2 12 6d bc 42 28 f2 bd 42 74 c1 bd
       0.1245848 -0.014469774 -0.11824085 -0.094460025
000060 8d c9 e4 bd 44 00 8b bd ab 3f 2d 3d 79 e0 7b bd
       -0.11171255 -0.0678716 0.042297047 -0.06149337
000070 85 86 04 3c 02 f5 ea bd 62 d0 0e bd fe 80 50 3d
       0.008088713 -0.11472513 -0.034866698 0.050904267
000080 57 15 5a 3d ee 16 d8 3d 60 f7 70 3d 6c c8 c6 bd
       0.053243008 0.105512485 0.058829665 -0.09706196
000090 f5 fd 9f 3d 8d 9e bf bd 64 4d 04 3c e1 b8 6f 3d
       0.0781211 -0.09356413 0.008075092 0.058525924
0000a0 25 7a f4 3d 9e 7a 87 3c 0b 7b 44 3d 91 ec 9d 3d
       0.1193736 0.01653796 0.047968905 0.07711137
0000b0 2d b0 f7 3d 64 4b b9 3d fa 2d 43 bd 2b e1 12 3d
       0.1209415 0.09047583 -0.04765127 0.03585927
0000c0 3f 7a e2 bd c8 9d 11 bd 35 38 18 3c 08 a1 8f 3d
       -0.11058473 -0.035550863 0.009290745 0.07013136
0000d0 1c 0a a7 3d 79 f2 88 3c 70 b4 4d bd de cd c0 3d
       0.08156225 0.016717182 -0.050220907 0.09414266
0000e0 f6 82 be 3d 90 ea 4b bd f7 19 ac bc 11 0b c4 bc
       0.093023226 -0.049784243 -0.021008475 -0.023931058
0000f0 8f ca 56 3d e8 65 a9 bd 81 12 ae bd 4b 79 8f bd
       0.05243927 -0.0827139 -0.08499623 -0.07005557
000100 52 d7 b7 3d b4 51 66 3c ae 77 22 3e 9b c8 c3 3c
       0.08976616 0.0140575655 0.15865967 0.023899367
000110 4b 73 4b 3e 84 12 d9 bc c6 14 a1 3c e5 41 aa 3d
       0.198682 -0.026498087 0.019663226 0.0831335
000120 56 c1 8e bd 53 0d a1 3d 51 15 23 be c1 b6 07 bc
       -0.0697047 0.078638695 -0.159261 -0.008283318
000130 e2 04 12 bd fd 06 8a 3d 68 b8 cb 3d eb a4 45 bd
       -0.035649188 0.06739614 0.09947282 -0.04825298
000140 24 33 2a 3e 16 b7 d4 bc 99 c6 7f bd 28 6b 07 be
       0.16621071 -0.025966208 -0.062445257 -0.1322447
000150 ab b2 c9 3d 20 f0 c2 3d b2 9b 1a bd 84 ac 31 3c
       0.09848531 0.095184565 -0.03774614 0.010844354
000160 e3 65 62 3d 79 46 5e 3d c7 97 52 3c 3a fa 83 bd
       0.055272948 0.054266427 0.012853569 -0.06444211
000170 3b 67 6f 3d 74 c6 44 bc 22 68 08 be 11 e2 96 3a
       0.058448058 -0.012010206 -0.13320974 0.0011511465
000180 5b 71 30 3c b2 31 78 3d b5 91 0c 3e 5a f1 68 bd
       0.010769214 0.06059427 0.13727458 -0.056870796
000190 22 1c b6 bd 89 b6 d4 ba 40 6c b8 3c e1 69 f2 3d
       -0.08892085 -0.0016228716 0.022512555 0.11836601
0001a0 79 2e e6 3c 21 0a 22 be 20 8b 06 3d 2d 06 58 3d
       0.028098332 -0.15824176 0.032847524 0.052740265
0001b0 18 96 ad bd 71 14 25 3d dd 59 e3 ba 07 fd b0 bd
       -0.08475894 0.040302698 -0.0017345507 -0.08642011
0001c0 1e 73 f6 bc 14 10 27 3d 11 07 c7 3d 87 eb 9f 3d
       -0.030084189 0.040786818 0.09718145 0.07808595
0001d0 39 4e 78 3d ef 67 ad 3c 47 44 a4 3d 49 e0 e2 3d
       0.060621474 0.021167723 0.08020835 0.11077935
0001e0 ae b6 6c bd 6f 9c a5 bd cf 94 9f bd 7e 6e 2b 3c
       -0.057791404 -0.08086478 -0.07792055 0.010463355
0001f0 a8 92 21 bd 7a 19 8b 3d ad 55 2f bd 1d 50 2f 3e
       -0.039446503 0.06791969 -0.042806316 0.17120405
000200 3b 35 d8 bd e2 fc 78 bb b4 c4 82 3b 11 39 8b bc
       -0.10557028 -0.0037992527 0.003990734 -0.016994985
000210 96 98 01 bc b3 11 a2 bd f6 fa 10 bd ce a3 bd bd
       -0.0079099145 -0.07913532 -0.035395585 -0.09259759
000220 bb 05 d6 bd 16 3f 0d be 1b 5d ec 3d 2c c4 fc 3c
       -0.10450312 -0.13793597 0.11541196 0.03085526
000230 c9 07 f3 3d 34 7a 5a 3b 37 d9 56 bd 62 bf 18 bd
       0.11866719 0.0033337 -0.052453246 -0.037291892
000240 00 ad 06 be fc 20 02 3e c2 56 9f 3d 29 56 9e bd
       -0.13151932 0.12707895 0.077802196 -0.077312775
000250 63 7b 23 3d c3 72 b5 3d 05 33 82 bd e4 27 83 bd
       0.039912593 0.0885978 -0.063573875 -0.06404093
000260 55 62 93 bd fb 69 e5 bd 88 91 d7 3d 37 bd 55 3c
       -0.0719649 -0.11201855 0.10525805 0.013045601
000270 41 08 e7 bc ed ce 5b 3d e5 4f b9 bd 80 2a b8 3d
       -0.028202178 0.053664137 -0.09048442 0.08992481
000280 b5 01 d9 bd 61 90 be 3d 39 7d b0 bd 95 6a 8f 3d
       -0.10596029 0.09304882 -0.08617634 0.07002751
000290 0e f1 4e 3c b4 36 e3 bd f3 e9 b1 3d c6 62 56 3d
       0.012630714 -0.11094418 0.086872004 0.05234029
0002a0 92 e3 76 3d 9f 92 8e 3d d0 a1 bb bd e6 68 e6 3c
       0.06027562 0.069615595 -0.09161723 0.028126191
0002b0 1b 5d 6e 3d 08 e1 c6 3d 5e e4 e3 bd 5d d7 fe 3b
       0.05819426 0.0971089 -0.11127542 0.007777138
0002c0 9e d5 a8 3d bb 64 9d bd 37 ed 9f bd 04 19 03 3e
       0.08243869 -0.076852284 -0.07808917 0.12802511
0002d0 7c b4 a1 3c ca 13 25 bd 9a 5c c3 bd 35 61 95 3b
       0.019739382 -0.040302075 -0.09539147 0.004558707
0002e0 63 4f e4 3c 3e 9c df 3d c5 98 03 bd 91 60 71 3d
       0.027869886 0.10918473 -0.032128114 0.058929984
0002f0 6b ae 9d 3d e7 c8 20 3d 16 8e 2b bd 0f 57 c7 3c
       0.07699283 0.039254095 -0.04188355 0.024333505
000300 4e 69 99 bc d9 85 70 bd f2 fe 7a bd 33 c8 11 bd
       -0.018726971 -0.058721397 -0.06127829 -0.035591315
000310 f5 58 13 bd f1 c7 c7 bb 05 a9 c4 3d 1c c2 72 3d
       -0.035973508 -0.006096833 0.096025504 0.05926715
000320 16 44 0f 3d e1 00 5e 3d 11 04 e2 3d 8e 73 a5 bd
       0.03497704 0.054200057 0.11035932 -0.08078681
000330 7d d1 81 bc ad 20 b5 bd 3a cf 72 bd a6 df 5e 3d
       -0.015846962 -0.08844123 -0.059279658 0.054412507
000340 a4 f8 d7 3d 22 77 21 3d ce fa f2 bc 07 eb 56 bc
       0.10545471 0.039420255 -0.029660609 -0.013117558
000350 76 b0 a2 bd 12 0e 54 3c fc 21 d0 bd 6c 63 cb 3d
       -0.079438135 0.012942808 -0.10162732 0.099310726
000360 33 5d 18 bc 3e 7a 0e 3c 59 90 79 bd 14 b9 68 bd
       -0.009299564 0.008696137 -0.060928676 -0.05681713
000370 a7 08 35 3d b8 5a 03 3d 80 2d 42 3d 2a e4 ad 3d
       0.044197705 0.032068938 0.047406673 0.084907845
000380 a4 8e a8 bd d7 fd e8 3d 7b 33 14 3c 4f 49 e2 bd
       -0.082303315 0.11376541 0.009045477 -0.11049139
000390 90 3f 97 3d b9 c8 9c bd 9b 6a fb 3d 26 d7 86 bd
       0.073851705 -0.07655472 0.12276193 -0.06584005
0003a0 70 a6 0a bd 35 84 4a 3d 48 57 ee 3d be e0 a9 bd
       -0.033850133 0.04944249 0.11637741 -0.08294819
0003b0 49 0a 48 3d 2b 35 d1 bd b9 38 d3 3d d4 cc 15 bc
       0.048837934 -0.10215219 0.10313553 -0.009143073
0003c0 68 4d 98 3d 6e 98 a3 bd 63 ef 8d 3b 35 26 c7 3d
       0.07436639 -0.07988058 0.0043315156 0.09724084
0003d0 cf 70 96 3d 38 22 b7 3d 04 c9 60 3d d4 d5 c3 bc
       0.07345735 0.089420736 0.054879203 -0.023905672
0003e0 a0 58 da bd 45 93 29 3c de 54 16 be d5 ba 00 be
       -0.10661435 0.010350053 -0.14680812 -0.12571271
0003f0 71 dd 4e 3d 76 be b9 3d 78 4f 98 3c d8 99 12 be
       0.05050415 0.09069531 0.018592581 -0.14316499

rnn.0.rnn.bias_ih_l0 f4 [256]
000000 53 8d e8 bd d0 33 af 3d fb 3c a5 bd a4 de 00 3d
       -0.113550805 0.08554804 -0.08068272 0.031462327
000010 c9 c5 72 bd 5f 04 80 3d ea 1c 37 bd 52 c1 ad 3c
       -0.059270654 0.06250834 -0.04470531 0.021210346
000020 42 6a 07 3e e9 98 38 3d 20 e6 ad 3d ad 8b d3 3c
       0.13224128 0.0450677 0.084911585 0.025823439
000030 6c a9 c4 bd 7e 80 22 bc c1 b5 b5 3c ab ec 39 bc
       -0.09602627 -0.00991833 0.022181394 -0.01134793
000040 b9 84 84 3d 7d a1 94 3d e4 26 0a bd 86 e9 6a 3d
       0.06470627 0.07257364 -0.033728495 0.05735161
000050 93 d4 16 bc 7f 60 f2 bc 6b e5 70 3d 28 82 8e bd
       -0.009205955 -0.029587029 0.05881254 -0.06958419
000060 52 09 24 3d 80 f1 10 3d 25 e0 88 3d 3d 35 cb bc
       0.04004795 0.035386562 0.06683377 -0.02480566
000070 80 83 4c 3d 5f d0 a1 bd be 31 ce bd fc 43 d1 bd
       0.049930096 -0.07901072 -0.10068081 -0.10218045
000080 71 75 47 bd 72 a0 27 bd 52 4f 74 3b 6e a4 6b 3d
       -0.048695985 -0.040924497 0.0037278724 0.05752986
000090 87 54 f4 3d 09 4b b1 bc 79 7a c2 bc eb 74 d4 3d
       0.11930185 -0.021642225 -0.02374004 0.10373863
0000a0 2f e0 fc 3d a9 44 4d 3c 6b 7d 82 bc 39 0a 93 3d
       0.12347447 0.012528577 -0.015928945 0.07179684
0000b0 d2 63 c7 bc e2 58 eb bd 42 6c 8c bd 7d 85 40 3d
       -0.02433959 -0.114915624 -0.06856586 0.047002304
0000c0 8e fd ef 3d b9 61 87 3d 45 b4 d7 bc 95 12 d2 3d
       0.117182836 0.06610436 -0.026331076 0.102574505
0000d0 79 44 de 3c a5 03 be bd bb 69 49 3c 9d 26 af bd
       0.02713226 -0.09278039 0.0122932745 -0.08552287
0000e0 d4 d3 d5 3d 48 aa c0 3d 79 23 d8 bc fa 92 56 3d
       0.10440794 0.094074786 -0.026384102 0.05238626
0000f0 2d 71 2e 3d 46 12 74 bc c1 7b 8b bc 2c 32 95 3d
       0.0425884 -0.014896935 -0.017026784 0.0728496
000100 1d 8e 7b 3d e9 8f de 3d 9c 53 03 be ff e0 e6 3d
       0.061414827 0.108672924 -0.12824863 0.11273383
000110 a9 ff 94 bd 28 45 14 bc 9a e3 c5 bc 00 73 df bb
       -0.07275326 -0.009049691 -0.02415638 -0.006819129
000120 b4 f0 b2 bc 35 fa 10 bd 04 cf 22 3c f1 f9 dd bd
       -0.021843292 -0.035394866 0.009937052 -0.10838688
000130 00 0f c3 3d f0 28 b4 3b ef f9 6a bd 7c 8c e5 3d
       0.095243454 0.005498044 -0.05736726 0.11208436
000140 01 b8 aa bd c2 c6 eb 3d 68 01 13 bc b5 36 af 3d
       -0.08335877 0.115125194 -0.008972503 0.085553564
000150 de 9b 56 bd 41 37 fc bc d5 0a dc bd 6a 93 8c 3d
       -0.05239474 -0.030788066 -0.107442535 0.068640545
000160 ae 6c 2e bd 66 ee bc 3d e4 af 88 bd 58 43 86 bd
       -0.042584114 0.092251584 -0.066741735 -0.065558136
000170 c6 eb 63 3c 8f 9f 28 bc ad 27 53 bd b7 be b5 3d
       0.013911193 -0.010291948 -0.05155151 0.088742666
000180 3e b7 a4 3d 88 bb dc bd 5b f3 92 bd 25 62 dc bd
       0.08042763 -0.10777956 -0.071753226 -0.10760907
000190 4f b9 a3 3d 9e 7e 87 3d c8 1d 8e 3d c7 64 cb bd
       0.07994329 0.06615947 0.06939274 -0.09931331
0001a0 09 95 2a 3d 8b e9 d6 bd 4f e6 fd 3d 62 fb e4 3d
       0.041646037 -0.104937635 0.123974435 0.1118076
0001b0 8f 6d b7 bd f6 1e cd bc 1a 92 a5 bc 1f c1 80 3d
       -0.089564435 -0.025039177 -0.020211268 0.06286835
0001c0 ef 4e 2f bd 82 a6 ad bd 0e ce e4 bc 17 e4 2b 3d
       -0.042799886 -0.084790245 -0.027930286 0.04196557
0001d0 4c 08 9b bd 6d 1e a0 3d 38 55 b8 bc 56 9a 9a bd
       -0.07569942 0.07818303 -0.022501573 -0.075489685
0001e0 f3 46 d1 3d 99 07 ea bd 2d 5b 98 3d 57 ac e1 bc
       0.102186106 -0.114272304 0.074392654 -0.027547998
0001f0 5b 84 ab 3d c2 d5 cc bd ab 32 65 bd 23 b9 00 3e
       0.08374854 -0.100017086 -0.055956524 0.12570624
000200 ad 2a c9 3d f6 e1 8d bd 76 09 ec 3d a9 a7 f8 bd
       0.09822593 -0.06927864 0.11525242 -0.12141354
000210 85 6f 7f 3a 67 c2 cb 3d 40 05 9e 3d c6 f0 fd 3d
       0.0009744096 0.09949189 0.07715845 0.123994395
000220 4d 6a 58 bd 23 5b 23 bc 27 9d 93 bd 57 5e 92 bd
       -0.05283575 -0.009970459 -0.07207709 -0.071469
000230 a2 2d 3a 3d 33 3f d5 3d b5 74 76 3d e0 de 00 3c
       0.045453675 0.10412445 0.060169894 0.007865638
000240 ba b3 82 3c 33 06 06 be 5c d5 99 bd 36 e4 b5 3d
       0.01595484 -0.13088302 -0.07511398 0.088814184
000250 6c 12 84 bc c1 ff 6f bd b8 0e 44 bd c8 08 ad bd
       -0.016122065 -0.058593515 -0.0478656 -0.084489405
000260 62 b8 34 bd d4 dd b7 bd fe ef cf 3d 43 e5 06 be
       -0.044121154 -0.08977857 0.10153197 -0.13173394
000270 06 d6 83 3d 09 2e 00 bd 8e 44 ec bd a2 71 9c 3d
       0.06437306 -0.031293903 -0.11536513 0.07638861
000280 26 f9 9f 3c c0 92 c6 bd 2d bb 05 3d 17 2b 08 be
       0.019527983 -0.09695959 0.032649208 -0.13297687
000290 33 5f 81 3d c1 6c 31 3d 48 c5 ea bc b0 53 b5 3d
       0.06316986 0.043316606 -0.028658524 0.08853853
0002a0 23 f6 7f 3d af 7b 12 3b cc de 7b bd 1b 68 a3 3d
       0.062490594 0.0022351553 -0.061491773 0.07978841
0002b0 15 d5 10 be d9 55 c9 bd 19 25 8a bd e5 f6 82 bd
       -0.14143784 -0.09830827 -0.06745357 -0.06394748
0002c0 41 7b bd 3d 1f 3e 0c be 0d 79 be bd 49 ae fc bd
       0.092520244 -0.13695572 -0.09300432 -0.1233793
0002d0 43 ce 76 3d 02 95 12 3d 22 4d 1c bd 95 71 34 bd
       0.0602553 0.035786636 -0.038159497 -0.044053633
0002e0 63 0b b5 bd 75 54 ee bd 46 54 5c bd ac db 98 bd
       -0.088400625 -0.11637203 -0.053791307 -0.07463774
0002f0 87 59 83 bd 5d c8 de 3d 3b a2 81 bd 9a 77 a3 bc
       -0.0641356 0.1087806 -0.06329771 -0.019954491
000300 b1 30 99 bd 4a 02 de 3d 1b bc 93 bd 35 f8 13 bc
       -0.0747999 0.1084028 -0.07213613 -0.009031345
000310 77 ab 82 3d 90 35 70 3b e4 34 d6 bc 00 3a 68 bd
       0.063803606 0.003665302 -0.026148267 -0.056695938
000320 13 87 0f bd 2b 3b ab 3d 54 45 88 ba ad 3b 7e 3d
       -0.035040926 0.08360895 -0.0010396638 0.06206863
000330 24 b5 b9 bd b4 89 ef 3d 7f c7 06 3e da 55 68 3d
       -0.09067753 0.11696187 0.13162039 0.0567225
000340 de ea bc 3c 37 07 7c 3d 8b 0d a0 bc 72 57 d8 3d
       0.023061212 0.061530318 -0.019537708 0.10563554
000350 b9 05 ee bd d3 17 01 3e 42 b7 ef bd ba 11 eb 3c
       -0.11622185 0.12606744 -0.117048755 0.028694976
000360 6c 09 81 bd 5f 92 c7 3b ea da 91 bd 2f 0a a1 bd
       -0.06300625 0.006090447 -0.07121833 -0.078632705
000370 64 fe 92 bd 04 53 86 bd 6c e5 00 be 9d 28 d2 bd
       -0.071774274 -0.06558803 -0.12587517 -0.102616526
000380 5b de 24 3d f8 01 34 3d a8 5b 93 3d be 54 1e 3d
       0.040251117 0.04394719 0.071952164 0.038655035
000390 32 73 f4 bd 39 70 d6 bd d9 ba 59 bd 82 e7 dc bd
       -0.11936034 -0.104706235 -0.053156707 -0.10786344
0003a0 5c e2 54 bc 29 7c d3 bd 28 f1 86 bd 82 67 5e bc
       -0.012993421 -0.10326416 -0.06588966 -0.013574483
0003b0 d9 91 af bd c7 6b b0 3d 4c 56 f0 3d 02 89 67 3d
       -0.0857274 0.08614307 0.1173521 0.056527145
0003c0 bd 88 98 bc 3f 50 9c bd e0 de 32 3c fe 4f c1 bc
       -0.01861989 -0.07632493 0.010917395 -0.023597714
0003d0 ff ba 43 bd d1 9f 0e 3d 9e 67 9e bd a9 3c db 3d
       -0.047785755 0.03482038 -0.07734607 0.107049294
0003e0 cd 76 04 3e b7 7e f6 3d e5 15 8f bc f6 ec 05 3e
       0.12935944 0.12035888 -0.017466495 0.13078675
0003f0 42 dc de 3d 04 86 f3 3d fb 0b 0c 3c 4f ba 12 3e
       0.108818546 0.11890796 0.008547778 0.14328884

rnn.0.rnn.bias_hh_l0 f4 [256]
000000 5f 08 ab bd b2 3d 96 bc a5 47 c4 3d 22 63 7b 3c
       -0.08351206 -0.018339965 0.095839776 0.015343459
000010 60 17 ad bd e2 82 65 bd 75 2a 95 3d bb 12 d5 bd
       -0.08451724 -0.056033023 0.07283489 -0.10403963
000020 e6 d3 c2 3d ba 09 9b 3d c4 ae 03 3e 87 e6 db bc
       0.09513073 0.075702146 0.12859637 -0.026843322
000030 70 e5 d7 3b 8b 35 8f bb 9e 5b b1 3b d1 87 b3 3d
       0.0065886304 -0.0043703965 0.005412533 0.08766139
000040 64 bb 1d 3b a1 06 ac 3d 59 47 ab 3d ac c9 45 3c
       0.0024067992 0.08399702 0.08363218 0.012072008
000050 bb f4 c7 bd 22 00 cd 3c 36 09 0f 3b bc 09 94 3d
       -0.097634755 0.025024477 0.0021825559 0.07228419
000060 48 b1 76 3d bb 9e 7d bd 3d 68 a0 3d f2 a5 eb bd
       0.060227662 -0.061918955 0.07832382 -0.11506261
000070 d2 25 0b 3c d1 40 a5 3d ea 52 46 bd 45 b1 00 bc
       0.008492904 0.080690034 -0.048418917 -0.007854764
000080 c6 ad c3 bc d1 ac 82 bd b5 bd bf bd 7c ac ad bd
       -0.023886573 -0.06380618 -0.093623556 -0.084801644
000090 4d 33 6e 3d 2f db ff bc 90 93 04 be a3 a4 dd 3d
       0.058154393 -0.031232445 -0.12946916 0.108224176
0000a0 83 28 87 3d 9b 1a e5 3c eb a9 c1 bc 91 78 a0 3d
       0.06599524 0.027966788 -0.023640594 0.07835496
0000b0 e9 53 07 3e 0c cd b2 3d 4c d6 88 3d 37 33 aa bd
       0.13215603 0.08730516 0.06681499 -0.0831055
0000c0 4e 9d d3 bd a8 05 5c bd 73 95 12 bd 9c 7b a4 3c
       -0.10332738 -0.05371633 -0.035787057 0.020078473
0000d0 e7 fb c9 3d d3 42 b5 bd 23 11 48 bd 1f 16 ff bd
       0.098625 -0.08850636 -0.048844468 -0.12455391
0000e0 06 e6 ce bd 22 fd c7 3d cc ec 3c bd 80 01 aa bd
       -0.10102467 0.09765078 -0.046124265 -0.08301067
0000f0 50 5d 8c bc 41 cd e0 bd 15 4c 1c bd 70 14 a5 3d
       -0.017134339 -0.10976649 -0.038158495 0.08060539
000100 53 45 f8 3d a0 7e e8 bd 91 cc 07 bd 77 81 04 3c
       0.121225975 -0.11352277 -0.033154074 0.008087507
000110 ac e2 ba bd ad ec c8 3d 95 8f ea bd 73 64 fc 3d
       -0.091252655 0.09810767 -0.11453167 0.12323847
000120 4a 31 2d 3c 6c 40 f4 bd fd 84 42 3d f1 52 f9 bd
       0.010570833 -0.1192635 0.04749011 -0.12174023
000130 cc 8f 8b 3d 59 97 7e bd 54 24 62 3d e6 d6 c4 bd
       0.068145365 -0.062156055 0.055210426 -0.09611301
000140 3d 7d ab 3d cb 30 ee bd ba b8 52 3d db 9b 97 bc
       0.08373497 -0.116304 0.0514457 -0.018506935
000150 93 e5 b1 bd c3 c2 3a 3d 0b f9 af 3d 2c fc c9 3d
       -0.08686366 0.045595895 0.08592423 0.09862551
000160 c0 9e d8 bc 47 19 5b bd 7f 55 b1 3d af 34 f6 bd
       -0.026442885 -0.053490903 0.08658885 -0.12021767
000170 e8 91 6f bd 2a 85 a3 bd a3 4d 1c 3d 1e e8 95 bc
       -0.058488756 -0.079843834 0.038159978 -0.018299159
000180 91 c4 cd bc 71 6b d9 3a c7 a3 fc 3d 85 20 d0 bd
       -0.025118144 0.0016587806 0.123359255 -0.101624526
000190 7e 96 73 bd be 91 05 3c bd 2a 20 bd 17 49 bd bd
       -0.059469692 0.008152423 -0.03910326 -0.092424564
0001a0 f1 ba f5 3c 39 50 9c 3d 59 2d 40 bd 34 9e c8 3d
       0.029996367 0.07632489 -0.046918247 0.097958
0001b0 2f 61 f6 bd 1b 4a 10 3b 96 f5 83 bc 1e 04 1f bd
       -0.12030255 0.0022016827 -0.016108315 -0.038822286
0001c0 aa e6 4d 3d 04 d4 da bd eb 60 c5 bd 73 f1 2c 3d
       0.050268807 -0.1068497 -0.09637626 0.04222245
0001d0 a8 74 9e bd 17 ed 89 3d a8 0b 10 be 59 9d 64 3d
       -0.07737094 0.067346744 -0.14066947 0.05581412
0001e0 74 d2 46 3d c1 66 7e 3d d7 06 b2 bd 8d 69 f3 bd
       0.048540547 0.062109713 -0.08692711 -0.118853666
0001f0 97 be 46 3d 1e 55 ea bd 5f 8a 6a bd e5 c5 2f bd
       0.048521604 -0.11442016 -0.057260867 -0.042913336
000200 2f 2b fe bd 05 b3 8b 3d 72 25 cf bd dd 10 2c 3d
       -0.1241058 0.06821255 -0.10114564 0.04200827
000210 24 5e 13 bb c9 43 a6 3d 1c 6b e7 bd 3a d2 82 bd
       -0.0022486532 0.08118398 -0.11299726 -0.06387754
000220 2f ed c1 bd 4f ff 4d bd e5 3a b6 bd d1 75 c8 3d
       -0.09469067 -0.05029231 -0.08897952 0.09788097
000230 ee aa 81 3d 07 83 9d 3d b0 21 28 3d 25 bf 05 3c
       0.063314304 0.07691007 0.041047752 0.008163248
000240 a3 de 3e 3d 01 fb af bd a2 6f fa 3d 8d 40 26 3d
       0.04659904 -0.08592797 0.122283235 0.040588904
000250 55 f9 bd 3d fc cb 75 3d cf 12 b8 3d bb 7a 3b 3d
       0.09276072 0.060008988 0.089879625 0.04577134
000260 65 43 f9 bc ed a8 0e be 8f f2 a2 bc fc 84 7e bd
       -0.030427644 -0.13931628 -0.019891052 -0.062138543
000270 5e bf c1 bc 59 58 d2 3d 6c 3e 94 3d 30 ce 95 bd
       -0.023650821 0.10270757 0.072384685 -0.07314718
000280 88 22 d8 bc c0 0e 67 3d 12 23 5f 3d 24 e8 10 bd
       -0.026383653 0.05641055 0.054476805 -0.035377637
000290 64 5f 0d be bc 9a ff bd ca fc 34 3b 04 66 aa bd
       -0.1380592 -0.12480685 0.0027616494 -0.08320239
0002a0 58 b7 e2 bd 71 58 07 be 35 70 d4 3c 7d db b2 bd
       -0.11070126 -0.13217331 0.02593241 -0.0873327
0002b0 af ee 95 bc 4f 22 ef bd 17 73 b6 3d e1 a0 f3 bd
       -0.01830229 -0.11676466 0.089086704 -0.118959196
0002c0 b1 55 83 3d 1b 32 aa 3b 49 c3 0f 3d ae e3 1d be
       0.06412829 0.0051939613 0.035098348 -0.15418884
0002d0 e0 5b 04 3e cb 77 0d 3e ac ad e5 3c 54 5e d7 3d
       0.12925673 0.13815229 0.028036915 0.105160385
0002e0 bb 9f 5c bc 8c 5b 21 bd 7d 4b b5 bc 47 46 bd bb
       -0.013465817 -0.039393947 -0.022130722 -0.0057762
0002f0 83 5a 0e 3e 2f c0 6a bd 8e 01 90 3d 68 bd 06 3e
       0.13901715 -0.057312187 0.070315465 0.1315819
000300 5b ad 18 3d d6 2c 3c 3d b5 33 e1 3d 34 ed db bd
       0.0372747 0.045941196 0.109961905 -0.10738602
000310 d5 10 4b bb 71 28 76 bd 05 28 a2 3d 1c ab b1 bd
       -0.0030985374 -0.06009716 0.07917789 -0.08675215
000320 2e 02 cf bd f7 49 2f bd 54 0d 8b 3d 0d 9e ef 3d
       -0.101078376 -0.042795148 0.067896515 0.11700068
000330 cd a3 7e bc b9 d3 bb 3b 8e 8f 14 3c e4 25 8e 3d
       -0.015541983 0.0057320264 0.009067429 0.06940821
000340 a9 8d cd bd 39 5e d8 bd 0b 2d c6 3d 6e e3 35 3d
       -0.10036785 -0.105648465 0.0967656 0.044406347
000350 c3 82 61 bd 2e db 49 3c cc 51 1e 3d ed 3b 34 bd
       -0.055056345 0.012320323 0.038652226 -0.044002462
000360 07 54 cc 3d 30 ba 0d 3d 1e e5 6b 3d 53 e8 c1 3d
       0.099769644 0.03460139 0.05759155 0.094681405
000370 3d ed 08 bc e9 1c 2b 3e b5 ac 05 bd bb 3a e4 bd
       -0.008357343 0.16710247 -0.03263541 -0.111440144
000380 f8 a6 f6 3d 41 b6 df bc 45 bb 12 bc b1 ae 01 3e
       0.120435655 -0.027308585 -0.008955781 0.12664296
000390 00 ec de bb 3d e4 ce bd 79 4d 98 bd c0 2c 56 3d
       -0.0068030357 -0.10102127 -0.07436652 0.05228877
0003a0 40 c2 c0 bc a3 15 4a 3d 88 2b 45 bd 5d cc b8 bd
       -0.023530126 0.04933704 -0.048137218 -0.09023354
0003b0 11 eb 51 bd 5a d5 83 bd af 2f 57 bd 91 1d a2 bc
       -0.051249567 -0.06437178 -0.05253571 -0.019789489
0003c0 3a 6a 83 3d 68 a8 2c 3d 66 59 a5 bd 4f bb 99 3d
       0.064167455 0.042152792 -0.08073692 0.075064294
0003d0 07 d8 2f bd f5 9d a6 bd b6 8f 94 bd 41 54 ec bd
       -0.04293063 -0.08135597 -0.07253973 -0.11539508
0003e0 57 40 87 3d 91 9a bb bd 05 06 0b bd 3d b8 54 3d
       0.06604069 -0.091603406 -0.033941288 0.051933516
0003f0 e7 0a 6c bd ef 63 45 bd ca 01 de bd cf 64 ff 3d
       -0.057627585 -0.048191007 -0.10840185 0.124703996
