ckpt/HUST/wx_inner_finetune_fine_best.pt (torch, 320669 bytes, 20 tensors)

cnn.conv0.weight f4 [8, 4, 3, 1]
000000 90 96 f0 3b 22 1a 28 3e 56 db 69 be d4 39 4e be
       0.007342167 0.16416219 -0.22837576 -0.20139247
000010 22 b8 ce bd e5 e3 b1 3d b4 db 43 bc d3 f7 61 3e
       -0.10093714 0.086860456 -0.011954237 0.22067194
000020 fe d5 01 bd 34 a7 9c 3d 56 13 b3 bd 55 75 6a bd
       -0.03169822 0.07649079 -0.087439224 -0.057240803
000030 57 1a 1d be cc e9 8c bd c9 29 52 3b d7 e7 bd 3d
       -0.15342079 -0.06880531 0.0032068363 0.092727356
000040 52 d9 49 3e c5 a9 83 3e a1 d9 9a bd 24 47 0f bb
       0.19711807 0.2571546 -0.07561041 -0.0021862471
000050 17 b9 6a 3e 0b 34 52 3e 57 4f b9 bd 30 af 40 3e
       0.22922169 0.20527665 -0.09048336 0.18816829
000060 55 68 70 bc 80 8b 80 3d 35 48 96 3e ce b0 57 be
       -0.014673312 0.062766075 0.29351965 -0.2106354
000070 81 3a ff bd cf 45 83 bc d5 a7 d7 bd 71 74 84 3e
       -0.124623306 -0.016024498 -0.10530058 0.25870088
000080 52 63 39 be 25 c9 34 be 5c 8b 7b be b3 17 a1 be
       -0.18104294 -0.17654856 -0.2456488 -0.31463394
000090 3e 8e 2c be 9c 19 7e 3e 54 e7 03 3e 54 45 0f 3e
       -0.16851136 0.24814457 0.12881213 0.1399129
0000a0 60 bd 78 3c 0b 8d 17 be d8 0b 48 3d 6b 00 8a be
       0.015181869 -0.14799897 0.04883942 -0.26953444
0000b0 ce 97 55 be 73 64 18 be e2 81 3a 3e 8a 51 2d 3e
       -0.2085869 -0.14882068 0.18213609 0.16925636
0000c0 5b 30 f4 bd 93 0b cc ba a7 18 46 3e dd 08 9b 3e
       -0.119232856 -0.0015567414 0.19345342 0.302802
0000d0 a6 97 05 3e e9 1d 61 3d c2 c9 47 3e 5c f9 27 be
       0.1304613 0.054960165 0.19510558 -0.16403717
0000e0 f3 d3 70 3d f9 50 6b be 59 fd 52 be dc ca 1e be
       0.05879588 -0.22980107 -0.20604457 -0.15507072
0000f0 93 c4 06 3e 98 c8 ef 3d 37 2f 2e be 34 52 cb 3d
       0.13160925 0.11708182 -0.17010199 0.099277884
000100 77 ea 2e 3e 2c 26 c3 bc 75 8a 04 3c 8b 7d 86 3d
       0.17081629 -0.023821913 0.008089651 0.06566914
000110 4a b5 37 3e 93 a5 90 3e b2 21 5e be 7a e8 cc bd
       0.1794025 0.28251323 -0.21692541 -0.10005279
000120 eb 4b 09 3e 65 24 85 3e 9f 42 8b 3e ce 8b 8b 3e
       0.13407867 0.2600433 0.27199265 0.272551
000130 06 24 9c 3d 72 d8 6c be 5d 08 2a 3d cc de 22 be
       0.076240584 -0.23129442 0.041511882 -0.15905303
000140 2c 56 7e be 8a 82 5b 3e 0d 9c 36 3e f5 07 a8 be
       -0.2483756 0.21436515 0.17832966 -0.3281857
000150 d6 9d eb 3d 97 aa 45 3c 4d 79 50 3c 03 0e ae bd
       0.11504714 0.012064598 0.012724233 -0.08498766
000160 08 23 21 3e 76 71 00 be 4b c9 ea 3d 7f 84 21 3e
       0.1573602 -0.12543282 0.11464175 0.157732
000170 4b 5f 5e 3e da e1 a9 bc dd 86 d4 be cf 79 a2 be
       0.21716039 -0.020737577 -0.41509143 -0.31733558

cnn.conv0.bias f4 [8]
000000 d0 92 48 3e 24 99 ca 3d 88 57 38 be d3 36 2a be
       0.19587255 0.098924905 -0.1800214 -0.16622476
000010 85 26 8e 3e e6 a7 34 3e 42 3c 23 be 7f 85 32 3d
       0.27763763 0.17642173 -0.15940955 0.043584343

cnn.conv1.weight f4 [16, 8, 3, 1]
000000 36 e1 59 be b5 93 f3 bc ba c3 40 be 4d 13 e9 bd
       -0.21277317 -0.029733518 -0.18824664 -0.113806345
000010 6b 78 13 3d c8 fb a6 3d 73 5f b8 bd 7e ea ea 3d
       0.03600351 0.08153492 -0.090025805 0.11470507
000020 61 d7 05 be 4e a9 3d 3e 58 3e 0f 3e 01 44 30 be
       -0.13070442 0.18521616 0.13988626 -0.17213441
000030 b9 65 1f bd ea 6d ae 3c c8 3b 2c 3d 4b e3 77 3d
       -0.03891537 0.021292645 0.0420492 0.060519498
000040 e0 02 bd 3d 7f c0 c8 3c c7 fa c7 bd 15 23 cd 3d
       0.09229064 0.024505852 -0.09764629 0.10016457
000050 45 31 43 be 44 c0 49 be cb df 03 be 19 ef 36 be
       -0.19061764 -0.1970225 -0.12878339 -0.17864646
000060 8c 3e f9 bd 5f 08 64 be a7 b9 d4 bd 35 b1 a1 3d
       -0.12170133 -0.22268818 -0.10386973 0.07895128
000070 db 08 c1 bd 86 d7 d6 3c ca 35 14 3e 35 62 b7 bc
       -0.09425517 0.026225816 0.14473644 -0.022385696
000080 73 c7 b7 3b f0 41 90 bc a4 35 29 3d b8 e7 04 3e
       0.005608493 -0.017609566 0.04131092 0.12979019
000090 e1 65 4f 3e e1 45 0e 3e a6 0f 50 3e 15 05 b8 bb
       0.20253707 0.13893844 0.2031847 -0.00561584
0000a0 35 28 32 be ba 92 b2 bd 2b 35 22 3e c6 8b 8d 3c
       -0.1739815 -0.08719392 0.15840594 0.017278563
0000b0 02 10 ac bd 47 0a 58 be e2 d7 7b be df 7a 6b be
       -0.08401491 -0.2109767 -0.24594072 -0.2299609
0000c0 1c 97 29 bd 54 42 e5 3d 54 03 e2 3d ad 96 49 be
       -0.041403875 0.11194292 0.11035791 -0.19686384
0000d0 88 62 02 3e 05 90 23 be 30 c2 30 bd 9e 81 a9 bd
       0.12732899 -0.15972908 -0.04315394 -0.08276676
0000e0 50 0b 21 bd 20 29 24 bd 20 91 3b be 7e 7a 34 be
       -0.03931743 -0.040078282 -0.1831708 -0.17624852
0000f0 d0 d4 02 bd 00 00 2d 3b 6e e8 bd bd 4c 7a 9d 3d
       -0.031941235 0.0026397705 -0.09272848 0.07689342
000100 0e 22 3c be d0 b3 61 bc aa d1 37 3e 89 84 aa bd
       -0.18372366 -0.013775781 0.17951074 -0.0832606
000110 a0 bf 3c 3e a4 65 97 3d 9d a2 3c be 96 3f 04 3e
       0.18432474 0.07392433 -0.18421407 0.12914881
000120 ad f6 32 3d 58 53 7f bc 1a 48 7d 3e 56 03 00 be
       0.04369228 -0.015583836 0.24734536 -0.12501273
000130 31 5d 6c 3d 45 e4 32 bc 73 56 17 3c c5 3f 53 bd
       0.05770606 -0.0109186815 0.00923692 -0.051574487
000140 2c 41 96 3c 04 a3 93 3d 20 0f 49 bd b8 d5 2f bd
       0.018341623 0.07208827 -0.04908669 -0.042928427
000150 38 d2 1f be 46 2e f9 3d e7 74 30 3e cd af 1f 3e
       -0.15607536 0.12167029 0.17232095 0.15594406
000160 bc 9f 03 be a4 88 c0 3c bc 34 57 be aa 82 40 be
       -0.12853903 0.023502655 -0.2101621 -0.18799844
000170 ff ab 4a be 99 92 48 3d ff 23 10 be 97 e1 b5 bc
       -0.19792174 0.04896793 -0.14076231 -0.022202296
000180 93 99 15 3d 31 5c 27 3e d9 ef f1 bd 4f 5f fa bd
       0.036523413 0.16343762 -0.118133254 -0.1222521
000190 18 71 d4 bd 1c 88 1e 3e c4 be 96 bd 34 ea 49 3e
       -0.103731334 0.15481609 -0.073606044 0.19718248
0001a0 b3 bb f3 3d 00 be d3 3c 00 2a c7 ba b4 47 25 bd
       0.11901035 0.025847435 -0.0015195012 -0.040351585
0001b0 58 bb 14 3d 7d 0e 14 bd b3 2d 11 3c 62 78 10 3d
       0.036311477 -0.03614663 0.008860993 0.035271056
0001c0 e4 4e 1a be e8 29 c9 bd be 0b 32 3e ea 4c 1f be
       -0.15069157 -0.09822446 0.17387292 -0.15556684
0001d0 c5 bb 2e bb c9 88 7f 3e 50 33 fb 3d 85 66 64 3d
       -0.0026662212 0.24954523 0.122656465 0.055761833
0001e0 3b 24 35 be 44 17 cf 3d 16 e2 14 be 38 56 6d bd
       -0.17689602 0.101118594 -0.1453937 -0.057943553
0001f0 e8 42 8c bd 28 a1 f7 bc c0 53 12 3b 62 67 2c 3e
       -0.06848699 -0.030228212 0.002232775 0.16836312
000200 f0 c0 d0 3c 74 38 3b 3e 60 b9 ff 3d b8 25 04 be
       0.025482625 0.18283254 0.12486529 -0.12905014
000210 d8 7e bb 3d f4 c1 13 be b3 2d b1 bd f0 e9 75 3d
       0.09155053 -0.14429456 -0.086512946 0.060037553
000220 1c 09 8a 3d a4 d0 1c 3e 62 93 86 bd 00 52 ab 39
       0.06740019 0.15313965 -0.0657108 0.00032676756
000230 58 38 d7 3d 07 25 4a be a2 1e 17 3e 8e d8 2c be
       0.105087936 -0.19740687 0.14757779 -0.16879484
000240 d4 79 ed bd 23 9a 24 be 8a 1b 73 be 5a 9f af 3d
       -0.115955025 -0.16074423 -0.23740974 0.08575316
000250 10 c9 6d 3e d4 cb f5 3b 6b 3d 21 bd c0 a3 aa bc
       0.2322123 0.007501105 -0.039365213 -0.020830035
000260 4b a8 2c be 1c b4 bc 3d bf c5 c8 bd 54 7d 0b be
       -0.16861074 0.09214041 -0.09803342 -0.13622028
000270 28 1a e6 bd 29 88 fb 3d 3c a9 e8 3d 60 de 27 3e
       -0.11235458 0.1228183 0.11360404 0.16393423
000280 e8 96 a7 3d ec a0 75 bd 28 a7 d9 bb c8 b4 e1 3d
       0.0818308 -0.05996792 -0.006642241 0.110208094
000290 9a 1c 5d 3e 9f 11 08 bd e1 68 3f be a8 82 42 be
       0.21592942 -0.03321993 -0.18692352 -0.18995154
0002a0 24 c0 62 be 46 87 80 3c 72 11 12 be 09 e3 53 be
       -0.22143608 0.015689503 -0.14264467 -0.20692076
0002b0 0f e0 1d 3e 2c f8 20 be 51 cc 12 bd 58 61 34 3d
       0.15417503 -0.1571967 -0.035839383 0.044038147
0002c0 5f df 29 bc d9 a5 0c be 3b f5 28 be d2 9b 26 3e
       -0.010368197 -0.13735141 -0.16499798 0.16270378
0002d0 cc df 7a 3c 93 00 1b 3e 1d 0f b1 bd 84 d8 29 3d
       0.015312146 0.15136938 -0.08645461 0.04146625
0002e0 27 d0 85 bd 1b fc e2 bc 2c 3f 0a be 7f 2e 6d 3d
       -0.065338425 -0.027708104 -0.1350066 0.05790567
0002f0 40 b6 55 3d 86 41 86 bc 4c de 6a bd bb d5 0a be
       0.05217576 -0.016388666 -0.057340905 -0.13558094
000300 82 8c 10 3e 14 9a 1b be 54 42 ab 3d cc 91 8c bd
       0.141161 -0.15195495 0.083622605 -0.06863746
000310 a7 b1 c9 bd 2c 33 16 3d 35 28 d9 bd c8 a3 40 3d
       -0.098483376 0.036669895 -0.10603372 0.047031194
000320 4c 31 24 3d 8e 32 1b be 4c 35 0b 3d e0 0e b2 3d
       0.040086076 -0.15156004 0.033986375 0.086942434
000330 c4 79 a5 3d 10 7e d2 bc c6 5a 2b be 18 e3 00 bd
       0.080798656 -0.025694877 -0.16733846 -0.031466573
000340 d0 30 91 3d 18 89 98 bd b4 ae 9e 3d 9a 33 0b 3e
       0.07089388 -0.074480236 0.07748166 0.13593903
000350 95 48 da bd 40 ed 03 3b 98 dc ac 3d f0 0f 83 3c
       -0.10658375 0.0020130426 0.084405124 0.01599881
000360 92 7f 75 bd c4 26 81 bd e9 3c 86 be 30 2f 8e 3d
       -0.059936114 -0.06306222 -0.26218346 0.06942594
000370 37 c1 4e 3e f0 da 80 3e 56 23 08 3e ab ed a5 3c
       0.20190893 0.25167036 0.1329473 0.02025493
000380 54 bc 96 3d fa 5e cb bd 0d 37 2d be 50 be 33 be
       0.073601395 -0.09930225 -0.16915531 -0.17553067
000390 73 82 61 3e 70 0a 16 3e cc a6 fd bd 34 8e bd 3d
       0.22022419 0.14652419 -0.123853296 0.09255639
0003a0 31 70 2b 3e b5 11 5f 3e 47 e0 4f 3e d0 21 3a 3e
       0.16742016 0.21784098 0.20300399 0.18176961
0003b0 f5 e1 cb bc 02 e1 81 bc 89 d6 64 3e 35 b5 2c 3e
       -0.024888018 -0.015854362 0.22347464 0.16866
0003c0 6c cc 9a bd 22 8e 73 3e ee 8b 22 3e f1 eb f6 3d
       -0.07558522 0.23784688 0.15873691 0.12056721
0003d0 4a 18 fd bd a5 4b 73 3d da 91 ef bd eb 8f 15 3e
       -0.123581484 0.059398312 -0.11697741 0.14605682
0003e0 55 32 bf bc 28 c0 a2 3d 20 82 14 3d 8c dd b1 3d
       -0.02333943 0.07946807 0.03625691 0.08684835
0003f0 2b 53 89 bd 01 a3 cf 3d 7e 53 10 be d9 a7 47 3d
       -0.06705316 0.101385124 -0.1409435 0.048744056

cnn.conv1.bias f4 [16]
000000 fb f2 98 3c 1a a3 67 bd 00 cb 35 bd fc fa 5e 3d
       0.01867055 -0.05655203 -0.04438305 0.054438576
000010 24 22 e5 3d 83 70 12 be 20 83 2f 3e bc 81 2d bd
       0.111881524 -0.14300732 0.17139864 -0.042360052
000020 67 26 2f be 1e 34 d1 bd 3d b0 40 3e b1 61 3a 3e
       -0.17104493 -0.10215019 0.1881723 0.18201329
000030 3a 6f 3b be a2 15 09 3e bc b3 d7 3d 30 0a 53 3e
       -0.18304148 0.13387159 0.105323285 0.20609355

cnn.conv2.weight f4 [64, 16, 3, 1]
000000 45 71 04 3e 81 69 90 bd 71 9e 57 3d 09 95 85 3d
       0.12933834 -0.07051373 0.052641336 0.06522567
000010 73 de 14 bd b2 bc 60 3d 1c 19 2a bd 96 c2 b6 3d
       -0.036344957 0.054867454 -0.041527852 0.08923833
000020 74 08 24 bd fb 9b 4b bd ed dc 24 3d d3 97 5e 3d
       -0.040047124 -0.0497093 0.040249754 0.05434401
000030 c7 d2 93 bd 2e 19 2a 3c ba cf a3 3d e0 4a 6b bc
       -0.07217937 0.01038198 0.07998605 -0.014361113
000040 9c ec 33 3d 62 97 0e bd 1c b8 6d 3d 0f a2 c6 bd
       0.04392682 -0.03481234 0.05803691 -0.09698879
000050 4f 2b 9e bd 55 fa 84 bd 3b 36 0e 3e 40 14 09 bd
       -0.07723104 -0.064930595 0.13887875 -0.033466578
000060 00 9e ce b9 ef 37 8f bd 86 8c 13 3e 53 d6 18 3e
       -0.000394091 -0.0699309 0.14409074 0.14925508
000070 00 37 ce bd 85 0c df bd 1a e9 d5 bd 8d 8d 51 3b
       -0.10069084 -0.1089106 -0.10444851 0.003197524
000080 57 f3 08 bd 39 60 b4 bd f6 4a 39 bd 39 09 0b 3d
       -0.033435192 -0.088074155 -0.045237504 0.033944342
000090 28 87 54 bd 5e 8c 32 3d a1 38 a7 bc ea d5 74 bd
       -0.051886708 0.043590896 -0.020412745 -0.059774317
0000a0 0c 8f f9 3c d8 eb 04 3e 96 fd b7 bd 93 3e 6a 3c
       0.030463718 0.12980592 -0.089839146 0.014297145
0000b0 be 2e 3c bd 20 44 ed 3d f7 4c 3b be f2 ee 56 be
       -0.045943014 0.115852594 -0.18291079 -0.20989588
0000c0 3c a4 11 3e 78 06 bb bd 40 b2 e2 3c 35 f0 d2 bc
       0.14222807 -0.09132093 0.027672887 -0.025749305
0000d0 d7 02 1d bd 72 0b 04 bd 9e d6 bb 3d 20 10 e2 3b
       -0.038332786 -0.032237478 0.09171794 0.006898895
0000e0 e0 e6 0f be 98 94 d1 bd 3a ec 86 bd dc 46 6a 3d
       -0.14052916 -0.1023342 -0.065880254 0.057196483
0000f0 2b b2 e2 bd f4 d4 f2 3d f2 a0 4c bd 04 51 d4 bc
       -0.11069139 0.11857024 -0.049958177 -0.025917538
000100 54 9f e7 3d 90 92 94 3d cc c9 be 3d 6c 6f 5d 3d
       0.11309686 0.07254517 0.093158334 0.05406134
000110 61 d5 94 bd ea 1f c4 bd 40 f3 2f bc 04 a7 f4 3d
       -0.07267261 -0.095763996 -0.010739148 0.11945918
000120 b0 6b 46 bd 1b 11 09 be 38 5a 72 3d 0f 61 f6 3d
       -0.048442543 -0.13385431 0.05916807 0.12030231
000130 c8 fe 79 bd b8 bc 0e be 2d fd 17 be c5 f3 9b 3c
       -0.061033994 -0.13939178 -0.14842673 0.019037137
000140 d7 82 e4 bc 29 f1 bf bd 8d 62 08 3c e7 4a 0b 3d
       -0.02789442 -0.093721695 0.008324278 0.03400698
000150 90 1f dd 3d 4a 1f c2 3d bb 74 47 bd 91 b4 11 be
       0.10797036 0.09478624 -0.048695307 -0.14229037
000160 2b 98 05 be 3a 00 0a 3e ea a9 0c 3d f3 03 09 3d
       -0.13046329 0.13476649 0.03434173 0.033451032
000170 64 d2 1e be 4c c1 ed 3d e5 d4 f3 3d 6d 23 e6 3d
       -0.15509945 0.11609134 0.11905841 0.11237226
000180 75 fb 11 be ea 0f 9b bd 89 e5 f4 bd 2d 49 f9 3d
       -0.1425608 -0.07571395 -0.11957843 0.1217216
000190 b0 49 a4 bd ef 64 b1 bd d2 de 9a 3d 6d be 88 bd
       -0.08021867 -0.0866183 0.07562031 -0.06676946
0001a0 58 97 91 bd 35 17 e7 bc bc f9 11 bd 9a 13 0f be
       -0.07108945 -0.028209308 -0.035638556 -0.13972321
0001b0 0d cc 03 3e e4 2a 2b bd 71 69 b0 3d 34 8e 00 3e
       0.12870808 -0.04178895 0.08613861 0.12554246
0001c0 e0 13 95 3d e8 67 a7 3c f7 96 e9 3d 23 b0 00 3c
       0.072791815 0.020435289 0.114057474 0.007854494
0001d0 bb ab a5 bd 6f 9b f6 3d 6c 74 83 3c 04 31 23 be
       -0.080893956 0.12041365 0.016046725 -0.15936667
0001e0 c2 4f 28 bd fa 5a c9 bd e6 95 01 3e ad 4e aa bc
       -0.041091688 -0.098318055 0.12654838 -0.020789469
0001f0 da 49 08 be 4e 09 7a bc f1 d7 af 3d be 87 37 3d
       -0.13309422 -0.0152610075 0.085861094 0.04480719
000200 59 f4 8d 3d fd e4 bd 3b 28 58 3a 3d 4c 49 36 bd
       0.06931371 0.00579512 0.04549423 -0.044503495
000210 22 12 5e 3d 11 1d 8e bd 2f 28 86 bd 49 5b 43 3d
       0.05421651 -0.06939138 -0.06550633 0.04769448
000220 f6 0e ce bd 63 6d a1 3b 99 41 12 3d 0f d4 91 bb
       -0.10061447 0.00492637 0.03570709 -0.004450328
000230 b3 1a e3 bd 4d c5 28 3e e8 34 39 bd bc d4 2e 3e
       -0.11089077 0.16481514 -0.04521647 0.17073339
000240 f6 d2 fd bd 0e d1 33 bd 10 59 8e 3d 9d 79 8e bd
       -0.12393753 -0.043900542 0.06950581 -0.0695679
000250 3f f4 e2 3d 9a 58 e0 bd 40 3d f8 bd 0f 4b 85 bd
       0.110817425 -0.109543994 -0.121210575 -0.06508457
000260 38 23 bf 3c a6 1f f5 3d e5 75 a8 bd 9e 7f 1c 3d
       0.023332223 0.11968927 -0.082256116 0.038207643
000270 62 fe 4e bd d4 f7 3c bd bc f9 b9 3d a2 16 e5 bd
       -0.050535567 -0.046134785 0.09080836 -0.111859575
000280 10 2d 7b 3c 7a fe 0a 3e be b6 02 bd 70 14 cd 3d
       0.015330568 0.13573638 -0.031912558 0.10013664
000290 45 c9 66 bd f9 22 da 3d 9f 85 18 be b7 9b f9 bc
       -0.05634429 0.10651202 -0.14894722 -0.030469758
0002a0 c8 af cf bc e8 99 3f 3d 54 f2 67 3d fc 4f c8 3d
       -0.025352374 0.046777636 0.056627586 0.09780881
0002b0 36 89 0c bd ae d1 97 bc 87 4e aa 3d 82 7a 66 bd
       -0.034310542 -0.0185326 0.08315759 -0.056269176
0002c0 03 7d dc 3d 5e ba dd bd 46 6d e2 bc 74 e8 a1 bc
       0.107660316 -0.10826562 -0.027639996 -0.019764163
0002d0 60 67 48 3d 3d 95 ae 3d 11 20 10 bd b4 b9 05 be
       0.04892671 0.08524559 -0.03518683 -0.13059121
0002e0 5e 25 78 3d 03 57 04 3d 9c 78 3d 3d 96 7c ce bd
       0.06058251 0.032309543 0.0462576 -0.10082357
0002f0 65 f2 a5 3d 8c b4 97 3d fa fc cc bd 46 21 a3 be
       0.08102874 0.074074835 -0.10009189 -0.31861323
000300 b4 82 cf 3d eb 2c db bd e4 e6 07 3d 60 d3 ab 3c
       0.101323515 -0.10701927 0.03317918 0.020974815
000310 69 5a 8a bd 04 db 4d 3d da 32 04 be 24 a7 06 3d
       -0.067555256 0.050257698 -0.12910023 0.03287424
000320 e4 65 bb bd a0 b7 7f bc a8 17 98 3c 70 d6 fb 3d
       -0.091502935 -0.015607744 0.018565968 0.1229676
000330 d1 09 8d bd ca 5f bd 3d e0 34 96 bc e6 63 8c bd
       -0.06886638 0.09246786 -0.01833576 -0.068549916
000340 a5 b4 00 be 5a 9c 07 be 3e 58 10 3e 5a 72 13 bd
       -0.1256891 -0.13243237 0.14096162 -0.035997726
000350 a0 3d ec 3b 8c 48 20 3d 5c ee c8 3d 30 4a fc 3d
       0.0072094947 0.039131686 0.098110884 0.12318838
000360 48 bd ef 3d ec 01 db bd 48 71 bd bc 6c eb ae bd
       0.117060244 -0.10693726 -0.023125306 -0.08540997
000370 bc e4 a8 bd 08 3d 0c 3d d6 bb 0a 3e 1a cf ec bd
       -0.082467526 0.03423789 0.13548216 -0.11562939
000380 84 e6 b2 3d af 42 99 bd c0 4d e6 bc 2c a4 ea 3d
       0.087353736 -0.07483422 -0.028113246 0.114570946
000390 a0 b6 05 bd c0 54 57 3c e8 a2 ce bd 30 a1 fb 3d
       -0.032644868 0.013142765 -0.10089666 0.122866035
0003a0 b0 d9 98 bc 93 33 d8 bd 84 1c 2d 3d da 2d d2 bd
       -0.018658489 -0.10556712 0.042263523 -0.10262652
0003b0 3c 90 ea bd 30 10 10 3c 00 5e ea 3d 52 4d 27 bd
       -0.11453292 0.008792922 0.1144371 -0.040845223
0003c0 be c4 9f 3d da 12 0a 3e 62 72 da 3d 40 92 88 bd
       0.078011975 0.13483754 0.10666348 -0.0666852
0003d0 ee 11 d3 bb 0c 3e 12 bd 90 b3 ed bd 00 20 7a 38
       -0.0064413464 -0.035703704 -0.116065145 5.9634447e-05
0003e0 1c 6c de 3d 6a aa 04 3e e9 97 ae 3c cd 53 23 3d
       0.10860464 0.12955633 0.02131267 0.03987484
0003f0 9b 26 75 bd f2 41 e2 3d a7 87 79 bd 78 57 cd bd
       -0.05985127 0.11047734 -0.060920384 -0.10026449

cnn.conv2.bias f4 [64]
000000 a4 af 18 3e 0d 95 15 be ae 82 e9 3d 03 83 d4 3c
       0.14910752 -0.1460764 0.11401878 0.025941378
000010 ca b6 06 be 5e 5b 0c 3e bc dc 4b bd 22 b0 49 bd
       -0.13155666 0.13706729 -0.049771056 -0.04924024
000020 17 08 01 be ee 08 fa bd 1d 6a e1 3d 02 2e 11 be
       -0.12600742 -0.122087345 0.110065676 -0.14177707
000030 34 f1 72 3d 44 f2 1f bd 48 7b 4f 3d 63 52 13 bd
       0.05931206 -0.039049402 0.05065468 -0.035967242
000040 bf a6 83 3d 83 18 90 3b 66 6c d6 3d 40 87 70 bd
       0.06428289 0.0043974533 0.10469894 -0.058722734
000050 5e 54 cb bd 2d a3 fc 3a 2e 33 cb bd 58 3f b7 bd
       -0.09928201 0.0019274704 -0.09921871 -0.08947629
000060 11 1f 0e be 29 34 d6 bb 8c ae d9 bd b7 92 00 3e
       -0.13879038 -0.0065369797 -0.10628995 0.12555967
000070 cd 9f e2 3d 1e 10 65 3d 45 03 de 3d 28 8f 5a 3d
       0.11065636 0.055923574 0.10840467 0.05335918
000080 85 3b 0b be f0 9c 6c bc 98 ee bf bc c0 7a b3 bd
       -0.13596924 -0.014441714 -0.0234292 -0.08763647
000090 42 66 3f 3d 4a 1a e4 3c ec 59 8d bd dc 94 49 3c
       0.04672838 0.027844567 -0.06901917 0.012303557
0000a0 bf 97 dc bd 7a b4 f6 3d d8 7a d6 3d b7 ff 15 3e
       -0.10771131 0.12046142 0.10472649 0.14648329
0000b0 b4 6c 15 bd b5 1c 76 3d 80 3c be bb 11 9b f4 bd
       -0.03648062 0.06008597 -0.005805552 -0.11943639
0000c0 76 4c 01 3e a6 f3 db bd 56 0b 83 bd 22 65 12 bb
       0.12626824 -0.107398316 -0.063986465 -0.0022338112
0000d0 d5 30 10 be 06 91 63 3c 6c f2 2a bc b0 cf 2f bc
       -0.14081128 0.013889557 -0.010433774 -0.010730669
0000e0 86 04 ce 3d 80 c6 e2 3b b1 b2 2b bd 19 3c a1 bd
       0.100594565 0.0069206357 -0.04191846 -0.07872791
0000f0 aa 57 c4 bd c0 1a a8 bc a9 7d ad bd 64 00 c3 bd
       -0.09587033 -0.020520568 -0.084712334 -0.09521559

rnn.0.rnn.weight_ih_l0 f4 [256, 64]
000000 bb ca 40 bc 66 32 a7 bc 43 aa 47 bd de e4 97 3d
       -0.011767085 -0.020409774 -0.04874636 0.074167
000010 92 1b d9 3d d5 d0 a2 bd 53 45 60 3d 5c 04 6a bd
       0.10600962 -0.07949988 0.054753613 -0.057133064
000020 4c 58 fb bd 26 fa ee 3d d1 9e 12 3e da 16 f4 bd
       -0.12272701 0.11668806 0.14318396 -0.11918421
000030 82 56 eb 3d 09 51 7e bb 1a 30 80 bd c2 cd 81 bd
       0.114911094 -0.0038805625 -0.06259175 -0.06338073
000040 de 55 e7 3d 3c 4e 09 3c a3 33 0b 3e 1a 40 a8 3d
       0.11295675 0.008380469 0.13593917 0.082153514
000050 2c b9 46 bd ea 48 e7 3c 28 ed 97 bd 14 c6 d5 3d
       -0.048516437 0.02823301 -0.07418281 0.10438171
000060 0e 5f 87 bd 5b 55 13 3e 77 ba 01 3d c3 44 a5 3d
       -0.06609927 0.1438803 0.031671967 0.08069756
000070 dc fa ab bd 5e e9 af bd 0d ae 96 3d da cf c4 3b
       -0.08397457 -0.08589433 0.07357416 0.006006223
000080 80 15 eb ba 00 80 79 3d ba 55 bf bd f8 4c cd bc
       -0.0017935485 0.060913086 -0.09342523 -0.025061116
000090 b5 2c 80 3d 6b 74 0f 3e b0 c4 ed 3d 68 da b5 bc
       0.06258527 0.14009254 0.11609781 -0.02219887
0000a0 b0 85 4d be 32 b0 61 bd 1a 30 53 bc c2 0c 6e bd
       -0.20070529 -0.055099674 -0.012889886 -0.058117636
0000b0 b1 30 d4 3d cd c8 c9 3b c8 49 50 3d d2 cf 8c 3d
       0.1036085 0.0061579705 0.050851613 0.06875576
0000c0 10 a5 b9 bd 65 1a d4 bc 7e e5 29 3b 9d f0 ea bd
       -0.09064686 -0.025891492 0.0025924142 -0.114716746
0000d0 f8 fb a4 3c b3 03 b3 bc 53 31 d9 bd d4 82 ee 3d
       0.02013968 -0.02185235 -0.10605111 0.11646047
0000e0 7b 5b 03 bc 4c 88 7f bd ff 0f e6 bd b4 c9 eb bd
       -0.008017416 -0.062385842 -0.1123352 -0.11513081
0000f0 80 d3 42 3d f4 ba 69 bd 94 2b 5d bd 88 20 94 bd
       0.047564983 -0.057063058 -0.053996637 -0.07232767
000100 01 49 e8 3d 8b 44 fe bc 49 3d 02 3e ad 1e e4 3d
       0.113420494 -0.031038543 0.12718691 0.111386634
000110 2c 7a c6 bd 58 38 2f 3e ef 9a c3 bc 7e 24 25 3e
       -0.09691271 0.17111337 -0.023877589 0.16127202
000120 00 eb 9d 3e 98 fb f7 bd af cf 37 3e 2c fb 33 3d
       0.30843353 -0.121085346 0.17950319 0.043940708
000130 50 bd 39 bd c8 35 c2 3d 02 00 d4 bd eb 51 9c 3d
       -0.045346558 0.09482914 -0.10351564 0.07632812
000140 2f ae 6f 3e ab ae 32 3e 06 9e 36 3e 78 d1 98 bd
       0.2340629 0.17449443 0.17833719 -0.07461828
000150 42 43 dc bd da 6b ea bd cc 58 1a bd e4 05 91 3d
       -0.10755016 -0.11446352 -0.03768234 0.07081202
000160 6c 19 22 3d 6e c5 c2 3d bb 3b e6 3d 41 e9 5c 3e
       0.039575025 0.09510313 0.112418614 0.21573354
000170 bb 69 21 bd d9 f6 d0 3d 08 33 75 3a 58 21 67 3c
       -0.039407473 0.102033325 0.00093536125 0.014107071
000180 00 94 6a ba 24 aa 45 3d 6c a0 b0 3d c0 a3 b8 bc
       -0.00089484453 0.048257962 0.08624348 -0.02253902
000190 03 1b d6 3d fb e7 03 3e 44 88 44 3d 40 e1 ed 3d
       0.10454371 0.12881462 0.047981516 0.11615229
0001a0 04 15 42 3e ce af 1a bb bf 34 0c 3e 04 97 66 bc
       0.1895333 -0.0023603323 0.13691996 -0.014074091
0001b0 a4 14 e3 3d 14 c5 2b 3c fc 9f af 3d 40 6f 4d 3d
       0.11087921 0.010483999 0.085754365 0.050154924
0001c0 b6 bf 1f 3e eb 47 91 3e 8b ca 52 bd 17 cd a3 3e
       0.15600476 0.28375182 -0.05146269 0.3199241
0001d0 b8 be 16 3d b0 4b 4d 3d 61 8a ae 3c c0 a0 22 bb
       0.036802977 0.05012101 0.021306219 -0.0024815053
0001e0 54 a6 84 3c 2c d3 8e 3d 65 d9 12 3d 38 f9 3e 3d
       0.016192593 0.069738716 0.035851855 0.046624392
0001f0 2b 5f ac 3d be f1 85 bd 10 ea ed bc 00 7f 69 bb
       0.08416589 -0.06540249 -0.029042274 -0.0035628676
000200 13 16 c9 3d 84 26 d2 bd ca 3a 90 bd a9 dd 05 bd
       0.098186634 -0.102612525 -0.07042463 -0.032682095
000210 e8 ac da bd 7f dc a4 bd 8d 5d af 3d 8a ca c7 3c
       -0.106775105 -0.08049869 0.08562765 0.02438857
000220 5d f1 7b 3d f8 14 a9 bc 29 51 4e bd 34 06 36 bd
       0.06150948 -0.020639881 -0.05037037 -0.04443951
000230 7e 21 d6 bd 95 96 9a 3d a0 f3 7c bc cd 9c 16 3e
       -0.10455607 0.075482525 -0.015438944 0.14708252
000240 89 b6 98 bd 50 29 49 bd 85 c1 dd 3b b4 45 b2 bd
       -0.07456691 -0.049111664 0.006767454 -0.08704701
000250 d6 90 ba 3d a4 32 b7 3d 7f 52 db 3d 5c 9a a1 bd
       0.091096565 0.08945206 0.10709094 -0.0789077
000260 e6 24 b6 3d 9e dd 00 3e d7 b9 4b bd 4a 07 3b 3d
       0.088937566 0.1258454 -0.049737778 0.04566125
000270 86 91 85 3d eb cf 82 3e 61 a2 01 be 0d ba e8 3d
       0.06521897 0.25549254 -0.12659599 0.11363611
000280 64 ba 00 bd a0 9c 50 3d b0 ff 9e bd ca 00 c5 bd
       -0.031427756 0.05093062 -0.07763612 -0.09619291
000290 0f db 84 bd 76 e8 a5 3d 70 8d 7c bd 34 ee d2 3d
       -0.064870946 0.08100979 -0.061658323 0.1029934
0002a0 b0 8a a9 3e 3e d1 93 3d c2 f9 2f bc 4b 4f 7c bc
       0.33113623 0.07217644 -0.010740699 -0.015399764
0002b0 73 c5 29 bd 2b 30 3e bd 3e 0a ec 3d 00 9a de bb
       -0.041448068 -0.046432655 0.11525391 -0.0067932606
0002c0 8b 64 42 3e c7 3d 52 3d 2d ab 75 bb 80 bd af 3c
       0.18983667 0.051328447 -0.0037486062 0.021452665
0002d0 80 ed c0 ba a2 17 bc 3d 47 25 95 bd 18 a8 8c 3d
       -0.0014719218 0.09184195 -0.07282501 0.06867999
0002e0 18 9d 4c bc 6a e4 c4 bd c1 cf 03 be e0 59 7e 3d
       -0.012488626 -0.09613879 -0.1287222 0.06209743
0002f0 8c e7 c3 bd 6c ff 79 3d 78 9d 92 3c 72 22 8b 3d
       -0.095656484 0.061034605 0.017897353 0.06793679
000300 ef 5c b4 bd e8 37 e1 3d 44 e1 90 bd 9d f8 c2 bd
       -0.08806788 0.109969914 -0.07074216 -0.095200755
000310 22 85 99 3d 28 fe 47 3c 4c c6 8f bd 42 3e e5 bc
       0.07496096 0.012206592 -0.07020244 -0.027983788
000320 89 a6 4f be 92 cc de bd 65 16 bf 3d 4a 4a c3 3d
       -0.20278372 -0.108788624 0.09330443 0.09535654
000330 00 e8 18 3d 06 c8 d0 3c cc b1 07 bd 59 8e f1 3d
       0.037330627 0.025486004 -0.033128545 0.11794729
000340 22 98 3b 3c 48 08 48 3d 55 b5 84 3d 80 ca 9f 3c
       0.0114498455 0.048836023 0.06479899 0.01950574
000350 34 bc 2a 3d 65 60 e7 3d 3c 7e a0 3d d8 0c 83 3c
       0.04168339 0.11297683 0.07836577 0.015997335
000360 94 b2 4c 3d ca 46 d6 3c ae fc ae 3d d0 d0 24 3d
       0.049974993 0.026156802 0.085442886 0.0402382
000370 dc 60 c8 3d 0a 6a ae bd 3d 8e bb bd 99 86 08 3d
       0.097840995 -0.08516319 -0.09157989 0.033331487
000380 40 3d 50 3d 74 da ce 3d 5c 72 46 3d f8 2b 3d 3d
       0.050839663 0.101002604 0.048448905 0.04618451
000390 86 5b d4 3d bd 22 bb 3c 90 07 e2 3d 09 d3 81 3d
       0.10369019 0.022843713 0.11036599 0.0633908
0003a0 cc 04 f6 bd 84 72 c3 3d 4d 92 b2 bd ec 99 8d 3d
       -0.12012634 0.095433265 -0.08719311 0.06914124
0003b0 5e f6 03 3e 3e 22 a5 bd 10 87 2f bc 34 3c 9c bd
       0.1288695 -0.08063172 -0.010713354 -0.0762867
0003c0 38 e4 18 be a7 d6 20 bd d8 6d 9f 3d f8 19 2b bd
       -0.14930809 -0.03926721 0.07784623 -0.041772813
0003d0 80 69 f2 bd bb 86 95 3d f5 9c 8c 3d 60 a3 b9 bc
       -0.11836529 0.073010884 0.06865875 -0.022660911
0003e0 4e 54 e2 3d 5e 59 c5 3d 00 60 ad bc 20 2c 9e 3b
       0.11051236 0.09636186 -0.02116394 0.0048270375
0003f0 97 da b3 3c 70 a9 c8 bc c0 46 fc bc dc 1d 67 bd
       0.021954818 -0.024494857 -0.030795455 -0.05642496

rnn.0.rnn.weight_hh_l0 f4 [256, 64]
000000 93 94 89 bc e8 ae 98 bd a6 2d d4 bb b4 21 d7 3d
       -0.016794479 -0.07455236 -0.0064751683 0.10504475
000010 46 c6 9c 3d 5b af 0c bc d3 d8 a6 bd 09 90 43 bd
       0.07655005 -0.00858673 -0.08146825 -0.047744785
000020 9c 82 b7 bb 5b 1e 5f bd 1d 79 52 bd 66 f6 9a 3d
       -0.0056002866 -0.05447231 -0.051385034 0.07566528
000030 57 fc e0 bd 6e a5 3d bc 73 ef cc 3d bf b6 36 3d
       -0.1098563 -0.011575086 0.10006609 0.044607874
000040 d4 6b 35 bc 4f cc b9 3d ba 63 98 bd 8c 03 3f 3d
       -0.0110730715 0.09072172 -0.07440896 0.046634242
000050 2c 34 ff 3d 71 85 6d bc 72 28 f2 bd 9f 6f c1 bd
       0.12461123 -0.014497147 -0.118241206 -0.09445118
000060 76 cb e4 bd 20 00 8b bd 76 29 2d 3d f7 e8 7b bd
       -0.111716196 -0.06787133 0.04227587 -0.06150147
000070 ee 69 04 3c 5d cf ea bd 39 04 0f bd c4 d1 50 3d
       0.008081896 -0.11465333 -0.034916136 0.050981298
000080 81 34 5a 3d 6f 1d d8 3d 41 f5 70 3d 8d c9 c6 bd
       0.053272728 0.10552489 0.058827642 -0.097064115
000090 d9 05 a0 3d 65 af bf bd 0c 29 04 3c 31 91 6f 3d
       0.07813615 -0.09359626 0.008066427 0.058488075
0000a0 e7 8a f4 3d e2 87 87 3c 65 9c 44 3d e0 e6 9d 3d
       0.11940556 0.016544286 0.048000712 0.077100515
0000b0 cd ab f7 3d 42 4f b9 3d 54 1d 43 bd 61 dc 12 3d
       0.12093315 0.0904832 -0.04763539 0.0358547
0000c0 70 7c e2 bd f2 96 11 bd f1 10 17 3c 40 a3 8f 3d
       -0.11058891 -0.035544343 0.009220348 0.07013559
0000d0 d4 15 a7 3d 0e ee 88 3c 17 28 4e bd d4 cd c0 3d
       0.0815846 0.016715076 -0.0503312 0.094142586
0000e0 82 84 be 3d 28 fb 4b bd 46 f6 ac bc ec 30 c4 bc
       0.093026176 -0.04980007 -0.021113526 -0.023949109
0000f0 0b c6 56 3d ad 67 a9 bd 32 18 ae bd 98 bb 8f bd
       0.052434962 -0.08271728 -0.08500709 -0.070182025
000100 2a f8 b7 3d 67 8f 65 3c 1f 6f 22 3e 30 4f c4 3c
       0.089828804 0.014011241 0.15862702 0.02396354
000110 ae 62 4b 3e 51 fb d8 bc 63 d3 a0 3c d4 13 aa 3d
       0.19861862 -0.026487025 0.019632047 0.08304563
000120 46 b7 8e bd 4d 88 a1 3d b1 04 23 be 96 6c 08 bc
       -0.069685504 0.078873254 -0.15919758 -0.00832667
000130 1b ad 11 bd 2c f6 89 3d 32 ac cb 3d 66 e1 45 bd
       -0.035565477 0.06736407 0.09944953 -0.04831066
000140 5e 22 2a 3e df a3 d4 bc b8 8f 7f bd 37 51 07 be
       0.16614673 -0.025957046 -0.06239292 -0.13214575
000150 06 94 c9 3d e0 da c2 3d 99 ed 1a bd a5 58 32 3c
       0.09842686 0.09514403 -0.037824247 0.010885392
000160 8c 70 62 3d 2c 6d 5e 3d ad 5c 52 3c ed e0 83 bd
       0.055283114 0.054303333 0.012839478 -0.064393856
000170 54 66 6f 3d cd 5c 44 bc 51 9a 08 be c4 6e a4 3a
       0.058447197 -0.011985016 -0.13340117 0.0012545218
000180 f1 2c 31 3c 71 56 78 3d 72 8e 0c 3e bb 09 69 bd
       0.0108139375 0.060629312 0.13726214 -0.056894045
000190 29 d1 b5 bd e1 ce db ba 17 88 b8 3c 48 57 f2 3d
       -0.08877785 -0.0016770029 0.02252583 0.11833054
0001a0 62 e3 e5 3c 0a ff 21 be 5c 38 06 3d 60 36 58 3d
       0.028062526 -0.15819946 0.032768592 0.05278623
0001b0 a6 89 ad bd db 44 25 3d ca e5 e5 ba 18 06 b1 bd
       -0.0847352 0.04034887 -0.0017539796 -0.086437404
0001c0 7e 28 f6 bc af 59 27 3d 19 d7 c6 3d cc f6 9f 3d
       -0.030048605 0.040857013 0.09708995 0.07810745
0001d0 1e f1 77 3d 60 12 ad 3c 4e 55 a4 3d 93 bf e2 3d
       0.06053268 0.021126926 0.08024083 0.11071696
0001e0 3a 73 6c bd ea 85 a5 bd c1 ae 9f bd af f5 2a 3c
       -0.057727076 -0.08082183 -0.077970035 0.010434552
0001f0 9d c7 21 bd 9a 26 8b 3d 71 56 2f bd c6 56 2f 3e
       -0.039497007 0.06794472 -0.042807046 0.17122945
000200 ca 2c d8 bd 67 34 7c bb 57 2e 82 3b 3b f5 8a bc
       -0.10555418 -0.0038483383 0.0039728093 -0.016962638
000210 8a dc 01 bc 33 25 a2 bd 74 00 11 bd b7 b0 bd bd
       -0.007926116 -0.079172514 -0.035400823 -0.09262221
000220 dd f9 d5 bd 37 e6 0c be 96 4e ec 3d f0 77 fc 3c
       -0.10448048 -0.13759695 0.115384266 0.03081891
000230 be fb f2 3d 43 80 57 3b 30 f0 56 bd aa d2 18 bd
       0.11864422 0.0032882846 -0.052475154 -0.03731028
000240 cc b6 06 be 46 27 02 3e 56 2b 9f 3d c9 55 9e bd
       -0.13155669 0.12710294 0.077719375 -0.07731206
000250 0b 23 23 3d 85 65 b5 3d ed 47 82 bd 59 1f 83 bd
       0.03982834 0.08857254 -0.06361375 -0.064024635
000260 e3 42 93 bd 06 50 e5 bd 77 91 d7 3d 4c 9b 56 3c
       -0.07190492 -0.11196904 0.10525792 0.013098549
000270 b5 7c e7 bc b7 51 5c 3d 5a 15 b9 bd 31 fd b7 3d
       -0.028257707 0.053788867 -0.090372756 0.08983839
000280 f2 09 d9 bd 7a 73 be 3d 8e 91 b0 bd 3b 79 8f 3d
       -0.105976 0.09299369 -0.08621512 0.07005545
000290 f8 de 4e 3c ab 1d e3 bd f8 27 b2 3d 21 94 56 3d
       0.012626402 -0.11089643 0.0869903 0.05238736
0002a0 88 44 76 3d ae 95 8e 3d 90 c4 bb bd 08 04 e7 3c
       0.06012395 0.06962143 -0.09168351 0.028200164
0002b0 25 74 6e 3d c6 ec c6 3d 4d e1 e3 bd 33 1c 00 3c
       0.058216233 0.0971313 -0.11126957 0.007819223
0002c0 2e b6 a8 3d 1c 55 9d bd 7c f0 9f bd dd 1d 03 3e
       0.08237873 -0.07682249 -0.07809541 0.1280436
0002d0 b7 71 a1 3c a0 35 25 bd 56 30 c3 bd 88 6f 93 3b
       0.019707544 -0.040334344 -0.09530704 0.0044993795
0002e0 be cb e4 3c ec aa df 3d 7b 78 03 bd 8f 6b 71 3d
       0.027929183 0.10921273 -0.03209732 0.058940466
0002f0 b8 c3 9d 3d 9f 71 20 3d 74 a5 2b bd 44 53 c8 3c
       0.07703346 0.039170858 -0.041905835 0.024453767
000300 d8 2c 99 bc 2a f3 6f bd d9 e7 7a bd e1 af 11 bd
       -0.018698141 -0.05858151 -0.061256263 -0.03556812
000310 d9 70 13 bd 45 bc c7 bb bf 8a c4 3d d4 be 72 3d
       -0.03599629 -0.0060954415 0.09596776 0.05926402
000320 a1 59 0f 3d 04 c8 5c 3d 73 21 e2 3d 36 75 a5 bd
       0.034997586 0.053901687 0.11041536 -0.08078997
000330 1d 09 81 bc 58 22 b5 bd e3 ce 72 bd 54 ba 5e 3d
       -0.015751416 -0.08844441 -0.059279334 0.054376915
000340 ea f2 d7 3d 89 80 21 3d 12 d7 f2 bc fd 75 55 bc
       0.10544379 0.03942922 -0.02964357 -0.013028619
000350 bc 88 a2 bd ec 7b 53 3c 09 21 d0 bd 3e 70 cb 3d
       -0.07936236 0.012907963 -0.10162551 0.09933518
000360 3f 89 18 bc 19 76 0e 3c 1c b4 79 bd 9d c5 68 bd
       -0.009310066 0.008695149 -0.06096278 -0.056829084
000370 d7 09 35 3d 56 c7 03 3d 41 dc 41 3d 22 15 ae 3d
       0.044198837 0.032172523 0.04732919 0.085001245
000380 e5 74 a8 bd 60 0a e9 3d 24 2c 14 3c 31 48 e2 bd
       -0.08225421 0.11378932 0.009043727 -0.11048926
000390 54 51 97 3d 38 ea 9c bd 29 43 fb 3d 62 fb 86 bd
       0.07388559 -0.07661861 0.12268669 -0.06590916
0003a0 ae 36 0a bd 0e a0 4a 3d 5c 71 ee 3d 5d ed a9 bd
       -0.033743553 0.049469046 0.11642715 -0.082972266
0003b0 5d 05 48 3d c0 2b d1 bd a0 44 d3 3d 92 f8 15 bc
       0.04883324 -0.10213423 0.103158236 -0.009153502
0003c0 4c 4e 98 3d 57 8e a3 bd 02 08 8b 3b 55 2f c7 3d
       0.07436809 -0.079861335 0.004242898 0.09725825
0003d0 cf 7c 96 3d fd 1c b7 3d 94 3f 60 3d 3d cd c3 bc
       0.07348024 0.08941076 0.054748133 -0.023901576
0003e0 df 57 da bd 4a 51 29 3c f4 7c 16 be db be 00 be
       -0.10661291 0.010334322 -0.14696103 -0.12572806
0003f0 cb aa 4e 3d 75 ca b9 3d d6 56 98 3c 27 cb 12 be
       0.05045585 0.09071819 0.018596094 -0.14335309

rnn.0.rnn.bias_ih_l0 f4 [256]
000000 0f 67 e8 bd f2 46 af 3d 18 4f a5 bd ea 1b 01 3d
       -0.11347782 0.085584536 -0.080717266 0.03152076
000010 2c f6 72 bd 4c 8d 7f 3d 33 b6 36 bd ff 64 ae 3c
       -0.0593168 0.06239061 -0.044607352 0.021288393
000020 63 6e 07 3e a1 10 38 3d 20 03 ae 3d 44 16 d4 3c
       0.13225703 0.044937734 0.0849669 0.025889523
000030 24 06 c5 bd 4b a6 24 bc 12 3a b6 3c 4f 62 39 bc
       -0.09620312 -0.010049413 0.022244487 -0.0113149425
000040 9e af 84 3d 8a bc 94 3d ec cf 0a bd a4 97 6c 3d
       0.06478809 0.072625235 -0.033889696 0.057761803
000050 d0 06 18 bc 73 67 f2 bc cf b8 70 3d a0 5c 8e bd
       -0.009278968 -0.029590344 0.058769997 -0.069512606
000060 c9 66 23 3d a2 54 10 3d 77 f2 88 3d bb ff cb bc
       0.039892945 0.035236962 0.066868715 -0.024902215
000070 fc 2e 4c 3d 66 0a a2 bd 6f d0 ce bd 90 ce d1 bd
       0.049849495 -0.079121396 -0.10098349 -0.10244477
000080 c3 3e 47 bd 92 13 28 bd 0d 03 70 3b 4d 7c 6b 3d
       -0.04864384 -0.04103429 0.0036622912 0.05749159
000090 cd 64 f4 3d 6c 35 b1 bc 1b c2 c2 bc 2b 45 d4 3d
       0.11933289 -0.021631919 -0.023774197 0.10364755
0000a0 51 22 fd 3d c0 36 4e 3c 09 21 83 bc df e4 92 3d
       0.12360061 0.012586296 -0.016006963 0.0717256
0000b0 bd 24 c8 bc 24 34 eb bd 12 3e 8c bd 4d f6 3f 3d
       -0.02443158 -0.114845544 -0.068477765 0.04686575
0000c0 24 c5 ef 3d ed 83 87 3d f1 e4 d6 bc 7e 35 d2 3d
       0.117075235 0.0661696 -0.026232215 0.10264109
0000d0 a1 3a dd 3c 2f f0 bd bd 93 76 49 3c f4 40 af bd
       0.027005496 -0.09274327 0.012296337 -0.08557311
0000e0 9a b1 d5 3d f1 7f c0 3d 98 31 d7 bc ff e0 55 3d
       0.104342654 0.09399403 -0.026268765 0.052216526
0000f0 1d af 2e 3d 2c c0 74 bc f7 9b 8b bc d6 58 95 3d
       0.04264747 -0.0149383955 -0.017042143 0.07292335
000100 3b 8c 7b 3d 36 47 de 3d 59 5e 03 be 83 db e6 3d
       0.06141303 0.10853426 -0.1282896 0.11272337
000110 f8 11 95 bd c8 87 15 bc 02 e3 c5 bc c8 28 e0 bb
       -0.07278818 -0.009126611 -0.024156097 -0.006840799
000120 1d d2 b3 bc 55 92 12 bd 74 3f 21 3c 56 f9 dd bd
       -0.021950776 -0.035784084 0.009841789 -0.10838573
000130 2c bf c2 3d 68 2b b2 3b 94 4a 6b bd 39 83 e5 3d
       0.095091194 0.0054373033 -0.05744417 0.11206669
000140 aa bc aa bd b7 a9 eb 3d b3 14 15 bc 8b b1 af 3d
       -0.08336766 0.1150698 -0.009099173 0.085787855
000150 49 e4 56 bd 8e d4 fb bc 7f 0d dc bd f8 89 8c 3d
       -0.052463803 -0.030741002 -0.10744762 0.06862253
000160 1d d4 2e bd a4 be bc 3d 44 c6 88 bd 51 62 86 bd
       -0.042682756 0.09216049 -0.06678441 -0.06561721
000170 ec d7 63 3c 91 df 2a bc 5b 85 54 bd e0 37 b5 3d
       0.01390646 -0.010429279 -0.05188499 0.08848548
000180 6c ab a4 3d 41 d8 dc bd 0d fb 92 bd 3d b7 dc bd
       0.08040509 -0.10783435 -0.071767904 -0.107771374
000190 14 aa a3 3d e9 6c 87 3d 49 0f 8e 3d ef 9f cb bd
       0.07991424 0.0661257 0.06936509 -0.09942614
0001a0 c9 1c 2a 3d 2f fc d6 bd 34 c5 fd 3d d5 e6 e4 3d
       0.041531358 -0.10497319 0.12391129 0.1117684
0001b0 b0 8b b7 bd 01 29 cd bc 45 a1 a5 bc e6 96 80 3d
       -0.0896219 -0.025043966 -0.0202185 0.062787816
0001c0 d9 7b 2f bd 76 ac ad bd 7b 98 e4 bc 13 c7 2b 3d
       -0.04284272 -0.0848016 -0.02790474 0.0419379
0001d0 fc 31 9b bd f3 0b a0 3d 77 4a b9 bc 75 96 9a bd
       -0.07577893 0.07814779 -0.022618515 -0.07548229
0001e0 29 3e d1 3d 39 1e ea bd c6 14 98 3d e4 8c e4 bc
       0.10216934 -0.11431546 0.07425837 -0.027899213
0001f0 bc 63 ab 3d d0 f2 cc bd b3 74 65 bd 8d 8a 00 3e
       0.08368632 -0.1000725 -0.056019496 0.12552853
000200 47 fb c8 3d 8f 09 8e bd 33 df eb 3d a4 ca f8 bd
       0.09813552 -0.06935417 0.11517181 -0.12148026
000210 0a 2a 72 3a 12 86 cb 3d 5d 35 9e 3d d9 22 fe 3d
       0.00092378317 0.09937681 0.07725022 0.124089904
000220 90 8c 58 bd 65 b9 21 bc f5 c1 93 bd 53 39 92 bd
       -0.052868426 -0.009870862 -0.07214729 -0.0713984
000230 a1 75 39 3d b9 fa d4 3d 34 a5 76 3d 43 92 01 3c
       0.045278195 0.10399384 0.060216144 0.007908407
000240 ab 1f 83 3c f0 11 06 be e1 2a 9a bd 4c a7 b5 3d
       0.016006311 -0.1309278 -0.0752771 0.088698
000250 77 23 85 bc fc 34 70 bd 3b 55 44 bd 5a 38 ad bd
       -0.016252263 -0.05864428 -0.047932845 -0.08458014
000260 6d 1c 34 bd 9f 8f b7 bd 2e 08 d0 3d e4 c8 06 be
       -0.04397242 -0.089629404 0.1015781 -0.13162571
000270 5b a1 83 3d 75 89 00 bd 5b bf eb bd c3 42 9c 3d
       0.064272605 -0.03138109 -0.115111075 0.07629921
000280 bf 45 9f 3c bd bf c6 bd 72 73 05 3d 7a 21 08 be
       0.019442437 -0.0970454 0.0325808 -0.1329402
000290 9c 3c 81 3d 1d c0 31 3d 48 35 ea bc d2 7d b5 3d
       0.063103884 0.043396104 -0.02858986 0.08861889
0002a0 ad 96 7f 3d 6d 02 0e 3b 71 30 7c bd c0 9b a3 3d
       0.062399555 0.0021668926 -0.061569635 0.07988691
0002b0 a5 ba 10 be d5 7a c9 bd c5 4d 8a bd c2 b8 82 bd
       -0.14133699 -0.098378815 -0.067531146 -0.06382896
0002c0 1f 42 bd 3d f7 4f 0c be 5f 86 be bd 08 cd fc bd
       0.09241127 -0.13702379 -0.09302973 -0.12343794
0002d0 f3 5a 76 3d 42 b6 12 3d 57 f7 1b bd a8 b3 34 bd
       0.06014533 0.035818346 -0.03807768 -0.044116646
0002e0 f8 e3 b4 bd 12 2c ee bd 22 af 5b bd 86 08 98 bd
       -0.08832544 -0.116294995 -0.053633817 -0.07423501
0002f0 b3 38 83 bd f6 8d de 3d 5d b8 81 bd 5d a4 a2 bc
       -0.06407299 0.10866921 -0.06333993 -0.019853765
000300 f1 0b 99 bd dc 14 de 3d d5 d0 93 bd 22 18 13 bc
       -0.07472981 0.10843822 -0.07217566 -0.008977922
000310 1d 94 82 3d 1e 7e 68 3b a0 63 d5 bc a3 e4 67 bd
       0.063759066 0.0035475562 -0.026048481 -0.05661453
000320 0f 81 0f bd d3 f6 aa 3d 0e 7d 81 ba df 82 7e 3d
       -0.03503519 0.08347859 -0.0009879188 0.062136527
000330 55 14 ba bd 57 47 ef 3d 29 d8 06 3e fd 76 68 3d
       -0.09085909 0.11683529 0.13168396 0.0567541
000340 6d 91 bd 3c b6 3b 7c 3d 9c 5e a1 bc f4 2c d9 3d
       0.023140633 0.061580382 -0.019698434 0.10604277
000350 04 2c ee bd 0b 18 01 3e a5 cc ef bd c3 9e eb 3c
       -0.11629489 0.12606828 -0.11708955 0.028762227
000360 33 59 81 bd a1 d9 c2 3b ad ca 91 bd ed 3c a1 bd
       -0.063158415 0.0059463535 -0.071187355 -0.07872949
000370 cb 29 93 bd 37 8a 86 bd 38 34 01 be 2b ad d2 bd
       -0.07185706 -0.06569331 -0.12617576 -0.102869354
000380 3d 11 25 3d 3b 8b 33 3d 4d 39 93 3d ae 27 1e 3d
       0.040299643 0.043833952 0.07188664 0.03861206
000390 c0 63 f4 bd df 69 d6 bd a6 de 59 bd db 18 dd bd
       -0.11933088 -0.10469412 -0.05319085 -0.107957564
0003a0 f5 e2 52 bc a1 60 d3 bd 56 19 87 bd 73 9d 5f bc
       -0.012871494 -0.10321165 -0.06596629 -0.013648379
0003b0 e9 c0 af bd 6b 8f b0 3d 26 85 f0 3d 2e 01 67 3d
       -0.085817166 0.08621105 0.11744146 0.05639761
0003c0 02 6a 99 bc ae 30 9c bd 74 6b 34 3c e0 db c0 bc
       -0.018727306 -0.076264724 0.011011947 -0.023542345
0003d0 6f 3f 44 bd 9b c1 0e 3d 98 68 9e bd 45 22 db 3d
       -0.047912057 0.034852605 -0.077347934 0.10699896
0003e0 9d 66 04 3e 1e 56 f6 3d c1 3f 8e bc 9a a5 05 3e
       0.12929769 0.12028144 -0.017364385 0.13051453
0003f0 b1 fb de 3d 64 70 f3 3d 09 ea 0b 3c 6f ce 12 3e
       0.1088785 0.11886671 0.008539685 0.1433656

rnn.0.rnn.bias_hh_l0 f4 [256]
000000 1b e2 aa bd 2e f1 95 bc 88 35 c4 3d 32 58 7c 3c
       -0.083439074 -0.01830348 0.09580523 0.015401887
000010 90 2f ad bd 51 fe 65 bd d2 5d 95 3d d2 e9 d4 bd
       -0.084563375 -0.05615074 0.072932854 -0.1039616
000020 28 dc c2 3d 95 c5 9a 3d 45 bd 03 3e f0 5b db bc
       0.09514648 0.07557217 0.1286517 -0.026777238
000030 e2 19 d2 3b 28 81 93 bb e6 6c b3 3b 1d 99 b3 3d
       0.006411777 -0.0045014806 0.005475628 0.087694384
000040 0b 18 23 3b ae 21 ac 3d d3 f2 aa 3d 20 82 4c 3c
       0.0024886157 0.084048614 0.08347096 0.012482196
000050 01 1b c8 bd 2e f9 cc 3c 78 3f 0c 3b 44 2f 94 3d
       -0.097707756 0.025021162 0.0021400135 0.07235578
000060 bf 0e 76 3d 99 3b 7e bd 8f 7a a0 3d 90 d8 eb bd
       0.060072657 -0.062068556 0.07835876 -0.115159154
000070 bd d3 09 3c ca 06 a5 3d 4f 90 47 bd cd 05 05 bc
       0.008412299 0.080579355 -0.048721608 -0.008119059
000080 6c 40 c3 bc 60 e6 82 bd 19 e0 bf bd 8c c0 ad bd
       -0.02383443 -0.06391597 -0.09368915 -0.08483991
000090 d8 53 6e 3d 92 c5 ff bc 88 9c 04 be e3 74 dd 3d
       0.05818543 -0.031222139 -0.12950337 0.1081331
0000a0 a5 6a 87 3d a6 93 e5 3c 89 4d c2 bc 37 53 a0 3d
       0.06612138 0.028024506 -0.023718612 0.07828372
0000b0 cc 3b 07 3e ca f1 b2 3d 7c 04 89 3d d1 7a aa bd
       0.13206404 0.08737524 0.066903085 -0.083242066
0000c0 b8 d5 d3 bd 3f c1 5b bd c9 2d 12 bd 3f 07 a5 3c
       -0.10343498 -0.05365109 -0.035688195 0.020145057
0000d0 73 b9 c9 3d 5d 2f b5 bd ed 0d 48 bd 76 30 ff bd
       0.09849825 -0.088469245 -0.048841406 -0.12460415
0000e0 40 08 cf bd cb d2 c7 3d da 73 3c bd 7e 5a aa bd
       -0.101089954 0.097570024 -0.046008922 -0.08318041
0000f0 70 e1 8b bc fe e2 e0 bd 31 5c 1c bd 1a 3b a5 3d
       -0.01707527 -0.10980795 -0.038173858 0.08067913
000100 61 44 f8 3d 53 c7 e8 bd 8c f7 07 bd 82 55 04 3c
       0.12122417 -0.11366143 -0.033195063 0.008077027
000110 fb f4 ba bd 58 c4 c8 3d 6e 8f ea bd 16 59 fc 3d
       -0.091287576 0.098030746 -0.11453138 0.12321679
000120 78 6e 2b 3c 7d 0c f5 bd 1a 21 42 3d 56 52 f9 bd
       0.0104633495 -0.119652726 0.04739485 -0.121739075
000130 f8 3f 8b 3d 0a d7 7e bd af d3 61 3d 29 e0 c4 bd
       0.067993104 -0.062216796 0.055133518 -0.09613068
000140 94 78 ab 3d d6 4d ee bd e7 33 52 3d 7d b0 95 bc
       0.08372608 -0.1163594 0.05131903 -0.018272633
000150 c9 09 b2 bd 1f f4 3a 3d 61 f6 af 3d ba f2 c9 3d
       -0.086932726 0.04564297 0.08591915 0.098607495
000160 a2 6d d9 bc d0 78 5b bd 1f 3f b1 3d a8 53 f6 bd
       -0.026541535 -0.053582013 0.086546175 -0.12027675
000170 de 96 6f bd 29 cd a3 bd f5 ef 1a 3d 81 03 98 bc
       -0.058493488 -0.079981156 0.037826497 -0.018556358
000180 d7 f3 cd bc 4a 3d d2 3a 15 9c fc 3d 9d 75 d0 bd
       -0.025140686 0.0016039994 0.12334458 -0.10178683
000190 f4 b4 73 bd 1c 04 05 3c bb 47 20 bd 3f 84 bd bd
       -0.059498742 0.0081186555 -0.039130908 -0.092537396
0001a0 70 ca f4 3c 95 3d 9c 3d 91 6f 40 bd a7 89 c8 3d
       0.029881686 0.07628933 -0.046981398 0.0979188
0001b0 50 7f f6 bd b9 f9 0f 3b c1 04 84 bc 8d 58 1f bd
       -0.12036002 0.0021968915 -0.016115548 -0.038902808
0001c0 c0 b9 4d 3d f8 d9 da bd 86 53 c5 bd 6f d4 2c 3d
       0.050225973 -0.106861055 -0.096350715 0.04219478
0001d0 58 9e 9e bd 9d da 89 3d 4f 2a 10 be 19 a5 64 3d
       -0.077450454 0.0673115 -0.1407864 0.055821512
0001e0 e0 c0 46 3d 81 39 7e 3d 3e 4d b2 bd b0 21 f4 bd
       0.048523784 0.06206656 -0.08706139 -0.11920488
0001f0 57 7d 46 3d 2c 72 ea bd 67 cc 6a bd 3b 80 30 bd
       0.048459377 -0.11447558 -0.05732384 -0.04309104
000200 95 5a fe bd 6c 8b 8b 3d b5 4f cf bd e1 ca 2b 3d
       -0.12419621 0.06813702 -0.10122625 0.041941527
000210 83 af 16 bb 74 07 a6 3d ff 3a e7 bd 27 a0 82 bd
       -0.0022992797 0.0810689 -0.112905495 -0.06378203
000220 4e fe c1 bd de 96 4d bd b3 5f b6 bd d5 9a c8 3d
       -0.09472333 -0.050192706 -0.08904972 0.09795157
000230 ef 4e 81 3d 8d 3e 9d 3d 2f 52 28 3d 88 72 06 3c
       0.063138835 0.07677946 0.041094 0.008206017
000240 9b 14 3f 3d 7a 12 b0 bd 1d 1a fa 3d bd c6 25 3d
       0.04665051 -0.08597274 0.12212012 0.040472735
000250 11 b5 bd 3d c1 96 75 3d 8e ef b7 3d 99 1b 3b 3d
       0.09263051 0.059958223 0.08981238 0.045680616
000260 7b 0b f8 bc d2 81 0e be d0 91 a2 bc 80 13 7e bd
       -0.030278912 -0.1391671 -0.01984492 -0.062030315
000270 02 92 c2 bc a2 2a d2 3d 9f c3 94 3d 0f fd 95 bd
       -0.023751263 0.10262038 0.07263874 -0.07323658
000280 ef d5 d8 bc c7 b4 66 3d 57 db 5e 3d b0 c1 10 bd
       -0.026469199 0.056324746 0.054408398 -0.035340965
000290 af 70 0d be 0c 71 ff bd c3 7c 39 3b e2 3b aa bd
       -0.13812517 -0.12472734 0.0028303124 -0.08312203
0002a0 14 e7 e2 bd 56 6a 07 be f1 cc d3 3c d8 a7 b2 bd
       -0.11079231 -0.13224158 0.02585456 -0.0872342
0002b0 2e 1b 95 bc 4b 47 ef bd 6b 4a b6 3d be 62 f3 bd
       -0.018201437 -0.1168352 0.08900913 -0.11884068
0002c0 8f 1c 83 3d 01 f7 a7 3b a4 a8 0f 3d 0f f3 1d be
       0.064019315 0.0051258807 0.035072938 -0.15424751
0002d0 0b 3f 04 3e 1c 80 0d 3e 42 59 e6 3c 4d 3d d7 3d
       0.12914674 0.13818401 0.028118733 0.10509739
0002e0 52 64 5b bc c5 0a 21 bd 33 01 b4 bc ee 13 b0 bb
       -0.013390617 -0.03931691 -0.021973228 -0.0053734696
0002f0 ec 6a 0e 3e fd 34 6b bd 6c eb 8f 3d d1 d7 06 3e
       0.13907975 -0.05742358 0.07027325 0.13168265
000300 dd f6 18 3d f7 51 3c 3d fb 1e e1 3d 31 d1 db bd
       0.037344802 0.045976605 0.10992237 -0.107332595
000310 3f fc 4d bb e9 a3 76 bd 56 5c a2 3d 6f 80 b1 bd
       -0.0031430868 -0.06021491 0.07927768 -0.08667075
000320 2c ff ce bd a3 d2 2f bd 76 28 8b 3d a8 c1 ef 3d
       -0.10107264 -0.04292549 0.06794827 0.11706859
000330 a7 ce 80 bc c3 ad b7 3b 26 9a 15 3c 77 36 8e 3d
       -0.01572354 0.005605431 0.00913099 0.06943982
000340 04 64 cd bd f7 43 d8 bd c7 d8 c5 3d 73 8e 37 3d
       -0.10028842 -0.10559838 0.096604876 0.044813585
000350 59 cf 61 bd b4 de 49 3c 06 27 1e 3d 68 f5 33 bd
       -0.055129383 0.012321163 0.038611434 -0.04393521
000360 40 04 cc 3d 18 23 0d 3d 9d 05 6c 3d 95 b5 c1 3d
       0.09961748 0.034457296 0.05762254 0.09458462
000370 75 48 0a bc 50 01 2b 3e e9 e7 06 bd 49 bf e4 bd
       -0.008440127 0.1669972 -0.03293601 -0.11169297
000380 69 c0 f6 3d c1 a3 e0 bc 24 ce 13 bc 6d a3 01 3e
       0.12048418 -0.027421834 -0.009021316 0.12659998
000390 ea f4 dd bb e3 dd ce bd 63 5f 98 bd 0a ca 55 3d
       -0.006773581 -0.10100915 -0.074400686 0.052194633
0003a0 8c c2 bf bc af 4c 4a 3d ea 7b 45 bd 1a f3 b8 bd
       -0.023408197 0.049389537 -0.048213877 -0.09030743
0003b0 31 49 52 bd b6 b1 83 bd fd d1 56 bd 39 2d a3 bc
       -0.051339332 -0.0643038 -0.052446354 -0.019919025
0003c0 ea 31 83 3d 89 e7 2c 3d d4 27 a5 bd 57 d8 99 3d
       0.06406005 0.042212997 -0.08064237 0.07511967
0003d0 77 5c 30 bd 10 8d a6 bd b0 90 94 bd a5 6e ec bd
       -0.04305693 -0.08132374 -0.072541595 -0.11544541
0003e0 f3 1f 87 3d 2a c3 bb bd f2 9a 0a bd d2 9a 53 3d
       0.06597891 -0.09168084 -0.033839174 0.05166132
0003f0 0e cc 6b bd 2c 8f 45 bd 08 06 de bd 0d 8d ff 3d
       -0.05756765 -0.048232242 -0.10840994 0.12478075
