ckpt/HUST/wx_inner_pretrain_end.pt (torch, 320497 bytes, 20 tensors)

cnn.conv0.weight f4 [8, 4, 3, 1]
000000 90 96 f0 3b 22 1a 28 3e 56 db 69 be d4 39 4e be
       0.007342167 0.16416219 -0.22837576 -0.20139247
000010 22 b8 ce bd e5 e3 b1 3d b4 db 43 bc d3 f7 61 3e
       -0.10093714 0.086860456 -0.011954237 0.22067194
000020 fe d5 01 bd 34 a7 9c 3d 56 13 b3 bd 55 75 6a bd
       -0.03169822 0.07649079 -0.087439224 -0.057240803
000030 57 1a 1d be cc e9 8c bd c9 29 52 3b d7 e7 bd 3d
       -0.15342079 -0.06880531 0.0032068363 0.092727356
000040 52 d9 49 3e c5 a9 83 3e a1 d9 9a bd 24 47 0f bb
       0.19711807 0.2571546 -0.07561041 -0.0021862471
000050 17 b9 6a 3e 0b 34 52 3e 57 4f b9 bd 30 af 40 3e
       0.22922169 0.20527665 -0.09048336 0.18816829
000060 55 68 70 bc 80 8b 80 3d 35 48 96 3e ce b0 57 be
       -0.014673312 0.062766075 0.29351965 -0.2106354
000070 81 3a ff bd cf 45 83 bc d5 a7 d7 bd 71 74 84 3e
       -0.124623306 -0.016024498 -0.10530058 0.25870088
000080 52 63 39 be 25 c9 34 be 5c 8b 7b be b3 17 a1 be
       -0.18104294 -0.17654856 -0.2456488 -0.31463394
000090 3e 8e 2c be 9c 19 7e 3e 54 e7 03 3e 54 45 0f 3e
       -0.16851136 0.24814457 0.12881213 0.1399129
0000a0 60 bd 78 3c 0b 8d 17 be d8 0b 48 3d 6b 00 8a be
       0.015181869 -0.14799897 0.04883942 -0.26953444
0000b0 ce 97 55 be 73 64 18 be e2 81 3a 3e 8a 51 2d 3e
       -0.2085869 -0.14882068 0.18213609 0.16925636
0000c0 5b 30 f4 bd 93 0b cc ba a7 18 46 3e dd 08 9b 3e
       -0.119232856 -0.0015567414 0.19345342 0.302802
0000d0 a6 97 05 3e e9 1d 61 3d c2 c9 47 3e 5c f9 27 be
       0.1304613 0.054960165 0.19510558 -0.16403717
0000e0 f3 d3 70 3d f9 50 6b be 59 fd 52 be dc ca 1e be
       0.05879588 -0.22980107 -0.20604457 -0.15507072
0000f0 93 c4 06 3e 98 c8 ef 3d 37 2f 2e be 34 52 cb 3d
       0.13160925 0.11708182 -0.17010199 0.099277884
000100 77 ea 2e 3e 2c 26 c3 bc 75 8a 04 3c 8b 7d 86 3d
       0.17081629 -0.023821913 0.008089651 0.06566914
000110 4a b5 37 3e 93 a5 90 3e b2 21 5e be 7a e8 cc bd
       0.1794025 0.28251323 -0.21692541 -0.10005279
000120 eb 4b 09 3e 65 24 85 3e 9f 42 8b 3e ce 8b 8b 3e
       0.13407867 0.2600433 0.27199265 0.272551
000130 06 24 9c 3d 72 d8 6c be 5d 08 2a 3d cc de 22 be
       0.076240584 -0.23129442 0.041511882 -0.15905303
000140 2c 56 7e be 8a 82 5b 3e 0d 9c 36 3e f5 07 a8 be
       -0.2483756 0.21436515 0.17832966 -0.3281857
000150 d6 9d eb 3d 97 aa 45 3c 4d 79 50 3c 03 0e ae bd
       0.11504714 0.012064598 0.012724233 -0.08498766
000160 08 23 21 3e 76 71 00 be 4b c9 ea 3d 7f 84 21 3e
       0.1573602 -0.12543282 0.11464175 0.157732
000170 4b 5f 5e 3e da e1 a9 bc dd 86 d4 be cf 79 a2 be
       0.21716039 -0.020737577 -0.41509143 -0.31733558

cnn.conv0.bias f4 [8]
000000 d0 92 48 3e 24 99 ca 3d 88 57 38 be d3 36 2a be
       0.19587255 0.098924905 -0.1800214 -0.16622476
000010 85 26 8e 3e e6 a7 34 3e 42 3c 23 be 7f 85 32 3d
       0.27763763 0.17642173 -0.15940955 0.043584343

cnn.conv1.weight f4 [16, 8, 3, 1]
000000 36 e1 59 be b5 93 f3 bc ba c3 40 be 4d 13 e9 bd
       -0.21277317 -0.029733518 -0.18824664 -0.113806345
000010 6b 78 13 3d c8 fb a6 3d 73 5f b8 bd 7e ea ea 3d
       0.03600351 0.08153492 -0.090025805 0.11470507
000020 61 d7 05 be 4e a9 3d 3e 58 3e 0f 3e 01 44 30 be
       -0.13070442 0.18521616 0.13988626 -0.17213441
000030 b9 65 1f bd ea 6d ae 3c c8 3b 2c 3d 4b e3 77 3d
       -0.03891537 0.021292645 0.0420492 0.060519498
000040 e0 02 bd 3d 7f c0 c8 3c c7 fa c7 bd 15 23 cd 3d
       0.09229064 0.024505852 -0.09764629 0.10016457
000050 45 31 43 be 44 c0 49 be cb df 03 be 19 ef 36 be
       -0.19061764 -0.1970225 -0.12878339 -0.17864646
000060 8c 3e f9 bd 5f 08 64 be a7 b9 d4 bd 35 b1 a1 3d
       -0.12170133 -0.22268818 -0.10386973 0.07895128
000070 db 08 c1 bd 86 d7 d6 3c ca 35 14 3e 35 62 b7 bc
       -0.09425517 0.026225816 0.14473644 -0.022385696
000080 73 c7 b7 3b f0 41 90 bc a4 35 29 3d b8 e7 04 3e
       0.005608493 -0.017609566 0.04131092 0.12979019
000090 e1 65 4f 3e e1 45 0e 3e a6 0f 50 3e 15 05 b8 bb
       0.20253707 0.13893844 0.2031847 -0.00561584
0000a0 35 28 32 be ba 92 b2 bd 2b 35 22 3e c6 8b 8d 3c
       -0.1739815 -0.08719392 0.15840594 0.017278563
0000b0 02 10 ac bd 47 0a 58 be e2 d7 7b be df 7a 6b be
       -0.08401491 -0.2109767 -0.24594072 -0.2299609
0000c0 1c 97 29 bd 54 42 e5 3d 54 03 e2 3d ad 96 49 be
       -0.041403875 0.11194292 0.11035791 -0.19686384
0000d0 88 62 02 3e 05 90 23 be 30 c2 30 bd 9e 81 a9 bd
       0.12732899 -0.15972908 -0.04315394 -0.08276676
0000e0 50 0b 21 bd 20 29 24 bd 20 91 3b be 7e 7a 34 be
       -0.03931743 -0.040078282 -0.1831708 -0.17624852
0000f0 d0 d4 02 bd 00 00 2d 3b 6e e8 bd bd 4c 7a 9d 3d
       -0.031941235 0.0026397705 -0.09272848 0.07689342
000100 0e 22 3c be d0 b3 61 bc aa d1 37 3e 89 84 aa bd
       -0.18372366 -0.013775781 0.17951074 -0.0832606
000110 a0 bf 3c 3e a4 65 97 3d 9d a2 3c be 96 3f 04 3e
       0.18432474 0.07392433 -0.18421407 0.12914881
000120 ad f6 32 3d 58 53 7f bc 1a 48 7d 3e 56 03 00 be
       0.04369228 -0.015583836 0.24734536 -0.12501273
000130 31 5d 6c 3d 45 e4 32 bc 73 56 17 3c c5 3f 53 bd
       0.05770606 -0.0109186815 0.00923692 -0.051574487
000140 2c 41 96 3c 04 a3 93 3d 20 0f 49 bd b8 d5 2f bd
       0.018341623 0.07208827 -0.04908669 -0.042928427
000150 38 d2 1f be 46 2e f9 3d e7 74 30 3e cd af 1f 3e
       -0.15607536 0.12167029 0.17232095 0.15594406
000160 bc 9f 03 be a4 88 c0 3c bc 34 57 be aa 82 40 be
       -0.12853903 0.023502655 -0.2101621 -0.18799844
000170 ff ab 4a be 99 92 48 3d ff 23 10 be 97 e1 b5 bc
       -0.19792174 0.04896793 -0.14076231 -0.022202296
000180 93 99 15 3d 31 5c 27 3e d9 ef f1 bd 4f 5f fa bd
       0.036523413 0.16343762 -0.118133254 -0.1222521
000190 18 71 d4 bd 1c 88 1e 3e c4 be 96 bd 34 ea 49 3e
       -0.103731334 0.15481609 -0.073606044 0.19718248
0001a0 b3 bb f3 3d 00 be d3 3c 00 2a c7 ba b4 47 25 bd
       0.11901035 0.025847435 -0.0015195012 -0.040351585
0001b0 58 bb 14 3d 7d 0e 14 bd b3 2d 11 3c 62 78 10 3d
       0.036311477 -0.03614663 0.008860993 0.035271056
0001c0 e4 4e 1a be e8 29 c9 bd be 0b 32 3e ea 4c 1f be
       -0.15069157 -0.09822446 0.17387292 -0.15556684
0001d0 c5 bb 2e bb c9 88 7f 3e 50 33 fb 3d 85 66 64 3d
       -0.0026662212 0.24954523 0.122656465 0.055761833
0001e0 3b 24 35 be 44 17 cf 3d 16 e2 14 be 38 56 6d bd
       -0.17689602 0.101118594 -0.1453937 -0.057943553
0001f0 e8 42 8c bd 28 a1 f7 bc c0 53 12 3b 62 67 2c 3e
       -0.06848699 -0.030228212 0.002232775 0.16836312
000200 f0 c0 d0 3c 74 38 3b 3e 60 b9 ff 3d b8 25 04 be
       0.025482625 0.18283254 0.12486529 -0.12905014
000210 d8 7e bb 3d f4 c1 13 be b3 2d b1 bd f0 e9 75 3d
       0.09155053 -0.14429456 -0.086512946 0.060037553
000220 1c 09 8a 3d a4 d0 1c 3e 62 93 86 bd 00 52 ab 39
       0.06740019 0.15313965 -0.0657108 0.00032676756
000230 58 38 d7 3d 07 25 4a be a2 1e 17 3e 8e d8 2c be
       0.105087936 -0.19740687 0.14757779 -0.16879484
000240 d4 79 ed bd 23 9a 24 be 8a 1b 73 be 5a 9f af 3d
       -0.115955025 -0.16074423 -0.23740974 0.08575316
000250 10 c9 6d 3e d4 cb f5 3b 6b 3d 21 bd c0 a3 aa bc
       0.2322123 0.007501105 -0.039365213 -0.020830035
000260 4b a8 2c be 1c b4 bc 3d bf c5 c8 bd 54 7d 0b be
       -0.16861074 0.09214041 -0.09803342 -0.13622028
000270 28 1a e6 bd 29 88 fb 3d 3c a9 e8 3d 60 de 27 3e
       -0.11235458 0.1228183 0.11360404 0.16393423
000280 e8 96 a7 3d ec a0 75 bd 28 a7 d9 bb c8 b4 e1 3d
       0.0818308 -0.05996792 -0.006642241 0.110208094
000290 9a 1c 5d 3e 9f 11 08 bd e1 68 3f be a8 82 42 be
       0.21592942 -0.03321993 -0.18692352 -0.18995154
0002a0 24 c0 62 be 46 87 80 3c 72 11 12 be 09 e3 53 be
       -0.22143608 0.015689503 -0.14264467 -0.20692076
0002b0 0f e0 1d 3e 2c f8 20 be 51 cc 12 bd 58 61 34 3d
       0.15417503 -0.1571967 -0.035839383 0.044038147
0002c0 5f df 29 bc d9 a5 0c be 3b f5 28 be d2 9b 26 3e
       -0.010368197 -0.13735141 -0.16499798 0.16270378
0002d0 cc df 7a 3c 93 00 1b 3e 1d 0f b1 bd 84 d8 29 3d
       0.015312146 0.15136938 -0.08645461 0.04146625
0002e0 27 d0 85 bd 1b fc e2 bc 2c 3f 0a be 7f 2e 6d 3d
       -0.065338425 -0.027708104 -0.1350066 0.05790567
0002f0 40 b6 55 3d 86 41 86 bc 4c de 6a bd bb d5 0a be
       0.05217576 -0.016388666 -0.057340905 -0.13558094
000300 82 8c 10 3e 14 9a 1b be 54 42 ab 3d cc 91 8c bd
       0.141161 -0.15195495 0.083622605 -0.06863746
000310 a7 b1 c9 bd 2c 33 16 3d 35 28 d9 bd c8 a3 40 3d
       -0.098483376 0.036669895 -0.10603372 0.047031194
000320 4c 31 24 3d 8e 32 1b be 4c 35 0b 3d e0 0e b2 3d
       0.040086076 -0.15156004 0.033986375 0.086942434
000330 c4 79 a5 3d 10 7e d2 bc c6 5a 2b be 18 e3 00 bd
       0.080798656 -0.025694877 -0.16733846 -0.031466573
000340 d0 30 91 3d 18 89 98 bd b4 ae 9e 3d 9a 33 0b 3e
       0.07089388 -0.074480236 0.07748166 0.13593903
000350 95 48 da bd 40 ed 03 3b 98 dc ac 3d f0 0f 83 3c
       -0.10658375 0.0020130426 0.084405124 0.01599881
000360 92 7f 75 bd c4 26 81 bd e9 3c 86 be 30 2f 8e 3d
       -0.059936114 -0.06306222 -0.26218346 0.06942594
000370 37 c1 4e 3e f0 da 80 3e 56 23 08 3e ab ed a5 3c
       0.20190893 0.25167036 0.1329473 0.02025493
000380 54 bc 96 3d fa 5e cb bd 0d 37 2d be 50 be 33 be
       0.073601395 -0.09930225 -0.16915531 -0.17553067
000390 73 82 61 3e 70 0a 16 3e cc a6 fd bd 34 8e bd 3d
       0.22022419 0.14652419 -0.123853296 0.09255639
0003a0 31 70 2b 3e b5 11 5f 3e 47 e0 4f 3e d0 21 3a 3e
       0.16742016 0.21784098 0.20300399 0.18176961
0003b0 f5 e1 cb bc 02 e1 81 bc 89 d6 64 3e 35 b5 2c 3e
       -0.024888018 -0.015854362 0.22347464 0.16866
0003c0 6c cc 9a bd 22 8e 73 3e ee 8b 22 3e f1 eb f6 3d
       -0.07558522 0.23784688 0.15873691 0.12056721
0003d0 4a 18 fd bd a5 4b 73 3d da 91 ef bd eb 8f 15 3e
       -0.123581484 0.059398312 -0.11697741 0.14605682
0003e0 55 32 bf bc 28 c0 a2 3d 20 82 14 3d 8c dd b1 3d
       -0.02333943 0.07946807 0.03625691 0.08684835
0003f0 2b 53 89 bd 01 a3 cf 3d 7e 53 10 be d9 a7 47 3d
       -0.06705316 0.101385124 -0.1409435 0.048744056

cnn.conv1.bias f4 [16]
000000 fb f2 98 3c 1a a3 67 bd 00 cb 35 bd fc fa 5e 3d
       0.01867055 -0.05655203 -0.04438305 0.054438576
000010 24 22 e5 3d 83 70 12 be 20 83 2f 3e bc 81 2d bd
       0.111881524 -0.14300732 0.17139864 -0.042360052
000020 67 26 2f be 1e 34 d1 bd 3d b0 40 3e b1 61 3a 3e
       -0.17104493 -0.10215019 0.1881723 0.18201329
000030 3a 6f 3b be a2 15 09 3e bc b3 d7 3d 30 0a 53 3e
       -0.18304148 0.13387159 0.105323285 0.20609355

cnn.conv2.weight f4 [64, 16, 3, 1]
000000 45 71 04 3e 81 69 90 bd 71 9e 57 3d 09 95 85 3d
       0.12933834 -0.07051373 0.052641336 0.06522567
000010 73 de 14 bd b2 bc 60 3d 1c 19 2a bd 96 c2 b6 3d
       -0.036344957 0.054867454 -0.041527852 0.08923833
000020 74 08 24 bd fb 9b 4b bd ed dc 24 3d d3 97 5e 3d
       -0.040047124 -0.0497093 0.040249754 0.05434401
000030 c7 d2 93 bd 2e 19 2a 3c ba cf a3 3d e0 4a 6b bc
       -0.07217937 0.01038198 0.07998605 -0.014361113
000040 9c ec 33 3d 62 97 0e bd 1c b8 6d 3d 0f a2 c6 bd
       0.04392682 -0.03481234 0.05803691 -0.09698879
000050 4f 2b 9e bd 55 fa 84 bd 3b 36 0e 3e 40 14 09 bd
       -0.07723104 -0.064930595 0.13887875 -0.033466578
000060 00 9e ce b9 ef 37 8f bd 86 8c 13 3e 53 d6 18 3e
       -0.000394091 -0.0699309 0.14409074 0.14925508
000070 00 37 ce bd 85 0c df bd 1a e9 d5 bd 8d 8d 51 3b
       -0.10069084 -0.1089106 -0.10444851 0.003197524
000080 57 f3 08 bd 39 60 b4 bd f6 4a 39 bd 39 09 0b 3d
       -0.033435192 -0.088074155 -0.045237504 0.033944342
000090 28 87 54 bd 5e 8c 32 3d a1 38 a7 bc ea d5 74 bd
       -0.051886708 0.043590896 -0.020412745 -0.059774317
0000a0 0c 8f f9 3c d8 eb 04 3e 96 fd b7 bd 93 3e 6a 3c
       0.030463718 0.12980592 -0.089839146 0.014297145
0000b0 be 2e 3c bd 20 44 ed 3d f7 4c 3b be f2 ee 56 be
       -0.045943014 0.115852594 -0.18291079 -0.20989588
0000c0 3c a4 11 3e 78 06 bb bd 40 b2 e2 3c 35 f0 d2 bc
       0.14222807 -0.09132093 0.027672887 -0.025749305
0000d0 d7 02 1d bd 72 0b 04 bd 9e d6 bb 3d 20 10 e2 3b
       -0.038332786 -0.032237478 0.09171794 0.006898895
0000e0 e0 e6 0f be 98 94 d1 bd 3a ec 86 bd dc 46 6a 3d
       -0.14052916 -0.1023342 -0.065880254 0.057196483
0000f0 2b b2 e2 bd f4 d4 f2 3d f2 a0 4c bd 04 51 d4 bc
       -0.11069139 0.11857024 -0.049958177 -0.025917538
000100 54 9f e7 3d 90 92 94 3d cc c9 be 3d 6c 6f 5d 3d
       0.11309686 0.07254517 0.093158334 0.05406134
000110 61 d5 94 bd ea 1f c4 bd 40 f3 2f bc 04 a7 f4 3d
       -0.07267261 -0.095763996 -0.010739148 0.11945918
000120 b0 6b 46 bd 1b 11 09 be 38 5a 72 3d 0f 61 f6 3d
       -0.048442543 -0.13385431 0.05916807 0.12030231
000130 c8 fe 79 bd b8 bc 0e be 2d fd 17 be c5 f3 9b 3c
       -0.061033994 -0.13939178 -0.14842673 0.019037137
000140 d7 82 e4 bc 29 f1 bf bd 8d 62 08 3c e7 4a 0b 3d
       -0.02789442 -0.093721695 0.008324278 0.03400698
000150 90 1f dd 3d 4a 1f c2 3d bb 74 47 bd 91 b4 11 be
       0.10797036 0.09478624 -0.048695307 -0.14229037
000160 2b 98 05 be 3a 00 0a 3e ea a9 0c 3d f3 03 09 3d
       -0.13046329 0.13476649 0.03434173 0.033451032
000170 64 d2 1e be 4c c1 ed 3d e5 d4 f3 3d 6d 23 e6 3d
       -0.15509945 0.11609134 0.11905841 0.11237226
000180 75 fb 11 be ea 0f 9b bd 89 e5 f4 bd 2d 49 f9 3d
       -0.1425608 -0.07571395 -0.11957843 0.1217216
000190 b0 49 a4 bd ef 64 b1 bd d2 de 9a 3d 6d be 88 bd
       -0.08021867 -0.0866183 0.07562031 -0.06676946
0001a0 58 97 91 bd 35 17 e7 bc bc f9 11 bd 9a 13 0f be
       -0.07108945 -0.028209308 -0.035638556 -0.13972321
0001b0 0d cc 03 3e e4 2a 2b bd 71 69 b0 3d 34 8e 00 3e
       0.12870808 -0.04178895 0.08613861 0.12554246
0001c0 e0 13 95 3d e8 67 a7 3c f7 96 e9 3d 23 b0 00 3c
       0.072791815 0.020435289 0.114057474 0.007854494
0001d0 bb ab a5 bd 6f 9b f6 3d 6c 74 83 3c 04 31 23 be
       -0.080893956 0.12041365 0.016046725 -0.15936667
0001e0 c2 4f 28 bd fa 5a c9 bd e6 95 01 3e ad 4e aa bc
       -0.041091688 -0.098318055 0.12654838 -0.020789469
0001f0 da 49 08 be 4e 09 7a bc f1 d7 af 3d be 87 37 3d
       -0.13309422 -0.0152610075 0.085861094 0.04480719
000200 59 f4 8d 3d fd e4 bd 3b 28 58 3a 3d 4c 49 36 bd
       0.06931371 0.00579512 0.04549423 -0.044503495
000210 22 12 5e 3d 11 1d 8e bd 2f 28 86 bd 49 5b 43 3d
       0.05421651 -0.06939138 -0.06550633 0.04769448
000220 f6 0e ce bd 63 6d a1 3b 99 41 12 3d 0f d4 91 bb
       -0.10061447 0.00492637 0.03570709 -0.004450328
000230 b3 1a e3 bd 4d c5 28 3e e8 34 39 bd bc d4 2e 3e
       -0.11089077 0.16481514 -0.04521647 0.17073339
000240 f6 d2 fd bd 0e d1 33 bd 10 59 8e 3d 9d 79 8e bd
       -0.12393753 -0.043900542 0.06950581 -0.0695679
000250 3f f4 e2 3d 9a 58 e0 bd 40 3d f8 bd 0f 4b 85 bd
       0.110817425 -0.109543994 -0.121210575 -0.06508457
000260 38 23 bf 3c a6 1f f5 3d e5 75 a8 bd 9e 7f 1c 3d
       0.023332223 0.11968927 -0.082256116 0.038207643
000270 62 fe 4e bd d4 f7 3c bd bc f9 b9 3d a2 16 e5 bd
       -0.050535567 -0.046134785 0.09080836 -0.111859575
000280 10 2d 7b 3c 7a fe 0a 3e be b6 02 bd 70 14 cd 3d
       0.015330568 0.13573638 -0.031912558 0.10013664
000290 45 c9 66 bd f9 22 da 3d 9f 85 18 be b7 9b f9 bc
       -0.05634429 0.10651202 -0.14894722 -0.030469758
0002a0 c8 af cf bc e8 99 3f 3d 54 f2 67 3d fc 4f c8 3d
       -0.025352374 0.046777636 0.056627586 0.09780881
0002b0 36 89 0c bd ae d1 97 bc 87 4e aa 3d 82 7a 66 bd
       -0.034310542 -0.0185326 0.08315759 -0.056269176
0002c0 03 7d dc 3d 5e ba dd bd 46 6d e2 bc 74 e8 a1 bc
       0.107660316 -0.10826562 -0.027639996 -0.019764163
0002d0 60 67 48 3d 3d 95 ae 3d 11 20 10 bd b4 b9 05 be
       0.04892671 0.08524559 -0.03518683 -0.13059121
0002e0 5e 25 78 3d 03 57 04 3d 9c 78 3d 3d 96 7c ce bd
       0.06058251 0.032309543 0.0462576 -0.10082357
0002f0 65 f2 a5 3d 8c b4 97 3d fa fc cc bd 46 21 a3 be
       0.08102874 0.074074835 -0.10009189 -0.31861323
000300 b4 82 cf 3d eb 2c db bd e4 e6 07 3d 60 d3 ab 3c
       0.101323515 -0.10701927 0.03317918 0.020974815
000310 69 5a 8a bd 04 db 4d 3d da 32 04 be 24 a7 06 3d
       -0.067555256 0.050257698 -0.12910023 0.03287424
000320 e4 65 bb bd a0 b7 7f bc a8 17 98 3c 70 d6 fb 3d
       -0.091502935 -0.015607744 0.018565968 0.1229676
000330 d1 09 8d bd ca 5f bd 3d e0 34 96 bc e6 63 8c bd
       -0.06886638 0.09246786 -0.01833576 -0.068549916
000340 a5 b4 00 be 5a 9c 07 be 3e 58 10 3e 5a 72 13 bd
       -0.1256891 -0.13243237 0.14096162 -0.035997726
000350 a0 3d ec 3b 8c 48 20 3d 5c ee c8 3d 30 4a fc 3d
       0.0072094947 0.039131686 0.098110884 0.12318838
000360 48 bd ef 3d ec 01 db bd 48 71 bd bc 6c eb ae bd
       0.117060244 -0.10693726 -0.023125306 -0.08540997
000370 bc e4 a8 bd 08 3d 0c 3d d6 bb 0a 3e 1a cf ec bd
       -0.082467526 0.03423789 0.13548216 -0.11562939
000380 84 e6 b2 3d af 42 99 bd c0 4d e6 bc 2c a4 ea 3d
       0.087353736 -0.07483422 -0.028113246 0.114570946
000390 a0 b6 05 bd c0 54 57 3c e8 a2 ce bd 30 a1 fb 3d
       -0.032644868 0.013142765 -0.10089666 0.122866035
0003a0 b0 d9 98 bc 93 33 d8 bd 84 1c 2d 3d da 2d d2 bd
       -0.018658489 -0.10556712 0.042263523 -0.10262652
0003b0 3c 90 ea bd 30 10 10 3c 00 5e ea 3d 52 4d 27 bd
       -0.11453292 0.008792922 0.1144371 -0.040845223
0003c0 be c4 9f 3d da 12 0a 3e 62 72 da 3d 40 92 88 bd
       0.078011975 0.13483754 0.10666348 -0.0666852
0003d0 ee 11 d3 bb 0c 3e 12 bd 90 b3 ed bd 00 20 7a 38
       -0.0064413464 -0.035703704 -0.116065145 5.9634447e-05
0003e0 1c 6c de 3d 6a aa 04 3e e9 97 ae 3c cd 53 23 3d
       0.10860464 0.12955633 0.02131267 0.03987484
0003f0 9b 26 75 bd f2 41 e2 3d a7 87 79 bd 78 57 cd bd
       -0.05985127 0.11047734 -0.060920384 -0.10026449

cnn.conv2.bias f4 [64]
000000 a4 af 18 3e 0d 95 15 be ae 82 e9 3d 03 83 d4 3c
       0.14910752 -0.1460764 0.11401878 0.025941378
000010 ca b6 06 be 5e 5b 0c 3e bc dc 4b bd 22 b0 49 bd
       -0.13155666 0.13706729 -0.049771056 -0.04924024
000020 17 08 01 be ee 08 fa bd 1d 6a e1 3d 02 2e 11 be
       -0.12600742 -0.122087345 0.110065676 -0.14177707
000030 34 f1 72 3d 44 f2 1f bd 48 7b 4f 3d 63 52 13 bd
       0.05931206 -0.039049402 0.05065468 -0.035967242
000040 bf a6 83 3d 83 18 90 3b 66 6c d6 3d 40 87 70 bd
       0.06428289 0.0043974533 0.10469894 -0.058722734
000050 5e 54 cb bd 2d a3 fc 3a 2e 33 cb bd 58 3f b7 bd
       -0.09928201 0.0019274704 -0.09921871 -0.08947629
000060 11 1f 0e be 29 34 d6 bb 8c ae d9 bd b7 92 00 3e
       -0.13879038 -0.0065369797 -0.10628995 0.12555967
000070 cd 9f e2 3d 1e 10 65 3d 45 03 de 3d 28 8f 5a 3d
       0.11065636 0.055923574 0.10840467 0.05335918
000080 85 3b 0b be f0 9c 6c bc 98 ee bf bc c0 7a b3 bd
       -0.13596924 -0.014441714 -0.0234292 -0.08763647
000090 42 66 3f 3d 4a 1a e4 3c ec 59 8d bd dc 94 49 3c
       0.04672838 0.027844567 -0.06901917 0.012303557
0000a0 bf 97 dc bd 7a b4 f6 3d d8 7a d6 3d b7 ff 15 3e
       -0.10771131 0.12046142 0.10472649 0.14648329
0000b0 b4 6c 15 bd b5 1c 76 3d 80 3c be bb 11 9b f4 bd
       -0.03648062 0.06008597 -0.005805552 -0.11943639
0000c0 76 4c 01 3e a6 f3 db bd 56 0b 83 bd 22 65 12 bb
       0.12626824 -0.107398316 -0.063986465 -0.0022338112
0000d0 d5 30 10 be 06 91 63 3c 6c f2 2a bc b0 cf 2f bc
       -0.14081128 0.013889557 -0.010433774 -0.010730669
0000e0 86 04 ce 3d 80 c6 e2 3b b1 b2 2b bd 19 3c a1 bd
       0.100594565 0.0069206357 -0.04191846 -0.07872791
0000f0 aa 57 c4 bd c0 1a a8 bc a9 7d ad bd 64 00 c3 bd
       -0.09587033 -0.020520568 -0.084712334 -0.09521559

rnn.0.rnn.weight_ih_l0 f4 [256, 64]
000000 bb ca 40 bc 66 32 a7 bc ae f4 47 bd de e4 97 3d
       -0.011767085 -0.020409774 -0.04881733 0.074167
000010 92 1b d9 3d c5 f7 a2 bd 53 45 60 3d 36 52 6a bd
       0.10600962 -0.079574145 0.054753613 -0.05720731
000020 4c 58 fb bd 26 fa ee 3d 74 8b 12 3e da 16 f4 bd
       -0.12272701 0.11668806 0.1431101 -0.11918421
000030 82 56 eb 3d 09 51 7e bb 1a 30 80 bd 91 f4 81 bd
       0.114911094 -0.0038805625 -0.06259175 -0.063454755
000040 fa 2e e7 3d 7f 16 08 3c 3c 20 0b 3e 1a 40 a8 3d
       0.11288257 0.008306145 0.13586515 0.082153514
000050 2c b9 46 bd ea 48 e7 3c 28 ed 97 bd 14 c6 d5 3d
       -0.048516437 0.02823301 -0.07418281 0.10438171
000060 0e 5f 87 bd 07 42 13 3e 77 ba 01 3d c9 1d a5 3d
       -0.06609927 0.14380656 0.031671967 0.08062322
000070 80 21 ac bd 7b 10 b0 bd 3e 8b 96 3d da cf c4 3b
       -0.08404827 -0.085968934 0.07350777 0.006006223
000080 80 15 eb ba 00 80 79 3d ba 55 bf bd f8 4c cd bc
       -0.0017935485 0.060913086 -0.09342523 -0.025061116
000090 a0 05 80 3d 06 61 0f 3e b0 c4 ed 3d f8 75 b6 bc
       0.06251073 0.14001855 0.11609781 -0.022273049
0000a0 b0 85 4d be 19 fe 61 bd b6 65 54 bc e8 5a 6e bd
       -0.20070529 -0.055173967 -0.012963703 -0.058192164
0000b0 c0 0a d4 3d 1f 5a c7 3b c8 49 50 3d d2 cf 8c 3d
       0.10353613 0.0060837413 0.050851613 0.06875576
0000c0 10 a5 b9 bd c8 b5 d4 bc 7e e5 29 3b bc 17 eb bd
       -0.09064686 -0.025965586 0.0025924142 -0.11479136
0000d0 f8 fb a4 3c d7 9f b3 bc 53 31 d9 bd d4 82 ee 3d
       0.02013968 -0.021926804 -0.10605111 0.11646047
0000e0 04 94 04 bc 4c 88 7f bd ff 0f e6 bd b4 c9 eb bd
       -0.00809193 -0.062385842 -0.1123352 -0.11513081
0000f0 80 d3 42 3d f4 ba 69 bd 94 2b 5d bd 88 20 94 bd
       0.047564983 -0.057063058 -0.053996637 -0.07232767
000100 01 49 e8 3d 8b 44 fe bc d2 59 02 3e ad 1e e4 3d
       0.113420494 -0.031038543 0.12729576 0.111386634
000110 2c 7a c6 bd cb 55 2f 3e ef 9a c3 bc f0 41 25 3e
       -0.09691271 0.17122571 -0.023877589 0.16138434
000120 00 eb 9d 3e 98 fb f7 bd 05 ed 37 3e 2c fb 33 3d
       0.30843353 -0.121085346 0.1796151 0.043940708
000130 50 bd 39 bd c8 35 c2 3d 02 00 d4 bd ad 8c 9c 3d
       -0.045346558 0.09482914 -0.10351564 0.07644019
000140 9b cb 6f 3e 20 cc 32 3e 66 bb 36 3e 78 d1 98 bd
       0.23417513 0.1746068 0.17844924 -0.07461828
000150 42 43 dc bd da 6b ea bd cc 58 1a bd e4 05 91 3d
       -0.10755016 -0.11446352 -0.03768234 0.07081202
000160 6c 19 22 3d 06 00 c3 3d bb 3b e6 3d b7 06 5d 3e
       0.039575025 0.09521489 0.112418614 0.21584593
000170 82 f4 20 bd eb 31 d1 3d 1f 39 88 3a 58 21 67 3c
       -0.03929568 0.10214599 0.0010393 0.014107071
000180 00 94 6a ba 24 aa 45 3d 6c a0 b0 3d c0 a3 b8 bc
       -0.00089484453 0.048257962 0.08624348 -0.02253902
000190 0d 56 d6 3d 59 05 04 3e 44 88 44 3d 18 1c ee 3d
       0.10465632 0.12892665 0.047981516 0.11626452
0001a0 04 15 42 3e fe 52 13 bb 11 52 0c 3e c1 be 64 bc
       0.1895333 -0.0022479887 0.13703181 -0.013961495
0001b0 7a 4e e3 3d 0e 9c 2d 3c fc 9f af 3d 40 6f 4d 3d
       0.110989526 0.010596288 0.085754365 0.050154924
0001c0 b6 bf 1f 3e 9d 56 91 3e 8b ca 52 bd dc db a3 3e
       0.15600476 0.28386393 -0.05146269 0.32003677
0001d0 b8 be 16 3d ad c1 4d 3d 61 8a ae 3c c0 a0 22 bb
       0.036802977 0.05023353 0.021306219 -0.0024815053
0001e0 6f 92 85 3c 2c d3 8e 3d 65 d9 12 3d 38 f9 3e 3d
       0.016305177 0.069738716 0.035851855 0.046624392
0001f0 2b 5f ac 3d be f1 85 bd 10 ea ed bc 00 7f 69 bb
       0.08416589 -0.06540249 -0.029042274 -0.0035628676
000200 13 16 c9 3d 84 26 d2 bd 17 15 90 bd a9 dd 05 bd
       0.098186634 -0.102612525 -0.070352726 -0.032682095
000210 e8 ac da bd ff b4 a4 bd 8d 5d af 3d 7b 68 c8 3c
       -0.106775105 -0.08042335 0.08562765 0.024463883
000220 5d f1 7b 3d f8 14 a9 bc 88 02 4e bd 34 06 36 bd
       0.06150948 -0.020639881 -0.050295383 -0.04443951
000230 7e 21 d6 bd 95 96 9a 3d a0 f3 7c bc 7b b0 16 3e
       -0.10455607 0.075482525 -0.015438944 0.1471576
000240 13 8f 98 bd 42 da 48 bd 85 37 e0 3b b4 45 b2 bd
       -0.07449164 -0.049036272 0.006842556 -0.08704701
000250 d6 90 ba 3d a4 32 b7 3d 7f 52 db 3d 5c 9a a1 bd
       0.091096565 0.08945206 0.10709094 -0.0789077
000260 e6 24 b6 3d 3a f1 00 3e d7 b9 4b bd 59 56 3b 3d
       0.088937566 0.1259202 -0.049737778 0.045736644
000270 ab b8 85 3d d7 d9 82 3e d6 90 01 be 0d ba e8 3d
       0.06529363 0.25556824 -0.12652907 0.11363611
000280 64 ba 00 bd a0 9c 50 3d b0 ff 9e bd ca 00 c5 bd
       -0.031427756 0.05093062 -0.07763612 -0.09619291
000290 67 b3 84 bd d2 0f a6 3d 70 8d 7c bd a8 15 d3 3d
       -0.06479531 0.08108486 -0.061658323 0.10306865
0002a0 b0 8a a9 3e c0 f8 93 3d a6 bf 2e bc 21 12 7b bc
       0.33113623 0.0722518 -0.01066581 -0.0153241465
0002b0 8f 78 29 bd 2f e1 3d bd 3e 0a ec 3d 00 9a de bb
       -0.04137474 -0.04635733 0.11525391 -0.0067932606
0002c0 8b 64 42 3e 8c 8c 52 3d 2d ab 75 bb 45 5c b0 3c
       0.18983667 0.051403567 -0.0037486062 0.021528373
0002d0 80 ed c0 ba 3e 3f bc 3d 47 25 95 bd 18 a8 8c 3d
       -0.0014719218 0.0919175 -0.07282501 0.06867999
0002e0 03 60 4b bc 6a e4 c4 bd c1 cf 03 be e0 59 7e 3d
       -0.012413028 -0.09613879 -0.1287222 0.06209743
0002f0 8c e7 c3 bd 6c ff 79 3d 78 9d 92 3c 72 22 8b 3d
       -0.095656484 0.061034605 0.017897353 0.06793679
000300 ef 5c b4 bd e8 37 e1 3d 23 ff 90 bd 9d f8 c2 bd
       -0.08806788 0.109969914 -0.070799135 -0.095200755
000310 22 85 99 3d 3d 03 47 3c 4c c6 8f bd bb bb e5 bc
       0.07496096 0.012146768 -0.07020244 -0.028043618
000320 89 a6 4f be 92 cc de bd 39 f7 be 3d 4a 4a c3 3d
       -0.20278372 -0.108788624 0.09324498 0.09535654
000330 00 e8 18 3d 06 c8 d0 3c cc b1 07 bd 17 6f f1 3d
       0.037330627 0.025486004 -0.033128545 0.11788767
000340 9a 9d 3a 3c 83 c9 47 3d 18 96 84 3d 80 ca 9f 3c
       0.011390114 0.04877616 0.064739406 0.01950574
000350 34 bc 2a 3d 65 60 e7 3d 3c 7e a0 3d d8 0c 83 3c
       0.04168339 0.11297683 0.07836577 0.015997335
000360 94 b2 4c 3d 5a ca d5 3c ae fc ae 3d 07 92 24 3d
       0.049974993 0.026097465 0.085442886 0.040178325
000370 ad 41 c8 3d 8d 89 ae bd 31 aa bb bd 99 86 08 3d
       0.09778152 -0.085223295 -0.09163321 0.033331487
000380 40 3d 50 3d 74 da ce 3d 5c 72 46 3d f8 2b 3d 3d
       0.050839663 0.101002604 0.048448905 0.04618451
000390 0a 3c d4 3d d6 a5 ba 3c 90 07 e2 3d b6 b3 81 3d
       0.10363014 0.022784155 0.11036599 0.06333105
0003a0 cc 04 f6 bd 25 53 c3 3d 73 b1 b2 bd 72 7a 8d 3d
       -0.12012634 0.09537343 -0.08725252 0.0690812
0003b0 1e e7 03 3e 96 41 a5 bd 10 87 2f bc 34 3c 9c bd
       0.12881133 -0.0806915 -0.010713354 -0.0762867
0003c0 38 e4 18 be 38 15 21 bd d8 6d 9f 3d fe 58 2b bd
       -0.14930809 -0.039326876 0.07784623 -0.041832916
0003d0 80 69 f2 bd 4a 67 95 3d f5 9c 8c 3d 60 a3 b9 bc
       -0.11836529 0.072950915 0.06865875 -0.022660911
0003e0 d5 34 e2 3d 5e 59 c5 3d 00 60 ad bc 20 2c 9e 3b
       0.11045233 0.09636186 -0.02116394 0.0048270375
0003f0 97 da b3 3c 70 a9 c8 bc c0 46 fc bc dc 1d 67 bd
       0.021954818 -0.024494857 -0.030795455 -0.05642496

rnn.0.rnn.weight_hh_l0 f4 [256, 64]
000000 ba 94 89 bc 52 be 98 bd 8b c2 d4 bb 94 21 d7 3d
       -0.016794551 -0.07458176 -0.006492918 0.105044514
000010 46 c2 9c 3d b3 d0 0c bc 6e d2 a6 bd 40 94 43 bd
       0.07654242 -0.00859468 -0.08145605 -0.047748804
000020 ac e9 b6 bb c7 09 5e bd ae 7d 52 bd f1 ee 9a 3d
       -0.005582055 -0.054208543 -0.05138939 0.07565106
000030 4b 0a e1 bd 1f ba 3d bc 84 e5 cc 3d 77 be 36 3d
       -0.10988291 -0.011580019 0.10004714 0.044615235
000040 93 9f 35 bc 69 d1 b9 3d 9d 66 98 bd 2a e0 3e 3d
       -0.011085409 0.09073145 -0.07441447 0.0466005
000050 81 2d ff 3d 9b 86 6d bc f4 27 f2 bd 8f 6d c1 bd
       0.12459851 -0.0144974245 -0.11824027 -0.09444725
000060 87 c7 e4 bd c4 fc 8a bd 47 36 2d 3d 71 df 7b bd
       -0.11170869 -0.067864925 0.04228809 -0.061492387
000070 c1 7b 04 3c 7c ec ea bd 49 ca 0e bd 7e 7b 50 3d
       0.008086146 -0.11470887 -0.034860883 0.05089902
000080 fa 1f 5a 3d c0 14 d8 3d 58 ef 70 3d 06 c4 c6 bd
       0.05325315 0.10550833 0.058822006 -0.09705357
000090 9a fc 9f 3d 0c a5 bf bd 86 21 04 3c d2 b5 6f 3d
       0.07811852 -0.09357652 0.008064633 0.058523007
0000a0 8a 84 f4 3d 99 9a 87 3c 42 84 44 3d ff e9 9d 3d
       0.11939342 0.01655321 0.047977693 0.07710647
0000b0 e7 b2 f7 3d 31 4f b9 3d 57 27 43 bd fe e8 12 3d
       0.1209467 0.09048308 -0.04764494 0.03586673
0000c0 3f 7d e2 bd c5 96 11 bd b4 cf 17 3c b2 a7 8f 3d
       -0.11059045 -0.035544176 0.009265829 0.07014407
0000d0 f2 0b a7 3d 19 e5 88 3c 9d c1 4d bd 05 ce c0 3d
       0.08156575 0.016710805 -0.050233472 0.09414295
0000e0 22 85 be 3d df e8 4b bd 29 7b ac bc 0f fe c3 bc
       0.09302737 -0.04978263 -0.021054821 -0.023924856
0000f0 7d a4 56 3d a7 6a a9 bd ef 1c ae bd 56 96 8f bd
       0.052402962 -0.082722954 -0.085016124 -0.07011096
000100 83 e7 b7 3d 6d cb 66 3c a4 7e 22 3e 9d 0c c4 3c
       0.08979704 0.014086586 0.15868622 0.023931796
000110 3a 6e 4b 3e e9 9e d8 bc 04 ef a0 3c 03 28 aa 3d
       0.19866267 -0.026442962 0.019645222 0.08308413
000120 e3 d6 8e bd 29 e9 a0 3d 8c 0b 23 be 80 8c 07 bc
       -0.0697458 0.07856972 -0.15922374 -0.008273244
000130 5f 60 11 bd ee 0a 8a 3d a9 cc cb 3d 1e cc 45 bd
       -0.035492297 0.06740366 0.09951145 -0.048290364
000140 13 30 2a 3e ae 08 d5 bc 65 65 7f bd 5a 4a 07 be
       0.16619901 -0.026005115 -0.062352557 -0.13211957
000150 fb ae c9 3d dd eb c2 3d f6 ce 1a bd 74 b6 31 3c
       0.09847828 0.095176436 -0.03779503 0.010846723
000160 d2 42 62 3d 4b 41 5e 3d 82 98 52 3c cf f8 83 bd
       0.055239506 0.054261487 0.0128537435 -0.06443941
000170 0f 80 6f 3d 81 89 42 bc 41 b7 08 be 3d b9 b7 3a
       0.058471736 -0.011873604 -0.13351156 0.0014016997
000180 bd 2e 31 3c 19 94 78 3d 25 99 0c 3e 8a 3d 69 bd
       0.010814366 0.060688112 0.13730295 -0.056943454
000190 c2 d2 b5 bd d3 e2 db ba dc 4d b8 3c b4 2a f2 3d
       -0.088780895 -0.0016775973 0.022498064 0.11824551
0001a0 b9 47 e6 3c 30 0b 22 be ba 7d 06 3d 1b 0e 58 3d
       0.028110372 -0.1582458 0.032834746 0.052747827
0001b0 61 a5 ad bd d8 22 25 3d 0a 81 e8 ba c3 20 b1 bd
       -0.08478809 0.040316433 -0.0017738652 -0.08648827
0001c0 b6 e0 f5 bc 2d 37 27 3d 72 bd c6 3d dd de 9f 3d
       -0.030014377 0.040824104 0.097041026 0.0780618
0001d0 0f 31 78 3d 08 65 ad 3c 8f 04 a4 3d 80 cf e2 3d
       0.06059366 0.02116634 0.08008682 0.11074734
0001e0 5b 96 6c bd c2 a4 a5 bd 30 d4 9f bd 98 cf 29 3c
       -0.057760578 -0.08088066 -0.078041434 0.010364436
0001f0 5f 72 21 bd e3 3b 8b 3d b3 25 2f bd 07 3e 2f 3e
       -0.039415713 0.06798532 -0.042760562 0.17113505
000200 6a 40 d8 bd 5d e2 76 bb 99 55 84 3b f2 43 8b bc
       -0.10559161 -0.0037671544 0.0040385243 -0.017000172
000210 b9 08 01 bc db 0a a2 bd 20 ed 10 bd 69 99 bd bd
       -0.007875615 -0.07912227 -0.03538239 -0.09257776
000220 d7 1c d6 bd 32 2f 0d be 06 3e ec 3d d2 f1 fc 3c
       -0.104547195 -0.13787535 0.115352675 0.030877028
000230 e2 25 f3 3d 09 81 5a 3b 54 a8 56 bd f5 b7 18 bd
       0.1187246 0.003334107 -0.052406624 -0.03728481
000240 4d a7 06 be e2 18 02 3e d3 43 9f 3d 1c 48 9e bd
       -0.13149758 0.12704805 0.07776608 -0.077285975
000250 a0 5f 23 3d b0 79 b5 3d e7 35 82 bd e6 36 83 bd
       0.039886117 0.08861101 -0.06357937 -0.064069554
000260 22 5d 93 bd 3a 69 e5 bd e4 9b d7 3d f2 c2 55 3c
       -0.07195498 -0.11201711 0.10527781 0.013046967
000270 94 3d e7 bc 51 cb 5c 3d 1d 51 b9 bd f9 4a b8 3d
       -0.028227605 0.053904835 -0.09048674 0.08998675
000280 77 0b d9 bd 5c 96 be 3d d7 78 b0 bd bd 5b 8f 3d
       -0.1059789 0.093060225 -0.08616798 0.069999196
000290 67 c4 4e 3c f2 1c e3 bd a1 16 b2 3d e2 33 56 3d
       0.012620068 -0.11089505 0.08695722 0.052295573
0002a0 bb 7b 76 3d 04 7a 8e 3d be 9e bb bd ac a9 e6 3c
       0.060176592 0.069568664 -0.09161137 0.028157078
0002b0 f6 35 6e 3d 88 d8 c6 3d 19 ef e3 bd 73 55 fe 3b
       0.05815693 0.09709269 -0.11129589 0.007761651
0002c0 62 cb a8 3d 99 69 9d bd 3c 0c a0 bd 35 10 03 3e
       0.08241917 -0.07686157 -0.078148335 0.12799151
0002d0 75 ff a1 3c a2 05 25 bd 32 bc c3 bd df 9b 94 3b
       0.019775132 -0.040288575 -0.0955738 0.004535183
0002e0 25 79 e4 3c a4 88 df 3d ed cb 03 bd 64 1a 71 3d
       0.027889797 0.10914734 -0.0321769 0.05886306
0002f0 7c f1 9d 3d c1 a2 20 3d 99 6d 2b bd c0 6e c7 3c
       0.07712075 0.039217714 -0.041852567 0.024344802
000300 41 2c 99 bc 4b 11 70 bd 53 fa 7a bd be af 11 bd
       -0.01869786 -0.05861024 -0.061273884 -0.03556799
000310 11 79 13 bd 77 00 c8 bb d1 90 c4 3d 5b ba 72 3d
       -0.03600413 -0.006103571 0.09597934 0.059259754
000320 88 6c 0f 3d d4 d4 5d 3d 60 1f e2 3d 8e 7c a5 bd
       0.035015613 0.054158047 0.110411406 -0.080803975
000330 2b 40 81 bc 13 25 b5 bd 86 e2 72 bd 85 c1 5e 3d
       -0.015777668 -0.08844962 -0.05929806 0.054383773
000340 6c ec d7 3d e5 8a 21 3d 3a e3 f2 bc c8 00 56 bc
       0.10543141 0.0394391 -0.029649366 -0.01306171
000350 6b 8f a2 bd 15 79 53 3c be 20 d0 bd 72 72 cb 3d
       -0.07937511 0.012907286 -0.10162495 0.09933938
000360 ce 68 18 bc ee 91 0e 3c f0 a7 79 bd f4 bb 68 bd
       -0.009302331 0.008701785 -0.060951173 -0.05681987
000370 c1 0d 35 3d 3d 8f 03 3d 4a 14 42 3d ac eb ad 3d
       0.04420257 0.032119025 0.04738263 0.084922165
000380 d3 7e a8 bd a5 01 e9 3d 6d 13 14 3c 99 42 e2 bd
       -0.08227315 0.11377267 0.009037835 -0.11047859
000390 60 48 97 3d 1d e0 9c bd 76 42 fb 3d 78 e9 86 bd
       0.07386851 -0.07659934 0.12268536 -0.065874994
0003a0 59 43 0a bd 8d a9 4a 3d 7d 65 ee 3d 27 ea a9 bd
       -0.033755634 0.049478102 0.11640451 -0.08296614
0003b0 8f 13 48 3d 9d 2b d1 bd ee 3f d3 3d ba c5 15 bc
       0.048846778 -0.10213397 0.10314928 -0.00914138
0003c0 48 4d 98 3d 0e 8e a3 bd 4a 81 8c 3b db 33 c7 3d
       0.07436615 -0.07986079 0.0042878734 0.097266875
0003d0 02 73 96 3d 9b 1a b7 3d e5 a7 60 3d 51 cd c3 bc
       0.07346155 0.089406215 0.054847617 -0.023901613
0003e0 0f 57 da bd ec 99 29 3c 9c 6d 16 be 92 b8 00 be
       -0.10661136 0.010351639 -0.1469025 -0.12570408
0003f0 14 8a 4e 3d 55 c7 b9 3d 74 43 98 3c 73 b8 12 be
       0.05042465 0.09071223 0.018586852 -0.14328174

rnn.0.rnn.bias_ih_l0 f4 [256]
000000 20 8e e8 bd f8 81 af 3d 70 27 a5 bd fa dc 00 3d
       -0.11355233 0.085697114 -0.08064163 0.03146074
000010 4c c2 72 bd 19 05 80 3d 07 14 37 bd f5 c1 ad 3c
       -0.059267327 0.06250972 -0.044696834 0.02121065
000020 07 61 07 3e 1e 9d 38 3d 41 e9 ad 3d 13 8c d3 3c
       0.13220607 0.045071714 0.08491755 0.025823629
000030 e8 86 c4 bd cd 82 22 bc 94 ad b5 3c 0d f6 39 bc
       -0.09596044 -0.009918881 0.022177495 -0.011350167
000040 72 89 84 3d b5 9f 94 3d 28 22 0a bd 03 f9 6a 3d
       0.06471528 0.07257024 -0.03372398 0.057366382
000050 44 e3 15 bc 6b 0a f2 bc 84 ea 70 3d 28 83 8e bd
       -0.009148423 -0.029545983 0.0588174 -0.0695861
000060 9d 0c 24 3d 27 f1 10 3d 2e de 88 3d 38 30 cb bc
       0.04005109 0.03538623 0.066830024 -0.024803266
000070 31 86 4c 3d 20 b9 a1 bd c5 20 ce bd 6d 42 d1 bd
       0.049932662 -0.07896638 -0.10064844 -0.10217748
000080 7b 73 47 bd ee 92 27 bd 06 6f 74 3b 5d 9d 6b 3d
       -0.048694115 -0.040911607 0.003729762 0.05752312
000090 cd 57 f4 3d 23 32 b1 bc d5 4f c2 bc 2e 87 d4 3d
       0.11930809 -0.021630352 -0.023719708 0.10377346
0000a0 47 46 fd 3d 28 2e 4d 3c a1 5a 82 bc 94 10 93 3d
       0.1236692 0.012523212 -0.015912356 0.071808964
0000b0 22 62 c7 bc 45 57 eb bd 28 69 8c bd 75 87 40 3d
       -0.024338786 -0.11491255 -0.068559945 0.047004182
0000c0 37 fe ef 3d 75 63 87 3d c9 51 d7 bc 9f 0f d2 3d
       0.117184095 0.06610767 -0.026284115 0.10256886
0000d0 74 4d de 3c db 05 be bd d9 e2 49 3c 34 26 af bd
       0.027136542 -0.092784606 0.012322151 -0.085522085
0000e0 f7 d4 d5 3d 60 ac c0 3d e8 c1 d7 bc 84 90 56 3d
       0.104410104 0.09407878 -0.026337579 0.052383915
0000f0 43 55 2e 3d ea 0e 73 bc 31 3a 8b bc a8 54 95 3d
       0.04256178 -0.014835099 -0.016995521 0.072915375
000100 aa 88 7b 3d a8 66 de 3d de 4e 03 be fd d9 e6 3d
       0.06140963 0.10859424 -0.12823054 0.11272047
000110 4b fc 94 bd 7b 42 14 bc bf fa c5 bc 4f 6e df bb
       -0.072746836 -0.009049053 -0.024167417 -0.0068185697
000120 db 6b b3 bc c6 06 11 bd ad 4c 21 3c ef fe dd bd
       -0.021902015 -0.03540685 0.009844941 -0.1083964
000130 af 18 c3 3d d4 40 b4 3b 85 fe 6a bd 40 88 e5 3d
       0.095261924 0.005500892 -0.057371635 0.11207628
000140 bb bf aa bd 0f c4 eb 3d 6c 09 13 bc fc 2e af 3d
       -0.08337351 0.115120046 -0.008974414 0.085538834
000150 5c 8e 56 bd 42 cc fb bc 64 0b dc bd c1 8e 8c 3d
       -0.05238186 -0.030737046 -0.1074436 0.06863166
000160 d9 6c 2e bd 0f f0 bc 3d d5 ba 88 bd 8a 42 86 bd
       -0.042584274 0.09225475 -0.066762604 -0.0655566
000170 20 f3 63 3c 1f 36 29 bc 73 53 53 bd 7b b9 b5 3d
       0.013912946 -0.010327845 -0.051593255 0.08873268
000180 dc b0 a4 3d 00 bd dc bd b8 f2 92 bd 76 68 dc bd
       0.08041546 -0.107782364 -0.07175201 -0.10762112
000190 90 b4 a3 3d 63 71 87 3d 78 10 8e 3d 1a 7e cb bd
       0.07993424 0.06613424 0.06936735 -0.09936161
0001a0 b5 42 2a 3d bd ec d6 bd dc e0 fd 3d 26 fc e4 3d
       0.041567523 -0.10494373 0.12396404 0.11180906
0001b0 e2 6b b7 bd 8c 35 cd bc 83 a0 a5 bc 98 c1 80 3d
       -0.08956124 -0.025049947 -0.02021814 0.06286925
0001c0 62 4e 2f bd 12 ae ad bd 95 df e4 bc 03 d1 2b 3d
       -0.04279936 -0.08480467 -0.027938643 0.041947376
0001d0 b2 08 9b bd d9 19 a0 3d 67 73 b8 bc 84 9b 9a bd
       -0.07570018 0.0781743 -0.022515966 -0.075491935
0001e0 13 47 d1 3d f0 06 ea bd 59 3f 98 3d 22 b6 e1 bc
       0.102186345 -0.114271045 0.074339576 -0.027552668
0001f0 04 5a ab 3d c0 d4 cc bd 01 7c 65 bd 37 a0 00 3e
       0.083667785 -0.10001516 -0.056026462 0.12561117
000200 9a 29 c9 3d b8 e2 8d bd cc 04 ec 3d 88 a6 f8 bd
       0.09822388 -0.06928009 0.115243524 -0.12141138
000210 e2 f3 7e 3a a6 c1 cb 3d 21 06 9e 3d e5 f0 fd 3d
       0.00097256724 0.09949045 0.07716013 0.123994626
000220 bf 59 58 bd d2 46 23 bc a3 9e 93 bd 9b 5e 92 bd
       -0.052819964 -0.009965615 -0.07207992 -0.07146951
000230 aa 21 3a 3d 90 3d d5 3d a4 71 76 3d b3 d9 00 3c
       0.04544226 0.10412133 0.06016697 0.007864404
000240 d7 ae 82 3c 6a 05 06 be 8c d6 99 bd d9 dd b5 3d
       0.01595251 -0.13088003 -0.07511625 0.08880205
000250 a3 1b 84 bc 29 01 70 bd c8 0e 44 bd 48 09 ad bd
       -0.01612646 -0.058594856 -0.04786566 -0.08449036
000260 40 b6 34 bd 05 dc b7 bd 93 ed cf 3d bf e4 06 be
       -0.04411912 -0.08977512 0.101527356 -0.13173197
000270 ef d5 83 3d ab 32 00 bd 91 3d ec bd d3 6f 9c 3d
       0.06437289 -0.03129832 -0.1153518 0.07638516
000280 bc f1 9f 3c 64 94 c6 bd 6b ba 05 3d a9 29 08 be
       0.019524448 -0.09696272 0.032648485 -0.13297142
000290 45 5f 81 3d 14 6f 31 3d e6 c8 ea bc 0e 55 b5 3d
       0.06316999 0.043318823 -0.028660249 0.088541135
0002a0 b1 ef 7f 3d 1e 8d 12 3b 48 df 7b bd d7 67 a3 3d
       0.062484447 0.0022361944 -0.061492234 0.0797879
0002b0 7e d4 10 be 81 56 c9 bd 85 26 8a bd 9b f5 82 bd
       -0.1414356 -0.098309524 -0.06745628 -0.06394502
0002c0 44 7a bd 3d f4 3d 0c be b3 6f be bd d9 ac fc bd
       0.09251836 -0.13695508 -0.09298649 -0.123376556
0002d0 81 cc 76 3d 07 8f 12 3d 7c 4a 1c bd d0 6f 34 bd
       0.060253624 0.035780933 -0.03815697 -0.044051945
0002e0 0a 0b b5 bd 1d 53 ee bd a3 3d 5c bd b7 d7 98 bd
       -0.08839996 -0.11636946 -0.05376972 -0.07463019
0002f0 86 5b 83 bd 54 c4 de 3d f1 a1 81 bd 58 56 a3 bc
       -0.06413941 0.1087729 -0.06329716 -0.019938633
000300 44 32 99 bd a5 4e de 3d ae a9 93 bd 4e 01 14 bc
       -0.074802905 0.10854844 -0.07210098 -0.009033514
000310 8b ad 82 3d 07 4f 70 3b b0 21 d6 bc b5 39 68 bd
       0.06380757 0.0036668198 -0.02613911 -0.05669566
000320 45 b2 0f bd 90 3d ab 3d d9 24 88 ba 1b 3c 7e 3d
       -0.03508212 0.083613515 -0.0010386958 0.06206904
000330 f6 92 b9 bd ab 89 ef 3d 78 c6 06 3e e5 52 68 3d
       -0.09061234 0.1169618 0.13161647 0.05671968
000340 33 fc bc 3c c0 03 7c 3d c3 04 a0 bc f8 5d d8 3d
       0.023069477 0.061527014 -0.01953352 0.10564798
000350 b9 e9 ed bd 8f 23 01 3e 42 b4 ef bd 02 0a eb 3c
       -0.11616845 0.12611221 -0.11704303 0.028691296
000360 97 07 81 bd 0e 90 c7 3b bd dd 91 bd 02 09 a1 bd
       -0.06300276 0.0060901707 -0.07122371 -0.07863046
000370 39 fd 92 bd 8b 37 86 bd f5 dc 00 be 5c 27 d2 bd
       -0.07177205 -0.06553563 -0.12584288 -0.102614135
000380 a5 de 24 3d b5 0e 34 3d a1 5c 93 3d 8e 4c 1e 3d
       0.040251393 0.04395934 0.07195402 0.038647227
000390 9a 70 f4 bd 29 69 d6 bd 87 a5 59 bd 86 d6 dc bd
       -0.119355395 -0.104692765 -0.053136375 -0.107831046
0003a0 f8 ca 51 bc 65 7f d3 bd db e7 86 bd 64 36 5e bc
       -0.012804739 -0.10327033 -0.06587192 -0.013562772
0003b0 1a 91 af bd fa 6c b0 3d c3 59 f0 3d 82 8b 67 3d
       -0.08572598 0.08614536 0.11735871 0.05652953
0003c0 c7 86 98 bc 56 4f 9c bd 3f 93 33 3c 60 62 c1 bc
       -0.018618954 -0.0763232 0.010960399 -0.02360648
0003d0 29 b5 43 bd 3d 9a 0e 3d 6b 5a 9e bd fc 3c db 3d
       -0.04778019 0.03481506 -0.077320896 0.10704991
0003e0 60 77 04 3e 24 81 f6 3d 4b cf 8e bc 75 ec 05 3e
       0.12936163 0.1203635 -0.01743283 0.13078482
0003f0 eb cd de 3d e1 a4 f3 3d e2 af 0c 3c c8 cb 12 3e
       0.108791195 0.118966825 0.008586856 0.14335549

rnn.0.rnn.bias_hh_l0 f4 [256]
000000 2c 09 ab bd 14 05 95 bc 30 5d c4 3d 75 5c 7b 3c
       -0.08351359 -0.018190898 0.095880866 0.015341868
000010 a0 15 ad bd 6b 81 65 bd e8 2e 95 3d 94 12 d5 bd
       -0.0845139 -0.056031626 0.07284337 -0.10403934
000020 71 c1 c2 3d d3 0b 9b 3d 55 b0 03 3e 21 e6 db bc
       0.09509552 0.07570615 0.12860234 -0.026843132
000030 a9 0d da 3b 2b 3a 8f bb ed 3a b1 3b a5 86 b3 3d
       0.0066544604 -0.004370948 0.005408636 0.08765916
000040 91 52 1e 3b d9 04 ac 3d b6 49 ab 3d 9d 07 46 3c
       0.00241581 0.08399362 0.083636686 0.012086776
000050 90 d6 c7 bd 36 56 cd 3c cb 5a 0f 3b bc 08 94 3d
       -0.097577214 0.025065523 0.0021874185 0.072282284
000060 93 b4 76 3d 14 9f 7d bd 46 66 a0 3d b0 a4 eb bd
       0.060230803 -0.061919287 0.07832007 -0.11506021
000070 96 30 0b 3c 10 58 a5 3d fa 30 46 bd bf a4 00 bc
       0.0084954705 0.08073437 -0.04838655 -0.0078517785
000080 d9 a9 c3 bc 0e a6 82 bd ba bc bf bd 05 b0 ad bd
       -0.0238847 -0.06379329 -0.093621686 -0.08480839
000090 d9 39 6e 3d 49 c2 ff bc 3e 8e 04 be e6 b6 dd 3d
       0.058160637 -0.031220572 -0.12944886 0.10825901
0000a0 9b 8e 87 3d 5a 0f e5 3c 21 87 c1 bc ec 7e a0 3d
       0.06618997 0.027961422 -0.023624005 0.078367084
0000b0 20 54 07 3e a9 ce b2 3d 66 d9 88 3d 3c 32 aa bd
       0.13215685 0.087308235 0.066820905 -0.08310363
0000c0 a5 9c d3 bd 2f 02 5c bd 35 64 12 bd c3 6f a4 3c
       -0.10332612 -0.05371302 -0.035740096 0.020072823
0000d0 27 fe c9 3d 09 45 b5 bd dd f2 47 bd b6 15 ff bd
       0.09862929 -0.08851058 -0.048815597 -0.12455313
0000e0 e3 e4 ce bd 3a ff c7 3d 03 bc 3c bd bc 02 aa bd
       -0.101022504 0.097654775 -0.04607774 -0.08301303
0000f0 26 95 8c bc d6 ac e0 bd 4e 2b 1c bd ec 36 a5 3d
       -0.017160963 -0.10970466 -0.038127236 0.08067116
000100 98 42 f8 3d e1 a7 e8 bd 9f b9 07 bd 57 49 04 3c
       0.12122077 -0.11360145 -0.033136006 0.008074126
000110 4e df ba bd 02 ed c8 3d 5d 95 ea bd be 64 fc 3d
       -0.09124623 0.09810831 -0.1145427 0.123239025
000120 fd 3a 2c 3c b6 46 f4 bd 68 24 42 3d ef 57 f9 bd
       0.010512111 -0.119275495 0.047398 -0.12174975
000130 7b 99 8b 3d 5d 94 7e bd be 1f 62 3d 22 db c4 bd
       0.068163835 -0.06215321 0.055206053 -0.09612109
000140 83 75 ab 3d 7e 33 ee bd b9 b6 52 3d bd ba 97 bc
       0.08372023 -0.11630915 0.05144379 -0.018521661
000150 d2 de b1 bd 44 f8 3a 3d 7c f8 af 3d 83 f7 c9 3d
       -0.08685078 0.04564692 0.085923165 0.09861662
000160 19 9f d8 bc fa 15 5b bd 8e 4a b1 3d e1 33 f6 bd
       -0.026443051 -0.053487755 0.08656798 -0.12021614
000170 11 90 6f bd fb 97 a3 bd dd 21 1c 3d 10 fd 95 bc
       -0.058487 -0.07987972 0.038118232 -0.018309146
000180 16 de cd bc 90 0d d9 3a 6a a4 fc 3d d6 26 d0 bd
       -0.025130313 0.0016559828 0.12336047 -0.10163657
000190 f9 9f 73 bd e8 27 05 3c 5d 45 20 bd 6a 62 bd bd
       -0.059478734 0.00812719 -0.03912865 -0.092472866
0001a0 49 16 f5 3c 07 4d 9c 3d 41 38 40 bd f8 9e c8 3d
       0.029917853 0.07631879 -0.046928648 0.09795946
0001b0 82 5f f6 bd 66 95 0f 3b ff 03 84 bc 29 03 1f bd
       -0.120299354 0.0021909117 -0.016115187 -0.038821373
0001c0 37 e7 4d 3d 94 db da bd 4d 65 c5 bd 5f de 2c 3d
       0.05026933 -0.106864125 -0.09638462 0.042204257
0001d0 0e 75 9e bd 83 e8 89 3d 6e 0f 10 be fd 9a 64 3d
       -0.0773717 0.06733801 -0.14068386 0.05581187
0001e0 b6 d2 46 3d 13 68 7e 3d ab 22 b2 bd ff 6b f3 bd
       0.048540793 0.06211097 -0.08698019 -0.11885833
0001f0 e5 69 46 3d 1c 54 ea bd b5 d3 6a bd 93 29 30 bd
       0.048440833 -0.11441824 -0.057330806 -0.0430084
000200 42 2c fe bd 43 b2 8b 3d 1c 2a cf bd 19 13 2c 3d
       -0.12410785 0.0682111 -0.101154536 0.0420104
000210 0d 7d 13 bb 08 43 a6 3d 3b 6a e7 bd 1b d2 82 bd
       -0.0022504956 0.08118254 -0.11299559 -0.06387731
000220 e5 e4 c1 bd 3a fa 4d bd 61 3c b6 bd 8d 75 c8 3d
       -0.09467486 -0.050287463 -0.08898235 0.09788046
000230 f3 a4 81 3d 64 81 9d 3d 9f 1e 28 3d f8 b9 05 3c
       0.0633029 0.07690695 0.041044828 0.008162014
000240 31 dc 3e 3d 6d f9 af bd 72 6e fa 3d d7 33 26 3d
       0.04659671 -0.08592496 0.12228097 0.040576782
000250 06 f7 bd 3d 94 ca 75 3d c8 12 b8 3d be 79 3b 3d
       0.092756316 0.060007647 0.08987957 0.0457704
000260 22 3f f9 bc 05 a8 0e be 3f fc a2 bc ea 82 7e bd
       -0.030425612 -0.13931282 -0.019895671 -0.062136568
000270 b0 bf c1 bc 07 56 d2 3d 69 45 94 3d ff cf 95 bd
       -0.023650974 0.10270315 0.072398014 -0.07315063
000280 f2 29 d8 bc 79 0b 67 3d 50 22 5f 3d 6f e2 10 bd
       -0.026387189 0.056407426 0.054476082 -0.035372194
000290 5b 5f 0d be 91 99 ff bd d5 df 34 3b a6 64 aa bd
       -0.13805906 -0.12480462 0.0027599235 -0.083199784
0002a0 91 ba e2 bd 2c 58 07 be 41 6f d4 3c c1 db b2 bd
       -0.11070741 -0.13217229 0.025931956 -0.08733321
0002b0 fb e9 95 bc f7 22 ef bd ab 71 b6 3d 97 9f f3 bd
       -0.018300047 -0.11676591 0.08908399 -0.11895674
0002c0 b4 54 83 3d 82 37 aa 3b fc d5 0f 3d f7 e2 1d be
       0.0641264 0.0051946053 0.03511618 -0.15418611
0002d0 6e 5b 04 3e 4d 76 0d 3e f8 b2 e5 3c 39 5f d7 3d
       0.12925503 0.1381466 0.02803944 0.10516209
0002e0 e4 9c 5c bc da 58 21 bd 35 1e b5 bc 0e 07 bd bb
       -0.01346514 -0.039391376 -0.02210913 -0.0057686632
0002f0 84 59 0e 3e 42 c8 6a bd d8 01 90 3d 91 c1 06 3e
       0.13901335 -0.057319887 0.07031602 0.13159777
000300 36 aa 18 3d 88 c5 3c 3d 22 46 e1 3d 57 ee db bd
       0.0372717 0.046086818 0.10999705 -0.10738819
000310 79 ce 4a bb da 26 76 bd d3 2c a2 3d f8 aa b1 bd
       -0.0030945821 -0.060095645 0.07918706 -0.08675188
000320 c7 17 cf bd 2b 45 2f bd d7 0d 8b 3d 45 9e ef 3d
       -0.10111957 -0.042790573 0.06789749 0.117001094
000330 56 92 7d bc 16 d3 bb 3b 16 7f 14 3c 6c 24 8e 3d
       -0.015476784 0.0057319505 0.009063503 0.06940541
000340 53 89 cd bd f2 5f d8 bd 3e 2f c6 3d 78 f0 35 3d
       -0.10035958 -0.10565175 0.096769795 0.044418782
000350 c4 4a 61 bd f3 96 4a 3c ca 57 1e 3d c9 3f 34 bd
       -0.055002943 0.012365091 0.03865794 -0.044006143
000360 dc 55 cc 3d e5 b9 0d 3d 7b df 6b 3d 80 e9 c1 3d
       0.09977314 0.03460111 0.057586174 0.09468365
000370 e3 e3 08 bc a7 2a 2b 3e db 8a 05 bd 7a 39 e4 bd
       -0.008355114 0.1671549 -0.032603126 -0.11143775
000380 1e a7 f6 3d cc 9c df bc 7d b3 12 bc a5 ac 01 3e
       0.12043594 -0.027296446 -0.008953926 0.12663515
000390 75 c2 de bb 2d dd ce bd d2 42 98 bd b3 4e 56 3d
       -0.0067980834 -0.1010078 -0.0743462 0.052321147
0003a0 8e 36 bf bc 27 0f 4a 3d f3 18 45 bd 38 c6 b8 bd
       -0.023341443 0.049330857 -0.048119497 -0.09022182
0003b0 95 e9 51 bd 27 d4 83 bd c2 28 57 bd 91 18 a2 bc
       -0.05124815 -0.06436949 -0.052529104 -0.019787105
0003c0 b9 6a 83 3d 38 aa 2c 3d da 42 a5 bd b7 b6 99 3d
       0.0641684 0.04215452 -0.080693915 0.07505553
0003d0 31 d2 2f bd bf a0 a6 bd 83 82 94 bd ee 53 ec bd
       -0.042925064 -0.08136129 -0.07251456 -0.11539446
0003e0 7c 41 87 3d 24 98 bb bd b8 e2 0a bd 3b b6 54 3d
       0.06604287 -0.09159878 -0.033907622 0.0519316
0003f0 99 27 6c bd 33 26 45 bd 4e ed dd bd bf 87 ff 3d
       -0.05765495 -0.048132133 -0.10836278 0.124770634
